public/onnx_models/bean_guji.onnx (onnx, 2339 bytes, 5 tensors)

net.0.weight f4 [16, 1]
000000 30 1d 07 3f a3 07 19 bf 3f a2 1c bf 33 09 51 be
       0.5277891 -0.5977728 -0.6118507 -0.20413665
000010 ef 11 d7 3e f1 f0 09 3f d3 36 db 3e 9a aa 15 3f
       0.4200587 0.5388327 0.42815265 0.5846344
000020 cd da a2 3e 92 83 08 3f c8 5b 04 bf e5 bf de 3e
       0.31807557 0.5332576 -0.5170255 0.4350578
000030 1c 68 e8 3e ba c6 19 be bd 05 2b bf 0b fc e0 3e
       0.4539193 -0.15017214 -0.6680563 0.43942294

net.0.bias f4 [16]
000000 c7 88 d5 be ee 92 e7 3e be 19 ee 3e 17 56 ed 3e
       -0.41705915 0.45229286 0.46504015 0.46354744
000010 c0 7f 89 be 15 c1 cb be 02 4c b5 be ed 51 e7 be
       -0.26855278 -0.39795747 -0.35409552 -0.45179692
000020 71 16 16 bf 3b ec af be 62 e7 d6 3e 1c 25 b2 be
       -0.5862799 -0.34359917 0.41973406 -0.34793937
000030 e0 34 7b be 04 a6 da 3e 5a bb 00 3f fc 05 b5 be
       -0.24531889 0.42704785 0.50285876 -0.35356128

net.2.weight f4 [16, 16]
000000 65 63 54 bf ef 7b 3f 3f ae f7 44 3f 8d 2c a3 3e
       -0.82964164 0.7479848 0.7694043 0.31869927
000010 d3 9b 40 bf d4 4f 16 bf 7a b4 6d bf 15 e1 4e bf
       -0.7523777 -0.5871556 -0.9285351 -0.808122
000020 f8 d0 d1 be 80 34 1e bf 78 ac 2f 3f f7 fd 06 bf
       -0.40979743 -0.6179886 0.6862254 -0.5273127
000030 f3 36 cc be f5 51 7e 3c 57 4f 41 3f d5 38 a5 be
       -0.39885673 0.01552247 0.7551169 -0.32269922
000040 6b fc af bd 23 fa 31 be 73 d4 e5 bd cf 18 98 3e
       -0.08593067 -0.17380576 -0.11222162 0.29706427
000050 95 9b 2f bd b6 2e 5e be a4 da a5 bd 7a ef 50 bd
       -0.042872984 -0.21697506 -0.08098343 -0.051009633
000060 7b 0d 8e be 81 78 b6 be 28 0e 8c be 73 18 49 be
       -0.2774466 -0.35638812 -0.2735455 -0.19638233
000070 59 3a 35 be af 19 cc 3e 67 c5 65 be 5f b2 ae bd
       -0.17698039 0.39863345 -0.22438584 -0.08530115
000080 ad 38 8e be c7 44 b3 be c9 33 c7 bc 6d 21 de 3d
       -0.27777615 -0.3501341 -0.024316685 0.10846219
000090 23 df 56 bd cf a5 27 be 1d 7d 01 be d2 98 d8 bd
       -0.052458894 -0.16371845 -0.12645383 -0.10576023
0000a0 ec de de be 3c f3 45 be 69 29 2d be 17 ee 92 be
       -0.4352945 -0.19331068 -0.16910328 -0.28697273
0000b0 4d 10 33 3d 9b 2a 0b 3e fc 0e 48 be c7 93 3e be
       0.043716718 0.13590471 -0.19536966 -0.1861106
0000c0 c2 8d 5f bf 61 82 80 3f 8f 25 87 3f 95 5b bc 3e
       -0.8732568 1.0039788 1.0558337 0.36788622
0000d0 9b 70 59 bf 59 eb 26 bf 68 93 81 bf 60 38 61 bf
       -0.8493745 -0.6520286 -1.012311 -0.87976646
0000e0 7e 8c 07 bf 22 d3 56 bf a6 98 47 3f 47 4e 44 bf
       -0.5294875 -0.83915913 0.779673 -0.7668194
0000f0 56 76 0e bf 5a 1a 8c 3d 4b a6 6e 3f bd 85 2c bf
       -0.55649316 0.06840964 0.9322249 -0.6739157
000100 33 ca a4 be 9b fd 49 be e6 b3 a7 be ed 59 82 3d
       -0.32185516 -0.19725649 -0.3275444 0.06364808
000110 77 1e de bd d0 4a 97 3d cb 04 a2 be 4c d5 98 be
       -0.108456545 0.07387316 -0.31644282 -0.29850233
000120 e6 00 a4 be dd e9 ea bd de 49 35 be ee 7d 4a be
       -0.32031935 -0.11470387 -0.1770396 -0.19774601
000130 41 40 3a be b4 a5 36 bd 7a f8 92 bd 63 db 89 bd
       -0.18188573 -0.04459162 -0.071762994 -0.06731298
000140 c1 c9 a6 bf 45 75 a2 3f fb 31 a1 3f b5 5b 3f 3f
       -1.303032 1.2692038 1.2593378 0.7474931
000150 98 08 52 bf e9 8b 89 bf f3 7b 56 bf 92 99 9a bf
       -0.82044363 -1.0745822 -0.8378288 -1.2078116
000160 1a 6f 26 bf 34 35 9c bf d6 28 91 3f c3 19 91 bf
       -0.6501328 -1.2203736 1.1340587 -1.1335987
000170 5d f9 38 bf 98 aa fd bd 2e a6 a7 3f 33 b5 5f bf
       -0.722555 -0.12386054 1.3097589 -0.87385863
000180 c6 8b b4 be 4c d1 6e be 86 a7 5a bd 71 be 54 be
       -0.3526289 -0.23322028 -0.05338242 -0.20775773
000190 89 63 23 bd 47 c9 f4 bd 1c ea b2 be c4 49 c4 be
       -0.039889846 -0.11952453 -0.34944236 -0.3833753
0001a0 9c 44 15 be fb a6 38 be 8a a1 1b bd c8 85 28 bd
       -0.14576954 -0.18032448 -0.037995853 -0.04114321
0001b0 1f 00 a6 bd e9 c8 57 3e 07 64 a5 be 38 6f 17 3d
       -0.08105492 0.21072735 -0.32302877 0.0369713
0001c0 07 7d 3e bf 3b d3 2d 3f 39 98 c3 3e 6c a7 73 3e
       -0.74409527 0.6790044 0.38202074 0.23794335
0001d0 03 0b 17 bf 00 bc bc be 48 32 6d bf 00 e7 1a bf
       -0.5900118 -0.36862183 -0.9265485 -0.6050873
0001e0 57 bd bc be eb 31 17 bf f5 46 05 3f 4e e9 ce be
       -0.36863205 -0.59060544 0.52061397 -0.40412372
0001f0 ba ad f5 be 94 aa 1b 3f ba 59 1e 3f b4 e6 97 be
       -0.47984105 0.60807157 0.6185566 -0.296682
000200 fc 8a 6d bf 66 6f 59 3f bc 9d 53 3f 51 22 ff 3e
       -0.927902 0.84935606 0.8266256 0.4983087
000210 81 57 4d bf 04 81 2b bf ad 27 6f bf 41 30 64 bf
       -0.80211645 -0.6699374 -0.93419915 -0.8913613
000220 37 67 e5 be c5 8c 6e bf a3 7a 31 3f 25 0e 1b bf
       -0.4480531 -0.9318355 0.69327754 -0.6056846
000230 59 e0 0b bf 4d bd 4a 3e ac 8a 36 3f 03 f6 d0 be
       -0.546392 0.19798775 0.71305346 -0.40812692
000240 d8 a5 46 bf 82 7f 1c 3f fa 71 30 3f 7b 33 54 3e
       -0.7759681 0.6113206 0.68923914 0.20722763
000250 74 52 12 bf b9 23 e5 be 25 b7 5a bf 54 b8 47 bf
       -0.57157063 -0.44753817 -0.85435706 -0.7801564
000260 16 3c 47 be a7 d6 19 bf ca 39 11 3f a0 6c 22 bf
       -0.19456515 -0.6009316 0.56728804 -0.63447
000270 d7 a7 e9 be c6 d8 bf 3e ea c8 30 3f 3e 18 e6 be
       -0.45635864 0.37470073 0.6905657 -0.4494037
000280 cc 17 30 bf 17 9a 02 3f d9 1e 06 3f be 73 d6 3d
       -0.6878631 0.5101637 0.5239082 0.10471295
000290 7b 39 dc be e8 86 95 be a5 59 e8 be 14 a2 0a bf
       -0.43012604 -0.29204488 -0.45380893 -0.5415356
0002a0 85 f3 83 bd 5d b1 19 bf 15 17 d9 3e 8c da 01 bf
       -0.06442932 -0.6003626 0.42400423 -0.507241
0002b0 70 1c 3a be e4 a1 d9 3d 1e 2f e1 3e 5a 6d 82 be
       -0.1817491 0.10626581 0.4398126 -0.25474054
0002c0 9b c1 4d bf 13 03 27 3f b2 df 23 3f f0 f0 db 3e
       -0.80373544 0.65239066 0.64013207 0.42957258
0002d0 92 0f 25 bf 77 57 2d bf 62 af 35 bf 1c 51 24 bf
       -0.64476883 -0.67711586 -0.7097074 -0.64186263
0002e0 f1 e8 b4 be 1c c9 45 bf 78 59 10 3f 69 42 24 bf
       -0.3533397 -0.77259994 0.5638652 -0.64163834
0002f0 25 14 04 bf ac c6 d7 3e 93 84 24 3f 12 97 f0 be
       -0.5159324 0.42143762 0.6426479 -0.46990258
000300 86 13 be bd e1 1d fd 3d b4 cf 0e 3f 79 99 c4 3d
       -0.092810676 0.123592146 0.5578568 0.09599585
000310 3d 58 77 be 4a a4 bc bb 65 c6 02 bd 98 6e 09 bd
       -0.24154754 -0.0057568895 -0.031927485 -0.033552736
000320 3f 66 d0 3c 04 28 02 be 31 f9 a5 3e d5 78 51 bd
       0.02543938 -0.12710577 0.3241668 -0.051140625
000330 fa b0 de bd 20 dd 2d bd db 44 65 3e 5a 63 62 be
       -0.10873599 -0.04244721 0.22389548 -0.22108212
000340 0a 7a 85 be 88 40 87 3d 07 e2 7a be c8 3c aa 3d
       -0.2606967 0.06604105 -0.24500285 0.08312374
000350 72 21 34 3c 05 c2 7d bd 45 7b ec be 89 00 b0 be
       0.010994302 -0.06195261 -0.46187797 -0.34375408
000360 21 cd 9f be c2 e4 c6 bc 0c 3c ef bd d6 6a 43 3c
       -0.31211188 -0.024279002 -0.11681375 0.011927327
000370 fd d2 c9 3d 28 a8 8b 3e 53 16 7f bd e7 91 ff bd
       0.09854696 0.2727673 -0.06227715 -0.124790005
000380 fd 18 a0 be f7 db 30 bd 2c 77 04 be e3 9f 0f 3e
       -0.31269065 -0.043178525 -0.12936085 0.14025836
000390 20 6f 97 3d 97 47 fc bd 66 41 77 3d bf 41 df be
       0.07394242 -0.12318342 0.060365103 -0.43604848
0003a0 70 d6 49 be 86 f6 67 be 71 2c 9a 3d 43 d7 75 3d
       -0.19710708 -0.22652635 0.07528008 0.060019743
0003b0 ab f8 9c bd 72 52 53 3e ed 33 ca 3c 2b 9b 93 3c
       -0.07664617 0.20636919 0.024682963 0.018018326
0003c0 95 51 24 bf 7d 33 33 3f 7e 8d 42 3f 76 f7 8f 3e
       -0.64186984 0.7000044 0.7599715 0.28118485
0003d0 7e 7e eb be ec 99 f2 be b7 29 12 bf 09 aa 4b bf
       -0.45994943 -0.47383058 -0.570949 -0.7955633
0003e0 84 30 e7 be f7 4a 25 bf 0f ed 22 3f 78 27 e9 be
       -0.45154202 -0.6456751 0.6364297 -0.45537925
0003f0 ee 60 ec be 63 6e 5f 3e fe 74 29 3f ec 0f 0c bf
       -0.461677 0.21819453 0.6619414 -0.54711795

net.2.bias f4 [16]
000000 1a 36 22 3e 72 22 b3 bd a0 d9 a9 bc 7c f5 a8 3e
       0.1584095 -0.08746804 -0.020733654 0.3299979
000010 88 f6 e3 3d 95 a7 a9 3e ce 52 bb 3d 4b a6 8b 3e
       0.111310065 0.33135667 0.09146653 0.2727531
000020 da 1f 99 3e 66 18 8f 3e fe 8a 09 3e b4 2e 43 3e
       0.29907113 0.27948302 0.13431928 0.19060785
000030 0d c3 6c 3e 3d bf 0b bd bf e3 ec be 5b dd d6 3d
       0.23121281 -0.034117926 -0.46267506 0.10491439

net.4.weight f4 [1, 16]
000000 67 fa ac 3e 30 82 29 bf 4c ee 2d bf d6 c4 d8 3e
       0.33784792 -0.66214275 -0.6794174 0.42337674
000010 a3 f6 74 bf 15 f2 0c 3f 65 e5 00 bf aa c3 b2 3e
       -0.9568884 0.5505689 -0.5035003 0.34914905
000020 de 85 e1 3e 18 93 84 3e 31 37 2c bd ac e2 dc 3e
       0.44047445 0.25893474 -0.042044822 0.43141687
000030 5c 52 98 be 7f 4d 01 bf 2a 78 2e bf 37 52 84 3e
       -0.29750335 -0.50508875 -0.68152106 0.25843975
