onnx_models/bean_model.onnx (onnx, 2313 bytes, 5 tensors)

net.0.weight f4 [16, 1]
00000000: 1b5f 493e 4a5a 3d3f 2812 51bf f0a4 813e
00000010: a74f 6a3f 70c8 1abf 9e1b f43e 7fca b8be
00000020: e2e8 fb3e ed7b 83bb 704b 22bf 3647 333f
00000030: a063 cc3e 77c4 363f 41f3 27bf c644 1f3f
0.19665186 0.73965895 -0.8166833 0.2532115 0.9152779 -0.60462093 0.4767732 -0.36091992
0.49201113 -0.004012576 -0.6339636 0.70030534 0.39919758 0.7139353 -0.6560555 0.62214315

net.0.bias f4 [16]
00000000: f4ec e63e 364a a0be d3d8 a43c 6ca7 fcbe
00000010: 5cf4 6b3e bb44 af3e 85e2 0a3f d5e4 dc3e
00000020: b9e4 cbbe 55d5 dc3e 77f9 c93e f0a8 34be
00000030: 8e73 0fbf e9b4 99be ec32 a23e d54f d6be
0.45102656 -0.31306618 0.020122921 -0.49346483 0.23042434 0.34232125 0.5425189 0.43143335
-0.3982294 0.4313151 0.3944814 -0.1764257 -0.560357 -0.30020836 0.31679475 -0.41857782

net.2.weight f4 [16, 16]
00000000: 0ee5 e93e d0a4 1a3d 7e5a 8dbe e93f e1be
00000010: def3 933e 3349 2c3e a0a1 963e 3723 a13f
00000020: b0bc 38bf 2087 703e 89f5 1b3e f723 9a3c
00000030: 9ebc 91bf 6163 2a3d 0a80 d53d bff1 82be
00000040: f5f8 453e 9017 943e efb8 86be 3012 83be
00000050: e4d2 213f 9b42 acbd 45af 903e f164 703e
00000060: 148d 153e dfcd ae3e 83df 273d 490b 613e
00000070: 6149 febd 4b39 3abe c5bb 1f3e 045a 4cbe
00000080: eaea 7a3c e552 2d3f e0fb e7be 22a8 df3e
00000090: f6bb cf3e 5531 d1bf 7dc7 183e 46a0 9ebf
000000a0: edaf 2740 348c 8dbe 63f5 ffbf d5b2 143f
000000b0: aa66 503f 5390 a83f 1cb6 c5bf 9848 0040
000000c0: 350c 84be 28d4 73be 258b 403e a622 af3e
000000d0: 678c b8be b74d e93d 2123 92be 8fdc 9dbd
000000e0: 3119 323e a4e8 bbbe 56e5 81bd 1737 97be
000000f0: aca0 683e ec4b 033d c590 123e 4029 f23d
00000100: db5e ed3d 9135 9cbe 1002 473e ec53 04bd
00000110: 4399 fbbd d1b7 2f3f fdc2 60bd 5455 fa3e
00000120: 1ef1 d9be 28ec d23d 0b10 013f bd8d 7fbe
00000130: b1ab 98be ce2a 59bf 84b2 183f 456d c4be
00000140: d04d 07be 6426 323f a03c cfbe 89b3 cc3e
00000150: e1d4 fc3e e41a d1bf 7196 8c3d 8edb 76bf
00000160: 5b66 1040 f87d 3fbe 9a0e d9bf 71f5 1f3f
00000170: fd9b 2e3f 6bb1 b63f 4f00 d0bf 9e12 cd3f
00000180: 2321 363d dad0 083f c8ff b1be f21a bd3e
00000190: fae8 a33e 25cd 3abf 49bf 2a3e 6fa1 e8be
000001a0: dc97 1b3f 0950 fdbd 9dab 46bf 5f83 e93e
000001b0: 31a5 2f3e 35ff 4f3f fabc 39bf ab1b 143f
000001c0: 3770 b5be 3ce2 04be 58f2 de3d 4b87 903d
000001d0: 770a 91be 5a28 b53c 76a0 f9bd 0f66 a8bd
000001e0: 0728 9b3d 8a1d babe 0c05 ea3d 1c22 aabd
000001f0: 49eb 4d3d 8c2a 063e 5951 923d 8e8d 3a3e
00000200: 6542 d0bc 1233 a73c 3402 8dbc 01f3 ac3d
00000210: e233 ca3c 7aff 81bd 974f 7b3e 0770 11be
00000220: a283 6d3d 2d9d 8d3b f5fc 5ebd 5aa3 483d
00000230: 1b42 ffbc 0837 3ebe 4baf 2cbd 894f 35bd
00000240: c317 9a3e 6d1e 143e 06ed 9bbe 7816 89be
00000250: 73a1 a53e f755 ff3d b760 cb3e 3e30 693e
00000260: 44f7 d2bd 2d55 be3e 73bf 843d ac3b c73e
00000270: 81ab 11be 99dd b43d 770c 45bc c8a8 49bd
00000280: 14f1 d9bd 15c1 21bf 8a99 8b3e 8b88 31be
00000290: 2fb2 c4be 0599 8d3f 81f5 0fbe 1952 273f
000002a0: 135a a2bf 3dcc 483e 20de 8e3f cf67 e9be
000002b0: c494 a2be f9bf 8cbf b190 9c3f 3865 83bf
000002c0: 45b9 aa3e 7c3f bd3d 3bec fcbb 21e8 84be
000002d0: 20eb 813e b9a9 11be 65f3 833e bdd0 683e
000002e0: cbdd b2bd ab34 7f3e 094f 15be 89aa 1a3e
000002f0: 8eac 51be 20e0 163e c342 dd3d f374 fb3c
00000300: b8ba bc3e 27b5 9a3e 2558 14bc 362d 60be
00000310: e8da be3d 11dc a0bd 0b85 763e 973f 483e
00000320: c6b2 5dbd 8691 663e 03d7 20be d348 b43d
00000330: e8f5 a6bd a1fb 80be cb01 923d 215c 153d
00000340: eea2 ba3d 5181 53bf e73b d63e 598a f8bd
00000350: e539 6abe cef5 a93f ca8c 8d3b c3e1 823f
00000360: 62e5 debf b4b5 03be 0b85 be3f 2fd7 18bf
00000370: 59e4 30bf 6f1b 92bf 0451 a53f 62b0 a1bf
00000380: 4301 103f 0b17 8f3e 8891 3abe 8610 6fbe
00000390: 9d7b 473e ad2d 0d3d 6bfe b13e 1db8 c23d
000003a0: 6bd2 07be 0bb1 a43e ba42 5a3e 2fc9 aa3e
000003b0: b978 31be 96e5 10be 4631 a2bd f241 ca3c
000003c0: 6e66 e13e 6925 243e 9122 2fbe bbfd 1fbf
000003d0: 8759 e53e 5056 a63e cce3 e03e a198 b53f
000003e0: eb65 44bf f3f7 e53e f682 cf3e a80d 463e
000003f0: 7900 acbf 3c90 3abd cd37 163e 78e4 8dbe
0.45682567 0.037754834 -0.27608103 -0.43994072 0.28896993 0.16824798 0.29420185 1.2588872
-0.72162914 0.23489046 0.15230383 0.018815977 -1.1385686 0.04159868 0.10424812 -0.25575063
0.19333251 0.28924227 -0.26312968 -0.25599813 0.6321242 -0.084111415 0.2825872 0.23476006
0.14604598 0.34141442 0.04098464 0.21976961 -0.1241634 -0.18185918 0.15598972 -0.19956213
0.015314797 0.6770461 -0.45309353 0.43682963 0.4057309 -1.634318 0.14919849 -1.2392662
2.6201127 -0.2764603 -1.9996761 0.58085376 0.8140665 1.3169044 -1.54462 2.0044308
-0.25790563 -0.238114 0.1880308 0.34206122 -0.36044618 0.11391776 -0.28542426 -0.07708084
0.17392422 -0.36700928 -0.063425705 -0.29534218 0.22717541 0.032054827 0.14313038 0.11824274
0.11590358 -0.30509618 0.1943438 -0.032306597 -0.12285092 0.68639857 -0.054873455 0.48893225
-0.4256677 0.102989495 0.50415105 -0.24956413 -0.2981849 -0.8483094 0.59647393 -0.38364616
-0.13213277 0.6958983 -0.4047594 0.39980724 0.49381164 -1.6336331 0.06864632 -0.96428764
2.2562473 -0.18700397 -1.6957581 0.6248389 0.6820677 1.4272894 -1.6250094 1.6021307
0.044465195 0.5344368 -0.34765458 0.3693462 0.32013685 -0.72969276 0.16674532 -0.45435664
0.60778594 -0.12368781 -0.7760561 0.4560804 0.1715286 0.8124879 -0.7255398 0.5785472
-0.35437176 -0.12976927 0.10886067 0.07057055 -0.28328297 0.022113968 -0.121888086 -0.08222591
0.07575994 -0.36350662 0.11426744 -0.08307287 0.050273214 0.13102168 0.07144422 0.18218061
-0.025422284 0.020410094 -0.017212965 0.08444787 0.024682943 -0.063475564 0.2454208 -0.14202891
0.057986863 0.0043217153 -0.054440457 0.04898391 -0.031159451 -0.1857568 -0.04215936 -0.044265304
0.30096254 0.14464732 -0.30454272 -0.26774955 0.32349738 0.12467568 0.39722225 0.22772309
-0.103010684 0.3717436 0.064818285 0.38912714 -0.1422558 0.08831329 -0.012026898 -0.049233228
-0.10641685 -0.63185245 0.27265579 -0.17337243 -0.38417193 1.1062323 -0.14058496 0.65359646
-1.2683738 0.1960916 1.1161537 -0.45587012 -0.31754124 -1.0996085 1.2231656 -1.0265265
0.33344474 0.09240624 -0.0077185906 -0.2595835 0.253747 -0.142249 0.25771633 0.22735877
-0.0873371 0.24922435 -0.14580931 0.15104116 -0.2047598 0.14733934 0.108037494 0.030695414
0.36861205 0.30216333 -0.009054218 -0.21892247 0.09319097 -0.07854474 0.2407419 0.19555508
-0.05412557 0.2251645 -0.1570702 0.088029526 -0.08152372 -0.25191978 0.07129248 0.036464814
0.091131076 -0.82619196 0.41842577 -0.12135763 -0.22873648 1.3278139 0.004319762 1.0225147
-1.7413752 -0.12862283 1.4884351 -0.59703344 -0.6909843 -1.1414622 1.2915349 -1.2631953
0.56251925 0.27947268 -0.18219578 -0.23346147 0.19480748 0.034467388 0.34764418 0.09507773
-0.13263862 0.32166323 0.21314517 0.33356616 -0.17331208 -0.1415008 -0.079195544 0.024689648
0.4402346 0.16029896 -0.1710303 -0.62496537 0.44794866 0.32487726 0.43923795 1.4187204
-0.76718014 0.44915733 0.40529603 0.19341147 -1.3437644 -0.04554771 0.14669724 -0.2771337

net.2.bias f4 [16]
00000000: e672 833e b0f5 d43e 183a 93be 23c5 44be
00000010: 3a16 3e3d 5e3c 97be a44d bbbd 0848 b8be
00000020: b3c3 2bbe 6839 f03e 9a84 0c3e 5f78 9d3e
00000030: 792f c03e 094a e53d 067a aa3e 3b95 fc3d
0.25673598 0.41593695 -0.2875526 -0.19215827 0.046407916 -0.29538244 -0.09145668 -0.35992455
-0.16773872 0.46918797 0.13722458 0.30755898 0.3753622 0.11195762 0.33296221 0.12333151

net.4.weight f4 [1, 16]
00000000: 561e f2be 8c00 a83e a6ff 6cbf cddf e4be
00000010: ee31 c23e 3dff 38bf a0b6 01bf 999d adbe
00000020: 285f db3d 5626 b43e 0284 f23e 95f1 f73e
00000030: ba37 bc3e 1ca5 193f ccfa cc3e 8182 e0be
-0.4728877 0.32812917 -0.9257759 -0.44701996 0.37928718 -0.7226446 -0.5066929 -0.339093
0.10711509 0.35185498 0.4736634 0.484265 0.36761266 0.6001756 0.40035093 -0.43849567
