onnx_models/bean_model.onnx (onnx, 1237 bytes, 5 tensors)

net.0.weight f4 [5, 1]
0	0x3f5208f6	0.82044923
1	0xbf68f2d2	-0.90995514
2	0xbed584bb	-0.41702828
3	0x3f37e57a	0.7183453
4	0x3f4a1b00	0.7894745

net.0.bias f4 [5]
0	0xbef4aea3	-0.47789487
1	0x3f39d842	0.7259561
2	0x3f6c83c9	0.9238859
3	0xbf0ec697	-0.55771774
4	0xbf34c562	-0.7061368

net.2.weight f4 [5, 5]
0	0xbe2a7e5b	-0.16649763
1	0xbeb33035	-0.34997717
2	0x3bc876f6	0.006117697
3	0xbf12daa1	-0.5736485
4	0xbeb20437	-0.3476884
5	0x3dc7b4be	0.09751271
6	0xbe43d11c	-0.19122738
7	0x3f65adc7	0.8971829
8	0xbe970000	-0.29492188
9	0xbec67a0f	-0.38764998
10	0x3cd2903d	0.025703544
11	0xbe8b59c0	-0.2721691
12	0x3f3e47da	0.74328387
13	0xbec9453b	-0.3931063
14	0xbefb5eef	-0.49095866
15	0xbffb27af	-1.9621485
16	0x3ff508bf	1.9143294
17	0x3fa03da3	1.251881
18	0xbff1f5ba	-1.8903115
19	0xc00e4e1e	-2.223518
20	0x3deed72e	0.11662136
21	0xbe6047d9	-0.21902408
22	0x3f42dad8	0.7611518
23	0xbda48dbd	-0.08034847
24	0xbf4979ac	-0.7870128

net.2.bias f4 [5]
0	0xbec73ce6	-0.3891365
1	0xbcc05b45	-0.02348102
2	0x3e1ddf89	0.15417303
3	0x3f3fae7b	0.7487561
4	0x3da10d06	0.07863812

net.4.weight f4 [1, 5]
0	0xbf0663d6	-0.5249609
1	0xbee278ee	-0.44232887
2	0xbef2e08d	-0.47436944
3	0x3fd7217d	1.6807095
4	0xbf1a20d8	-0.60206366
