onnx_models/bean_hambela_buliye.onnx (onnx, 2339 bytes, 5 tensors)

net.0.weight f4 [16, 1]
0.36057582 -0.34219956 0.436014 0.4146067 0.40918368 -0.3736157 0.1179564 -0.34996694
0.001897463 0.36693907 0.51410866 0.15211953 0.38797355 -0.34961143 -0.49768364 -0.37635696
00000000: 659d b83e c834 afbe 3a3d df3e 5447 d43e
00000010: 8680 d13e 8f4a bfbe 2093 f13d de2e b3be
00000020: 4bb4 f83a 70df bb3e a09c 033f 39c5 1b3e
00000030: 78a4 c63e 4500 b3be 64d0 febe dcb1 c0be

net.0.bias f4 [16]
-0.3019269 0.32253572 -0.3071846 -0.30627635 -0.31988373 0.31745106 -0.11352959 0.3768645
-0.0054735364 -0.26862922 -0.333954 -0.15884751 -0.28603986 0.3213699 0.39527148 0.34730592
00000000: 2a96 9abe 6723 a53e 4d47 9dbe 41d0 9cbe
00000010: cdc7 a3be f288 a23e 3482 e8bd 62f4 c03e
00000020: 5a5b b3bb c589 89be 05fc aabe eca8 22be
00000030: d173 92be 988a a43e 0661 ca3e 15d2 b13e

net.2.weight f4 [16, 16]
-0.057655904 0.14582172 0.016490554 -0.19160016 -0.2641557 0.20060752 0.06700155 -0.018232478
-0.025657747 0.08097286 0.29773808 0.15336308 -0.044447646 0.3494425 -0.11181885 0.0795466
-0.31303394 -0.096359156 -0.11592107 -0.04580762 0.0093637 -0.100961186 0.034783848 0.26886573
0.41055787 -0.37376696 -0.22566193 -0.07426788 -0.077273026 0.109146014 -0.009672707 0.059900884
-0.9998508 0.20677353 -0.84989196 -0.75551015 -0.8789926 0.7989435 0.045536995 0.61650944
-0.088010885 -0.80101377 -0.7105228 0.16092779 -0.8392173 0.93549776 0.90950626 0.925238
-0.7475781 0.18053427 -0.8178021 -0.5120495 -0.64197236 0.41967043 -0.09036148 0.34851584
-0.09603924 -0.73244137 -0.65751976 -0.21693414 -0.66535413 0.6735964 0.6973865 0.62164956
-0.72875834 0.3470176 -1.1060119 -0.7171211 -0.70584476 0.41273654 -0.06773561 0.45692983
-0.077109575 -0.9171043 -0.6027443 0.006866727 -0.77074665 0.7521734 0.80495566 0.78182924
-0.21335204 -0.006264036 -0.14818083 0.030512946 -0.3479894 0.18421693 -0.05581851 -0.008257867
-0.11744235 -0.04198107 0.09287444 0.25803232 -0.107119635 0.2469729 -0.082256824 0.048723828
-0.87415636 0.33753094 -0.93476534 -1.0590554 -0.8062001 0.5642947 0.0014080746 0.5568864
-0.01131914 -1.0469187 -0.80563074 -0.14975373 -0.9133573 0.881019 1.1685607 0.8288285
-0.1074723 -0.17700785 0.0026791347 0.011239479 -0.3324595 -0.0680066 -0.09268927 0.060826626
0.10891472 -0.007108509 0.019995362 -0.0934482 -0.16125096 0.32816976 -0.09197668 0.21225199
0.60586035 -0.24024826 0.61406726 0.40943536 0.545919 -0.2918283 0.107004866 -0.25377288
-0.025196165 0.7326289 0.48987424 0.20530127 0.517524 -0.5775927 -0.16790752 -0.48108345
-0.25681457 0.13631608 -0.4262971 -0.14416844 -0.27241656 0.17994514 0.11750391 0.28136095
-0.045241576 -0.38878322 -0.3156327 -0.08849215 -0.07962772 0.4991814 0.26378798 0.39522547
-0.0108095305 -0.08790629 0.00018149237 -0.11490286 -0.3995845 0.20593137 -0.04925185 -0.23251657
-0.09533723 0.022491971 0.32421672 0.030640027 -0.032794222 0.20795971 -0.046320166 0.018132478
0.6108167 -0.48151898 0.6271284 0.5191198 0.50554585 -0.29270375 -0.034039456 -0.56177837
0.10714032 0.6222049 0.5708066 0.18999556 0.60018796 -0.61468565 -0.30876577 -0.5813053
-0.1855952 0.015607856 0.002778069 -0.06461077 -0.31885296 0.13032137 -0.002489338 0.062136896
-0.096070066 -0.13363394 -0.094401106 0.2088261 0.08025726 0.090885155 -0.15899588 0.060012817
0.08227246 0.22941221 -0.13705158 -0.15611912 -0.2623077 0.1418365 0.05711727 0.09963896
-0.100299306 -0.05807379 -0.05517565 0.16813157 -0.13403098 0.1860381 -0.14450823 0.16883576
-0.83947206 0.5992141 -1.143441 -0.7921109 -0.95399344 0.7245662 -0.0009244561 0.6545409
0.14118394 -1.0547014 -0.77548635 -0.2288791 -0.8727725 0.8427041 0.8975571 0.8160318
-0.9710049 0.24370034 -0.8338907 -1.0799354 -0.9135195 0.46070057 -0.11419422 0.47719678
-0.0445336 -0.86619467 -0.7515534 0.01188138 -0.8070937 0.8709174 1.0469794 0.68573046
00000000: 9928 6cbd 4a52 153e 3317 873c d532 44be
00000010: 6a3f 87be 0f6c 4d3e 1c38 893d 475c 95bc
00000020: 3230 d2bc 19d5 a53d 2071 983e 360b 1d3e
00000030: bc0e 36bd 21ea b23e 4801 e5bd 54e9 a23d
00000040: fc45 a0be f357 c5bd 0768 edbd c5a0 3bbd
00000050: 346a 193c bdc4 cebd 8279 0e3d c5a8 893e
00000060: a434 d23e 625e bfbe ec13 67be c219 98bd
00000070: 5241 9ebd f287 df3d 467a 1ebc a15a 753d
00000080: 39f6 7fbf 71bc 533e 8592 59bf 1d69 41bf
00000090: a905 61bf 9087 4c3f 0085 3a3d 90d3 1d3f
000000a0: 0d3f b4bd 3d0f 4dbf d2e4 35bf 41ca 243e
000000b0: f2d6 56bf c87c 6f3f 67d5 683f 66dc 6c3f
000000c0: 4761 3fbf fadd 383e 7a5b 51bf ad15 03bf
000000d0: 4d58 24bf 0bdf d63e 710f b9bd ab70 b23e
000000e0: 39b0 c4bd 4781 3bbf 3753 28bf fc23 5ebe
000000f0: a654 2abf d070 2c3f ec87 323f 6d24 1f3f
00000100: e88f 3abf 4aac b13e cc91 8dbf 4095 37bf
00000110: 3eb2 34bf 3452 d33e f8b8 8abd b5f2 e93e
00000120: a0eb 9dbd 59c7 6abf 734d 1abf 4802 e13b
00000130: a74f 45bf 708e 403f 9311 4e3f f625 483f
00000140: f578 5abe 8b42 cdbb b7bc 17be 49f6 f93c
00000150: ab2b b2be 5da3 3c3e f3a1 64bd 014c 07bc
00000160: 9d85 f0bd 58f4 2bbd f434 be3d d01c 843e
00000170: 8a61 dbbd 77e6 7c3e 4476 a8bd a392 473d
00000180: b6c8 5fbf dbd0 ac3e c84c 6fbf 218f 87bf
00000190: 2163 4ebf 9e75 103f 258f b83a 1b90 0e3f
000001a0: ea73 39bc 6f01 86bf d13d 4ebf 0b59 19be
000001b0: c9d1 69bf 768a 613f 6693 953f 1b2e 543f
000001c0: 701a dcbd 8c41 35be 6c94 2f3b cb25 383c
000001d0: 2238 aabe 0b47 8bbd dfd3 bdbd 5725 793d
000001e0: ae0e df3d 7fee e8bb 50cd a33c c561 bfbd
000001f0: f91e 25be de05 a83e 455e bcbd 9658 593e
00000200: aa19 1b3f a403 76be 8333 1d3f 83a1 d13e
00000210: 59c1 0b3f 856a 95be 5e25 db3d 85ee 81be
00000220: 3068 cebc 918d 3b3f ccd0 fa3e 7f3a 523e
00000230: 747c 043f 1ddd 13bf f3ef 2bbe 9250 f6be
00000240: 337d 83be 7196 0b3e 9d43 dabe e4a0 13be
00000250: 2f7a 8bbe 8a43 383e e4a5 f03d 8b0e 903e
00000260: 3b4f 39bd 980e c7be 9c9a a1be 5f3b b5bd
00000270: dc13 a3bd b494 ff3e 380f 873e fe5a ca3e
00000280: 751a 31bc 3708 b4bd fd4e 3e39 3152 ebbd
00000290: 5796 ccbe acdf 523e 4fbc 49bd d318 6ebe
000002a0: 2a40 c3bd 1541 b83c bcff a53e cb00 fb3c
000002b0: 3c53 06bd 64f3 543e 37ba 3dbd 908a 943c
000002c0: 7c5e 1c3f a889 f6be 7d8b 203f 09e5 043f
000002d0: 746b 013f 44dd 95be f56c 0bbd b5d0 0fbf
000002e0: 626c db3d d248 1f3f 6220 123f 328e 423e
000002f0: eba5 193f 0a5c 1dbf 8c16 9ebe 6dd0 14bf
00000300: ab0c 3ebe 18b8 7f3c 4410 363b a752 84bd
00000310: b240 a3be f772 053e 2924 23bb 4283 7e3d
00000320: 62c0 c4bd 56d7 08be 5e55 c1bd 82d6 553e
00000330: eb5d a43d ff21 ba3d d1cf 22be 00d0 753d
00000340: 777e a83d 09eb 6a3e 4057 0cbe b1dd 1fbe
00000350: 324d 86be 963d 113e ccf3 693d 830f cc3d
00000360: b969 cdbd c8de 6dbd ddff 61bd af2a 2c3e
00000370: 6b3f 09be c680 3e3e f7f9 13be 48e3 2c3e
00000380: a4e7 56bf 1866 193f 465c 92bf c8c7 4abf
00000390: ea38 74bf 2c7d 393f 3357 72ba fe8f 273f
000003a0: 8692 103e 7500 87bf 4686 46bf 485f 6abe
000003b0: 056e 5fbf 75bb 573f 4dc6 653f 76e7 503f
000003c0: c793 78bf 958c 793e dc79 55bf 533b 8abf
000003d0: 6adc 69bf f2e0 eb3e a9de e9bd 2353 f43e
000003e0: dd68 36bd efbe 5dbf ce65 40bf 1faa 423c
000003f0: b19d 4ebf 71f4 5e3f 6c03 863f 088c 2f3f

net.2.bias f4 [16]
-0.061575014 0.11925414 0.1901878 0.09503546 0.2112911 -0.11893478 0.18379779 -0.16350973
0.00038405645 0.03350076 -0.050749537 -0.1879717 -0.08796843 -0.1837927 0.13121569 0.22549956
00000000: 1536 7cbd 843b f43d 97c0 423e f4a1 c23d
00000010: b25c 583e 1494 f3bd 7d35 3c3e 186f 27be
00000020: 2f5b c939 1838 093d bfde 4fbd a77b 40be
00000030: cb28 b4bd 2734 3cbe 685d 063e 5be9 663e

net.4.weight f4 [1, 16]
-0.058117196 -0.09490718 0.4720618 0.36118802 0.4662434 -0.14207736 0.77303433 -0.094248936
0.38549563 0.13331553 -0.036536526 0.44564795 -0.114056654 -0.18002418 0.773987 0.44770667
00000000: 4c0c 6ebd b25e c2bd 16b2 f13e a3ed b83e
00000010: 74b7 ee3e ba7c 11be 94e5 453f 9605 c1bd
00000020: af5f c53e de83 083e 53a7 15bd f82b e43e
00000030: 8996 e9bd 4258 38be 0324 463f cf39 e53e
