onnx_models/bean_model.onnx (onnx, 2313 bytes, 5 tensors)

net.0.weight f4 [16, 1]
000000 bf dd 38 bf 89 07 83 3e 54 5a 09 3f 33 0b 94 3e
       -0.7221336 0.25591686 0.53653455 0.28914794
000010 06 07 8f bf 35 e0 9f 3d ef 72 1a c0 7c ef 3c 3f
       -1.1174018 0.07806436 -2.413265 0.73802924
000020 29 e1 4e 3f 97 fc b1 bf b6 3e c2 3f 31 f9 f1 bf
       0.8081232 -1.3905209 1.5175388 -1.8904172
000030 5d b9 dc be ab 45 81 3f 06 ba e2 bf 78 02 26 bf
       -0.4311017 1.0099386 -1.771302 -0.64847517

net.0.bias f4 [16]
000000 6d 6b ce bf b6 94 45 bf f4 91 0a be 08 61 08 c0
       -1.6126534 -0.7718004 -0.13532239 -2.1309223
000010 13 47 07 c0 d9 4e 03 bd 64 55 ad bf a0 c4 93 3f
       -2.113713 -0.032057617 -1.3541684 1.154438
000020 56 bd 3a 3f ca 29 40 3f 66 7c c8 bf 6c 73 da 3e
       0.72945154 0.75063765 -1.5662963 0.42666185
000030 3b 49 40 40 0b fb 62 bf 07 4f 9d 3d ed e0 94 be
       3.0044696 -0.8866431 0.07681089 -0.29077855

net.2.weight f4 [16, 16]
000000 81 9d 72 bf 27 43 10 bf 06 85 ba 3f b0 75 f9 3e
       -0.9477158 -0.56352466 1.4571846 0.487226
000010 5d 7d 81 3d cd 24 24 bf eb ae 14 40 06 cf f4 bf
       0.06322739 -0.64118654 2.3231761 -1.9125679
000020 a2 ee 14 bf 6d 54 c2 bf e8 37 0b 40 ca c7 47 bf
       -0.58176625 -1.5182015 2.1752872 -0.7803923
000030 0b 8e ef bd 1d 0a a1 3e 8f 24 92 3f b9 3f b4 3e
       -0.116970144 0.31453028 1.1417407 0.35204867
000040 93 82 ef 3e de 22 bd 3e ff 02 9a 3f 2c dd 83 3f
       0.46779308 0.36940664 1.2032164 1.0301871
000050 ce b7 52 bf d4 9b c1 be f5 72 00 bf c4 a7 71 3f
       -0.82311714 -0.378142 -0.5017541 0.94396615
000060 66 a9 3f bf 51 a4 02 40 b8 ca 73 bd 35 3b 8e 3f
       -0.74867857 2.041279 -0.0595195 1.1111819
000070 6b 16 c6 3f de 14 3c c0 8f f6 68 3f 9b ca a3 3f
       1.5475591 -2.9387736 0.9100122 1.2796205
000080 67 be 81 3f dc bf bc 3f e2 cc 48 3f 51 8b ea bd
       1.0136231 1.4746051 0.78437626 -0.11452354
000090 13 0b 8a bf ba 07 bc bf 42 38 f7 3e 76 55 a9 be
       -1.078463 -1.4689858 0.4828511 -0.33073014
0000a0 51 1c a4 3f 93 0f fe 3e 33 64 4c 3e 3b e5 cf 3e
       1.2821141 0.49621257 0.19960098 0.40604576
0000b0 c0 9b 86 3f f2 61 18 c0 2c 2d 9d 3f f1 9b e6 3e
       1.0516281 -2.380978 1.227941 0.4504085
0000c0 ee dc b6 3f 62 e9 64 3e f3 03 d7 3e 89 1e 3d 3f
       1.4286172 0.22354653 0.419952 0.7387472
0000d0 19 11 10 bf 55 14 b4 bf 4a 73 17 3e 3f b0 5e 3f
       -0.5627609 -1.4068705 0.14790073 0.8698768
0000e0 87 3e 03 c0 1f 58 86 bf 03 6c b9 be a5 f3 b1 bf
       -2.0506914 -1.0495642 -0.3621522 -1.390248
0000f0 3e c3 61 3f 94 cd 94 bf 84 2c ec bf 5e d3 60 be
       0.8818854 -1.1625237 -1.8451085 -0.2195563
000100 9b 4c ea bf bb 8d f1 3f ec 03 e4 3e 20 9e 8b bf
       -1.8304628 1.8871378 0.44534242 -1.0907631
000110 9b 9d 3a bf 4b 68 99 3e dd e9 ce bf 9b 7a cd 3f
       -0.72896737 0.29962382 -1.616512 1.6053041
000120 c8 b9 94 bf 03 36 30 bf f0 12 c0 be cb c2 9d 3e
       -1.1619196 -0.68832415 -0.37514448 0.30812678
000130 b2 ba 7d 3f 1f 96 2d 40 f7 db a4 3e 7a 06 18 3f
       0.99113 2.7122877 0.3219907 0.5938488
000140 1b 67 21 3f 48 fd b8 3f a4 89 29 c0 60 60 40 bf
       0.6304795 1.4452295 -2.649026 -0.75147057
000150 d2 51 31 bf fa f1 b8 be b4 a7 ec bd f1 93 50 3f
       -0.6926547 -0.36122113 -0.11555424 0.8147574
000160 dc 70 d7 3d f4 8f ae 3f e0 17 53 be 08 57 02 40
       0.10519573 1.3637681 -0.20614576 2.036562
000170 62 2e 7c 3e cd ed f9 3d 8f 31 0f 3f a0 47 bb be
       0.24627069 0.1220356 0.55934995 -0.36578083
000180 89 9e 9c 3e 6d a6 e6 be 5e c2 d5 be f8 61 22 40
       0.30589703 -0.45048848 -0.41749853 2.5372295
000190 fa 1f d1 3f 79 01 00 40 aa 9a 3f be 7d d7 7b 3e
       1.6337883 2.00009 -0.18711343 0.24593921
0001a0 e9 5b c6 bf f1 10 bb 3f ff 35 29 bf 01 c5 13 3f
       -1.5496799 1.4614545 -0.66098017 0.5772248
0001b0 23 9c 4e 3e 36 aa 2d 3f a6 07 d8 3c c4 a1 0d 3f
       0.20176749 0.67837846 0.026370835 0.5532496
0001c0 8c 5b 0c c0 14 b2 02 3f 94 39 08 c0 47 37 40 40
       -2.1930876 0.51052976 -2.1285143 3.0033739
0001d0 f1 73 b8 bf d9 40 a7 3f 54 81 b5 be 3f f3 d5 bf
       -1.4410383 1.3066665 -0.35450232 -1.6714858
0001e0 d5 38 ba be db ed d1 bf df 01 f3 3e 63 d9 47 40
       -0.36371484 -1.6400713 0.47462365 3.1226432
0001f0 21 7e f5 3e e6 6e 40 be d1 6a ee be c1 ed cc 3e
       0.4794779 -0.18792304 -0.4656587 0.40025142
000200 ec e2 5a bd 16 1c 24 be a0 e3 a5 3f 10 70 95 3d
       -0.053439066 -0.16026339 1.2960091 0.07296765
000210 d1 0a 3f 3f 50 2d 6d bf 4d e0 2f bf a5 5e e2 be
       0.7462588 -0.92647266 -0.6870163 -0.44212833
000220 61 55 66 3e 02 89 c4 3f 63 95 98 3f 99 ae 3b bf
       0.22493507 1.5354311 1.1920589 -0.7331329
000230 39 da d6 3f 5f f1 c1 3e 68 50 20 bd f2 46 13 bf
       1.6785346 0.37879464 -0.03913918 -0.5753013
000240 1a ab e1 be 32 c4 0a 3f 53 70 52 3f bd c3 0b 3e
       -0.44075853 0.5420562 0.82202643 0.13648887
000250 75 42 b3 3f d0 df 89 bf 36 c5 34 3f 93 40 aa 3e
       1.4004656 -1.0771427 0.7061342 0.3325239
000260 05 0a 05 3d 01 f3 bb be 64 88 05 3e 0b 18 9d bf
       0.03248026 -0.36708835 0.1304031 -1.2272962
000270 99 1d 99 bf 7c 63 d4 bd a7 da ca 3f 08 7c b5 3e
       -1.1962157 -0.10370538 1.5847977 0.3544619
000280 f8 e8 30 3f ba 7a a1 bf 34 27 f8 be 53 1f 8c 3f
       0.6910548 -1.2615578 -0.4846741 1.0947059
000290 d5 2e 86 3f 61 80 ef bf 5d c8 4b 3e d3 f2 42 3f
       1.0483042 -1.8711053 0.19900651 0.7615177
0002a0 df 91 90 bf 65 f2 30 bf 78 4c 02 3f b2 bf 71 3f
       -1.1294516 -0.69119865 0.5089793 0.9443313
0002b0 02 93 2a bf 13 b3 21 bf a9 eb 79 3f 1e ed 83 bd
       -0.66630566 -0.6316387 0.97625214 -0.06441711
0002c0 64 c8 19 40 1e e7 72 3e c0 30 d0 3e 92 00 4b 3e
       2.4028559 0.23720977 0.40662193 0.19824436
0002d0 bf 72 2a bf 7d c8 84 bf 36 6e 7e be 7b b7 e1 bd
       -0.6658134 -1.0373684 -0.2484673 -0.11021324
0002e0 b8 96 f8 bf fc 5a 53 be a9 61 21 3e f5 fa 19 bf
       -1.9420996 -0.20640177 0.1575991 -0.60148555
0002f0 65 0a 0e bc 96 fd b5 3c 8d 07 9d 3f dc f1 d1 3e
       -0.00866947 0.022215646 1.2267929 0.41004837
000300 53 36 00 bf b5 17 2d 3f 08 e1 5a bf 2c 2e f6 be
       -0.5008289 0.676143 -0.8549962 -0.480821
000310 09 47 91 be 1f e0 f6 be db d8 a6 3f d9 7d 8b be
       -0.28374508 -0.48217866 1.3034929 -0.27244452
000320 e5 94 1e 3f 14 6e bd bf 1d be 99 be 66 00 24 3e
       0.61945945 -1.4799218 -0.30027857 0.16015777
000330 4d e8 f7 3e 7d 41 25 c0 60 4d 09 c0 f8 d5 bd 3f
       0.4841942 -2.582122 -2.1453476 1.4830923
000340 91 61 b1 be a9 34 14 40 c4 81 ca bf ba 9d de be
       -0.3464475 2.3157141 -1.5820851 -0.4347971
000350 a3 3f 11 40 86 9f 9d 3f 02 94 09 3f 29 f0 c7 3f
       2.269509 1.2314308 0.53741467 1.5620166
000360 e7 d8 8c bf 01 80 82 3f 33 3c 0d bd c1 82 e0 3f
       -1.1003693 1.0195314 -0.03448124 1.7539903
000370 eb 55 3b 40 80 62 fa bf 5c d3 91 bd 75 39 97 bf
       2.927119 -1.956131 -0.07120392 -1.181441
000380 d2 99 43 3e e5 06 36 bf 49 0e 1d bf 92 2d 0d 3d
       0.19101647 -0.7110427 -0.6134992 0.034467287
000390 08 c2 9f 3f aa d5 8d 3e 0d 9b 58 bf bf 35 63 bf
       1.2481089 0.27702075 -0.8461159 -0.88753885
0003a0 df b1 4a 40 a5 43 1f c0 bf 64 0e 3f 27 b4 05 40
       3.1671064 -2.4885037 0.55622476 2.0891206
0003b0 25 24 42 3f af 38 af bf 9c cb 29 bf 91 74 d7 bf
       0.758364 -1.3689173 -0.6632631 -1.6832448
0003c0 e1 88 96 bf e8 2a 5f bf 9a 22 07 bd 6f d7 3a bf
       -1.1760522 -0.87174845 -0.032991983 -0.72984976
0003d0 af 28 c7 be cd e6 c1 3f d8 da 81 bd 9d de 28 3e
       -0.38898227 1.514856 -0.06340569 0.1649117
0003e0 c3 a9 a7 3f 08 de 78 bd 5b 9d f9 be 2c 55 91 3e
       1.3098682 -0.06075862 -0.48752865 0.28385293
0003f0 38 02 9a 3e 76 c0 fa bf 87 23 d3 bf ad 31 41 3f
       0.30079818 -1.9589984 -1.6495217 0.75466424

net.2.bias f4 [16]
000000 92 12 de be 79 c8 a3 be 58 2a 1e 3f d8 d1 54 3f
       -0.43373543 -0.31988886 0.6178336 0.83132696
000010 c0 3e 09 bf bd a6 9d 3e a2 71 9f bf d3 bd 98 3f
       -0.53611374 0.30791274 -1.2456553 1.193293
000020 cb 62 9c bf 08 f4 28 c0 19 3c 05 c0 2f df b8 3f
       -1.2217649 -2.6398945 -2.081793 1.444311
000030 e1 24 03 40 5d 5c 4f bf 9c 5d 8b bc 03 0e 0f 40
       2.049126 -0.8100031 -0.01701241 2.2352302

net.4.weight f4 [1, 16]
000000 8c 36 e6 3f f8 1e 6a 3f ed 7b 85 3f c2 13 bd 3f
       1.7985396 0.91453505 1.0428444 1.4771655
000010 ec 98 4b 3f 1e 7c 35 40 73 ba 8a bf 1c ab 39 bf
       0.79530215 2.8357005 -1.083815 -0.7252672
000020 0d 53 c5 bf ff af a7 bf b6 69 90 be 76 9d bc bd
       -1.541597 -1.3100585 -0.2820565 -0.09209721
000030 ef c7 db 3d be e2 c9 3f 9c de 97 3f 96 2f d3 be
       0.10731494 1.5772321 1.186481 -0.41247243
