onnx_models/bean_guji.onnx (onnx, 2339 bytes, 5 tensors)

net.0.weight f4 [16, 1]
000000 cd d4 03 bf ff c9 f8 be ee ca ee 3e 93 cd 4c 3d
       -0.51496583 -0.4859161 0.46639198 0.05000074
000010 06 c6 3e 3f 27 8f 0e bf e3 ea d6 3e a4 46 38 be
       0.7452091 -0.55687183 0.4197608 -0.17995697
000020 2c 7d bf be 7d f9 04 3f 71 69 29 bf 85 63 04 3f
       -0.37400186 0.5194319 -0.66176516 0.51714355
000030 79 76 3f be 06 cf 1a 3f ab df 12 be b3 d4 10 3f
       -0.18697537 0.6047214 -0.14343135 0.56574553

net.0.bias f4 [16]
000000 74 53 bd 3e 4c 12 b5 3e 70 01 1e be 54 8a d1 be
       0.36977732 0.35365522 -0.15430236 -0.40925848
000010 f7 2a a5 be c2 ee d0 3e 2d 7a 86 bd bc c6 c2 3e
       -0.32259342 0.40807158 -0.06566272 0.38042247
000020 10 8d 8b 3e 23 e4 84 be 9e 31 f7 3e 9d 84 a2 be
       0.2725606 -0.25955305 0.48280042 -0.317418
000030 3b 03 e0 3e 3d 27 c6 be b6 1b cf 3e 48 6d 8d be
       0.43752465 -0.3870181 0.4045083 -0.27622437

net.2.weight f4 [16, 16]
000000 fa d3 b5 bc 5c 5b 67 3d f7 c6 df bd 2f cd a2 3e
       -0.022195805 0.05648361 -0.109266214 0.31797168
000010 a8 9b 91 be 82 5c d7 bd e5 4e 14 be 02 95 2c be
       -0.2843907 -0.10515691 -0.14483221 -0.16853717
000020 79 65 ab 3d a6 49 35 bd da 9e bb bd 1a b9 e5 3b
       0.08368964 -0.04425969 -0.09161158 0.007010591
000030 45 df 7c be 27 92 e3 3d 81 b0 b1 be ba b0 03 bd
       -0.24694546 0.11111861 -0.34704974 -0.03215096
000040 0d a2 60 3f 7a 3a 44 3f c1 72 9b be fc af 5c bd
       0.8774727 0.7665173 -0.30360988 -0.05387877
000050 a6 e4 1d bf 51 86 24 3f b6 b5 17 be 16 bb 74 3e
       -0.61677015 0.6426745 -0.14815411 0.23899493
000060 aa 4a b5 3e 50 2f b3 be 22 7e 17 3f 34 c4 e8 be
       0.35408527 -0.34997034 0.5917684 -0.4546219
000070 d7 75 c3 3e 84 69 5b be 7a 0d fb 3d 4a 20 d4 be
       0.38175842 -0.2142697 0.1225843 -0.41430885
000080 37 0b 18 bf c2 b9 1e bf b5 95 f7 3e 70 c5 e6 3c
       -0.5939211 -0.62002194 0.48356405 0.028170317
000090 63 11 81 3f 0d 6a e5 be f1 e7 3c 3f 7b 4a 2c be
       1.0083431 -0.44807473 0.73791414 -0.16825287
0000a0 24 62 d6 be ae 80 56 3f 66 b5 99 be 10 5b 4c 3f
       -0.4187175 0.837901 -0.3002121 0.7982645
0000b0 c7 d2 55 be af 6d 4a 3f e8 9e dd bd 71 52 84 3f
       -0.20881186 0.79073614 -0.108213246 1.0337659
0000c0 17 72 97 3f 16 d0 82 3f bd 29 16 bf ce 01 96 be
       1.1831692 1.0219753 -0.5865744 -0.29298252
0000d0 bb 95 92 bf f3 4b 70 3f f6 c6 57 be 06 3d c5 3e
       -1.1451944 0.9386589 -0.21071991 0.3852312
0000e0 70 02 05 3f 62 40 3b bf 3b 45 81 3f 25 36 5f bf
       0.51956844 -0.73145115 1.0099252 -0.87191993
0000f0 fc f1 7b 3e 96 de 13 bf 24 84 b3 3e 84 99 59 bf
       0.24604028 -0.57761514 0.35061753 -0.8499987
000100 f0 d5 2b 3f 71 8e 24 3f 6f d6 ac be ab 80 c9 bd
       0.6712332 0.6427985 -0.3375735 -0.098389946
000110 7b c1 2e bf 0a 65 f9 3e e7 96 82 bd bb fb 02 3e
       -0.6826398 0.487099 -0.063764386 0.1279134
000120 f6 26 8f 3e 24 a9 d3 be d0 87 00 3f 5b 7f ac be
       0.27959412 -0.41339982 0.50207233 -0.33690915
000130 01 1d 59 3e 95 47 44 be 1d e7 8c 3e 40 73 45 be
       0.2120247 -0.19167931 0.27520075 -0.19282246
000140 cc 10 01 be 46 b3 94 be c6 8d 87 bc 45 ad 41 3e
       -0.12604064 -0.29043025 -0.016547095 0.18913753
000150 96 7a 41 be 1e 3c f4 bd 2b 08 b8 bd 22 36 cb 3b
       -0.18894419 -0.11925529 -0.08985933 0.0062015215
000160 a7 1e 8f bd e4 fc c3 b9 67 50 56 be f0 42 55 be
       -0.06988268 -0.00037381717 -0.20929109 -0.20826316
000170 a2 b0 a8 bd ef bd 46 bd 42 a2 8e be 5f a0 9a bd
       -0.08236815 -0.04852098 -0.27858168 -0.075501196
000180 35 02 1c 3f 8c 34 32 3f ab db ba be d5 6a e0 bc
       0.6094087 0.6961143 -0.36495718 -0.027394691
000190 68 25 29 bf f3 68 20 3f 61 ef 2d be 25 ef 06 3e
       -0.660727 0.6266014 -0.16985847 0.13177164
0001a0 a0 d9 7a 3e a8 16 dd be 15 87 e0 3e e9 e7 17 bf
       0.2449708 -0.43181348 0.4385306 -0.5933824
0001b0 e7 04 5a 3e b9 9b a1 be 2b d6 61 3e 25 4f ce be
       0.21290933 -0.3156412 0.22054355 -0.40294757
0001c0 34 00 52 3f 12 e3 61 3f d9 61 d5 be eb a9 b2 bd
       0.8203156 0.88237107 -0.41676214 -0.087238155
0001d0 41 be 6a bf a9 99 1d 3f 55 0e 16 be b0 92 c3 3e
       -0.91696554 0.6156259 -0.14653905 0.3819785
0001e0 e0 73 99 3e 56 04 34 bf 90 4b 15 3f 57 44 2f bf
       0.29971218 -0.70319116 0.58318424 -0.68463653
0001f0 51 1b d3 3e 42 ec c6 be 3f 0b c5 3e 27 e6 2e bf
       0.41231778 -0.38852125 0.38485143 -0.68319935
000200 e9 9c a1 bd 56 09 08 bb 76 cb 23 be 15 04 6d 3e
       -0.07891256 -0.0020757518 -0.15995583 0.23146088
000210 93 4d 22 be c2 05 61 be 30 26 47 bd 00 60 16 b6
       -0.15849905 -0.21974853 -0.048620403 -2.2407621e-06
000220 47 01 d9 bd 06 f9 c4 bd ca ec 38 be f0 6b e0 bc
       -0.10595947 -0.0961781 -0.18059078 -0.027395219
000230 a8 4e 87 bd 0a 23 ca bd 85 07 5d 3b bc 71 bb 3d
       -0.06606799 -0.098699644 0.0033726406 0.091525525
000240 06 dc 9a 3f b6 d0 96 3f f5 13 2d bf 2c cf f2 be
       1.2098396 1.1782444 -0.67608577 -0.47423685
000250 2b 3e 8b bf c1 29 4f 3f aa 56 b2 be ce 80 d8 3e
       -1.0878347 0.80923086 -0.34831744 0.4228577
000260 db d1 35 3f 04 d7 6b bf e0 73 6b 3f 44 ae 65 bf
       0.7102334 -0.9212496 0.91973686 -0.89719033
000270 9c 17 cd 3e ba 32 58 bf ab 19 14 3f 8e 2e 5f bf
       0.40057075 -0.844524 0.57851666 -0.8718041
000280 be d3 99 bd 9a a8 fc bd 45 a5 88 be 08 a2 62 3e
       -0.0751109 -0.12336846 -0.2668859 0.22132123
000290 b8 08 99 be 28 eb 8e be 8f d3 aa bd 2b 8d 3b be
       -0.29889464 -0.27913785 -0.08341133 -0.1831557
0002a0 ab 0f 35 bc 29 8d 75 3d 90 a1 2e be 38 86 99 3b
       -0.011051099 0.059949074 -0.17053819 0.0046851896
0002b0 13 c9 85 be af be 8e bc c6 e4 42 be 57 28 be bd
       -0.2612997 -0.01742491 -0.19032583 -0.09285038
0002c0 4c 03 b7 bd 2f be 02 be 77 a2 94 bd d0 a2 04 3e
       -0.08936176 -0.12767862 -0.0725755 0.12952733
0002d0 d2 5d cf be e3 a3 bc bd f8 fc 74 3d 0a 55 2f be
       -0.40501267 -0.092109464 0.059811562 -0.17122284
0002e0 3f 16 8b 3e a2 25 8b bb df 57 72 be d7 80 19 3d
       0.2716541 -0.0042464295 -0.23666333 0.037476387
0002f0 4a 45 16 be 75 b6 e4 bd 6f c7 3e be 4b ac d2 3d
       -0.14674869 -0.111676134 -0.18630765 0.102867685
000300 f4 bd 18 3f 19 9f 07 3f 4e 8a 88 be b8 14 58 be
       0.59664845 0.5297714 -0.26668018 -0.21101654
000310 ad 3a f6 be 96 0c 02 3f 62 8d 3f be 34 09 63 3e
       -0.4809164 0.50800455 -0.18706277 0.2217148
000320 ce 52 e3 3d 09 2b d6 be 0d fe 18 3f 98 25 d3 be
       0.11099778 -0.41829708 0.5976265 -0.4123962
000330 72 0d a0 3e 3a 7d 23 be aa 05 bb 3d 3e c8 27 bf
       0.31260258 -0.15965739 0.0913194 -0.6553992
000340 3b b8 fa 3e ee a9 47 3f 2f 04 71 be eb 44 a4 bc
       0.48968682 0.7799367 -0.23536752 -0.020052394
000350 0e fb c7 be d7 76 13 3f 01 09 c7 3b a3 f4 ec 3d
       -0.39058727 0.5760321 0.0060740714 0.11570098
000360 5d ce 74 3e af a1 8c be 8c 2d 1b 3f 7b 87 ba be
       0.23906846 -0.27467105 0.60616374 -0.36431488
000370 f7 30 27 3e 5f 35 3a bd 84 88 79 3e 1a 94 ee be
       0.16327272 -0.045461055 0.24368483 -0.46597368
000380 3a e3 47 3f e6 2e 3e 3f e8 a0 02 bf 2d 7f f8 bd
       0.78081095 0.7429031 -0.51026773 -0.12133632
000390 ae 9f 27 bf 11 41 14 3f 88 56 3d be 66 98 b0 3e
       -0.65478027 0.57911783 -0.1849004 0.3449127
0003a0 2a 8b 52 3e 33 23 15 bf 6b f7 09 3f 80 d6 c8 be
       0.205609 -0.58256835 0.53893155 -0.3922615
0003b0 a4 e1 79 3e 85 75 9b be ac 26 eb 3d 66 4d d8 be
       0.24402481 -0.30363098 0.114819854 -0.4224655
0003c0 76 02 3a 3f c5 3c 12 3f ef 72 80 be 91 c7 99 be
       0.72660005 0.57123977 -0.25087687 -0.3003507
0003d0 ba da 15 bf c5 e2 bf 3e 98 44 ed 3d 49 2c 8f 3e
       -0.58536875 0.374777 0.11585349 0.27963474
0003e0 eb f0 ad 3e b8 b2 ec be 85 57 22 3f b6 00 0e bf
       0.33972868 -0.46230102 0.63414794 -0.55469835
0003f0 91 f5 0d 3e e4 7e 98 be f5 8f 6f 3e 50 3c c8 be
       0.13863207 -0.2978431 0.23394759 -0.39108515

net.2.bias f4 [16]
000000 14 65 0b bf 63 50 6f 3e 27 51 91 bd 7e c4 91 3e
       -0.5445111 0.23370509 -0.07095557 0.28470224
000010 76 9a 79 3e 00 d5 85 be 7f 5b ab 3e dc b8 4c 3e
       0.24375328 -0.2613907 0.33468243 0.19992393
000020 a7 89 86 be 16 0f 18 3e 9c 46 be be df e7 2f be
       -0.26276895 0.14849505 -0.37163246 -0.17178296
000030 f5 27 74 3e 21 98 5d 3e e0 f3 97 3e f4 ce 06 3e
       0.23843367 0.21640064 0.2967825 0.13164884

net.4.weight f4 [1, 16]
000000 1e ef a3 be 1d a4 e9 3e 09 35 27 3f d1 c2 28 3f
       -0.3201837 0.4563302 0.653153 0.65922266
000010 a7 dc 08 3f d7 e6 6b be 6b 83 00 3f 81 3d 38 3f
       0.5346169 -0.23037277 0.5020053 0.7196885
000020 de a4 91 be 3e 60 31 3f 54 6f ce be 23 dd cb be
       -0.28446096 0.6928748 -0.40319312 -0.3981715
000030 ff af e4 3e dd 96 f1 3e d8 3d 08 3f d4 00 16 3f
       0.44665524 0.47185412 0.53219366 0.58595014
