onnx_models/bean_model.onnx (onnx, 2313 bytes, 5 tensors)

net.0.weight f4 [16, 1]
00000000: f40a bebd b950 b33f 8779 8dbe 0dc9 b0be
00000010: 37ab 813e 3564 623e 54c3 093f 52b7 4e3e
00000020: a4a5 73bf 2cd1 3cbf 345a 2c3d 8822 28bf
00000030: aca2 fcbe 2487 a43f 5888 db3e 7adc edbe
-0.09279433 1.400901 -0.2763178 -0.3452839 0.2532594 0.22108538 0.5381367 0.20187119
-0.9517462 -0.7375667 0.042078212 -0.6567769 -0.4934286 1.2853742 0.4287746 -0.46457273

net.0.bias f4 [16]
00000000: 40fb 8c3e ca1f 14bf af7f ef3e 2a36 253d
00000010: 7b0d 983e 3815 2b3f aa76 3e3e 6196 773e
00000020: a1da 3c3f 9c6c 6b3f ef0e 8ebd 9c13 303f
00000030: 9928 4a3f a821 05bf fa00 32bf 4f40 333f
0.2753544 -0.57861006 0.46777102 0.040334858 0.29697785 0.6682925 0.18599954 0.24178459
0.737711 0.919626 -0.06936442 0.6877992 0.789682 -0.5200448 -0.6953274 0.7002

net.2.weight f4 [16, 16]
00000000: cd08 4fbc 61d1 5b3e f644 87bd 9acb 033e
00000010: 64f5 03be 591e 9ebe 357c 89bd 5949 d33b
00000020: 7275 a9be 0bab 123e d867 2ebe 3573 0c3e
00000030: f947 0dbd 0852 7b3e 5849 28be 5495 8c3e
00000040: 3615 f73e 0ef8 30ba f41e 9e3e eb75 e4be
00000050: 3ca8 b03e 1d3a f63e 833c 1b3f d28d ff3e
00000060: 30db 7bbe dbc8 ec3c 2658 c5bd 715a e0be
00000070: bd6c 253e 335f 223e d18f 5bbe 7ce7 e23d
00000080: c738 9bbd 3cef c13e 56e6 45bd 6129 e03d
00000090: d006 163d 42d5 123d a3a6 18be c4ef 7abe
000000a0: c389 953e 0f86 313f 010b 9d3c 2c93 143e
000000b0: 173f 843d 6796 c13e 7fb5 a73d eace 64be
000000c0: 7122 69be ba4a 04c0 29ce 2c3d 8663 433f
000000d0: 01fa cabe 05c8 81be 8146 0cbf 732a b8be
000000e0: a9db 1f40 5775 0640 9fc2 203e ba43 a33f
000000f0: 357d c73e c975 ecbf a3dd 8dbe c61a 393f
00000100: b2cd 853e 9c5d a83e 3432 ef3e c420 c5bd
00000110: 52be c53e 513a 3d3f ea11 b43e 975d 8e3e
00000120: e980 5f3f 84dd 2e40 6af8 76bc 2a91 8e3f
00000130: 988a af3f 22e3 3f3e c977 aabf 449b db3f
00000140: d90a d7bd fb7f 52be c551 3e3b 20d8 37be
00000150: e4bf 7d3e 2aa9 983d bbd4 bd3e f4a6 3b3e
00000160: 81d6 14bf 73e1 97bf 2fee 6e3d caf7 ebbe
00000170: 8c3c 81be 6411 8abd 0730 123e f696 85be
00000180: fd94 373e 88e0 5cbd c0cc 093d 4ba2 44bd
00000190: 5bf0 103d 749e e93d bf13 7fbe 4f98 d83d
000001a0: 34d9 e2bc 8ec3 00be cd9d 903d 81d6 123d
000001b0: b727 5dbd 99bb 113d cba6 bbbd 1b50 7a3d
000001c0: bb44 3f3e 16e1 c1bd d5fb fa3d bb21 67be
000001d0: 79ff b53e 908c fe3e 818e c43e 89b8 913e
000001e0: 8a99 0ebf d659 ebbe d41a b1bd 2e3f aabe
000001f0: d409 5e3e b301 9b3d 9976 7fbe 2572 873e
00000200: 694a a0be ef14 61bd 1703 cfbe c3e4 993e
00000210: bcf0 a8be 8456 99be 2054 bcbe 7a09 f9be
00000220: b245 a53e e9c6 a83e 5b36 043e d5f7 b83e
00000230: ecdb 75be 4caf f7bd 701b 0c3e c8d3 0cbe
00000240: 4cb8 81be 02bb c9bf e616 42ba 3395 323f
00000250: 8546 8bbe 105f 56be acb3 42bf fd09 ccbe
00000260: 21a6 ec3f 17c4 be3f f036 0c3e 3ea2 7f3f
00000270: 1cbf 7d3e e968 c9bf 5852 dabe e63b 953e
00000280: 5163 4a3e 1b00 35c0 d080 8b3e 4edd 193f
00000290: 95e2 dabe 86b5 99bd 4381 26bf 5eba 65be
000002a0: 65ee 5540 d524 1140 e44d 13be 9cac b63f
000002b0: 05c5 473f 1afc 2bc0 5e0a 08bf 65cb 5b3f
000002c0: 9e67 33be 95a9 1ebe 00cb 183c e16d a33d
000002d0: f086 9abc ec76 ff3d 3e4d 25bd 86c2 11bd
000002e0: 7c01 dbbd 51a2 3ebe 3c7a e8bc 396e 993e
000002f0: a9b1 70bd a12f 35be e24c 553e e21d e4bd
00000300: ba47 f2bd 9daa 6cbe 6e44 85be 896b 9ebd
00000310: 5ad6 b63d ccea 36bd 0927 913d e2d1 173e
00000320: 3ff3 b6be b63c 3bbf d9ab 413e 7a6b b9be
00000330: eb83 22be b95c 9fbc 866d 113c 0583 98be
00000340: 55af 2dbe 96a8 2ec0 769c c83e 118b 203f
00000350: c17e afbe a385 07be a5e6 1ebf 1dbc a4be
00000360: feaa 6240 0b47 3240 1947 bd3d 951d ce3f
00000370: 7686 143f c82f 21c0 3159 cdbe 2a5b 573f
00000380: 3ecb 04be 5785 c33d fa5e 73bd 732c 9e3e
00000390: 1da0 91be bf2f eebe d6ce cdbe 9b88 cabd
000003a0: b22d 063f 8b26 5a3f 569a c33b a202 c23e
000003b0: b076 32be 9d42 093e 238b 67bd 8b2c df3d
000003c0: d535 a53e f4d4 5ebd bea6 2e3e 35e6 00bf
000003d0: 20c1 ad3e ddcb 153f 86e7 213f a8c0 e33e
000003e0: 9d0d c0be 206d 87bd ad19 b3bd 3ed2 eebe
000003f0: d63a c83e 81d5 ca3c 45ef 28be 3c50 1f3e
-0.012636376 0.2146659 -0.0660495 0.12870637 -0.12886578 -0.30882528 -0.06713144 0.0064479527
-0.33097416 0.1432306 -0.17031801 0.13715823 -0.034492467 0.24543011 -0.16434228 0.27457678
0.4825837 -0.000675083 0.3088299 -0.44621214 0.34503353 0.48091212 0.6063921 0.49912888
-0.24595332 0.02890437 -0.096359536 -0.43819 0.16154762 0.15856628 -0.2144158 0.110793084
-0.07579189 0.37877834 -0.04831537 0.109453924 0.03662759 0.03584791 -0.14907317 -0.24505526
0.29206666 0.6934518 0.019170286 0.14509267 0.06457346 0.3781006 0.081889145 -0.22344556
-0.22767045 -2.067061 0.042188797 0.76323736 -0.39643863 -0.25347915 -0.5479508 -0.35969886
2.497782 2.1009119 0.15699242 1.2755044 0.38962713 -1.8473445 -0.27708158 0.7230648
0.26133496 0.32883918 0.4671799 -0.0962539 0.38621765 0.7391711 0.35169917 0.27805778
0.87306076 2.7322702 -0.015073875 1.113805 1.371417 0.18738988 -1.3317806 1.7156758
-0.10500116 -0.20556633 0.0029040438 -0.17953539 0.24780232 0.074541405 0.37076363 0.18325406
-0.58139807 -1.1865677 0.05833262 -0.46087486 -0.25241506 -0.06741598 0.14276133 -0.26091737
0.17927928 -0.053925067 0.03364253 -0.048006337 0.03538547 0.11407176 -0.24909876 0.105759256
-0.027691461 -0.12574598 0.07061348 0.035849098 -0.053992953 0.035579298 -0.091626726 0.06111155
0.18678562 -0.0946676 0.122550644 -0.22571461 0.35546473 0.49716616 0.38389972 0.28461102
-0.5570303 -0.45966977 -0.08647695 -0.33251327 0.21683437 0.075686835 -0.24947585 0.26454273
-0.3130677 -0.054951604 -0.40432045 0.30057344 -0.32996166 -0.2994882 -0.36782932 -0.48640043
0.32279736 0.32964256 0.1291136 0.3612658 -0.24009675 -0.12093982 0.13682342 -0.13752663
-0.2533592 -1.5760195 -0.0007403925 0.6975891 -0.2720224 -0.20934701 -0.7605541 -0.3985137
1.8488199 1.4903592 0.13692832 0.99856937 0.24779934 -1.5735141 -0.42640948 0.2914726
0.19764449 -2.8281314 0.27246714 0.6010331 -0.42750993 -0.07505326 -0.6504099 -0.22434375
3.3426754 2.267873 -0.14385182 1.4271426 0.78035 -2.687262 -0.5314082 0.8585723
-0.17519996 -0.15494378 0.009325743 0.07979942 -0.018863171 0.124738544 -0.040356867 -0.035585903
-0.106936425 -0.18616606 -0.028378598 0.29966906 -0.05876318 -0.1769395 0.2083011 -0.11138512
-0.11830087 -0.23111959 -0.2602877 -0.077353545 0.08927603 -0.044657513 0.070875235 0.14826158
-0.35732457 -0.7313951 0.18913211 -0.3621481 -0.15870635 -0.019453393 0.00887621 -0.2978746
-0.16961415 -2.7290397 0.3918187 0.627122 -0.34276393 -0.13234572 -0.62070686 -0.3217477
3.5416865 2.785586 0.092420764 1.6102778 0.5801767 -2.5185413 -0.4010711 0.8412348
-0.12968156 0.09546917 -0.05941675 0.30893287 -0.2844247 -0.46520802 -0.40196866 -0.09889337
0.52413476 0.8521506 0.005969326 0.37892634 -0.17428088 0.13404317 -0.056529175 0.10897168
0.32267633 -0.054402307 0.17055795 -0.5035127 0.33936405 0.58514196 0.632439 0.44482923
-0.37510386 -0.06612611 -0.08745132 -0.46644777 0.39107388 0.02476001 -0.16497524 0.1555795

net.2.bias f4 [16]
00000000: d781 0ebe dc21 c23e d189 39be b1e3 563d
00000010: 2385 453f 51a7 1b3e bf56 0bbd bf06 df3e
00000020: b241 07bf 2a2f 703d 0f2d 6f3e 2b4d aa3e
00000030: 00f7 753d 9951 0b3e f233 d5be d5de a73e
-0.13916717 0.37916458 -0.18118979 0.052463237 0.77156276 0.15200545 -0.034018274 0.43559834
-0.5283462 0.05863873 0.23357032 0.33262 0.06005001 0.13605346 -0.41641194 0.32787195

net.4.weight f4 [1, 16]
00000000: 3d9c df3a 1194 c63e 9526 83bb 36e0 f43e
00000010: edd0 2fbf 3d5d 0b3e 02c8 00ba ef66 be3e
00000020: 4d2e c9be 6f4b fb3e 0a71 8b3f 78fe 6639
00000030: 0116 d63c 3ab4 643f 7a27 75be aca7 af3e
0.0017060112 0.3878484 -0.004002402 0.4782731 -0.6867817 0.13609786 -0.0004912616 0.37187907
-0.39293137 0.4908099 1.0893872 0.00022029306 0.02613354 0.89337504 -0.2394084 0.3430761
