onnx_models/bean_model.onnx (onnx, 2313 bytes, 5 tensors)

net.0.weight f4 [16, 1]
000000 2d 1d 75 be 2d 1d 6b 3e cf bb 6d 3f eb c4 8c 3e
       -0.23936911 0.22960348 0.928647 0.27493986
000010 f3 b8 7c bd 40 64 e0 3f 85 04 4a bf 35 7f be 3e
       -0.06169982 1.7530594 -0.78913146 0.37206426
000020 09 09 d4 3f 85 ec 11 40 0a 5c 82 bf 51 0a df 3c
       1.6565257 2.280061 -1.0184338 0.027226599
000030 4f 0b 33 bd 33 c0 a1 bf b3 74 d0 3f 87 24 58 bf
       -0.043711957 -1.263678 1.6285614 -0.84430736

net.0.bias f4 [16]
000000 4d d5 9d 3e 9a 84 90 be 84 f7 88 bf 4c 3d 96 be
       0.30826798 -0.28226167 -1.0700536 -0.2934364
000010 71 38 49 3d 78 aa 6c 3e 32 25 d1 be 55 08 48 be
       0.049126092 0.23111904 -0.4084869 -0.19534428
000020 8f 42 33 bf 88 06 dd bd f6 b3 96 3f 91 cb db bc
       -0.70023435 -0.10792261 1.177367 -0.026830466
000030 ed 4d 6d 3d 37 40 b3 3f f1 46 62 bf f2 67 6a 3f
       0.057935644 1.4003972 -0.883895 0.9156486

net.2.weight f4 [16, 16]
000000 9e 0d 6b 3f f5 4e 1e bf 0f 0b cb bf ba 4d 70 3e
       0.91817653 -0.6183923 -1.586275 0.2346715
000010 01 d4 a1 3e 68 b9 0c c0 09 6b 85 3f 02 5f 09 3f
       0.3160706 -2.1988163 1.042329 0.53660595
000020 21 83 4d c0 c7 50 ce 3f 38 30 43 40 4b 75 4c bf
       -3.2111285 1.6118401 3.049818 -0.79866475
000030 7e 7e af be 4f 09 24 40 6d a7 87 c0 2d b7 17 40
       -0.34276193 2.5630682 -4.2391877 2.3705552
000040 3e 3b dc bd d9 08 e0 3c f8 cd 1a 40 94 35 ca 3d
       -0.10753487 0.027347969 2.4188213 0.098735005
000050 4b 3b e0 bd 33 87 45 bf 12 29 ea 3e 9f 0d 80 bd
       -0.10948809 -0.7715942 0.4573446 -0.06252598
000060 97 ec 4f bf 98 0a 33 bf fe d0 21 c0 11 01 26 3d
       -0.8122038 -0.6993804 -2.5283809 0.04052836
000070 d4 02 35 bd fb 8e d3 be b9 10 31 bf 8a 68 6b bf
       -0.04419215 -0.41320023 -0.6916614 -0.9195639
000080 51 23 e8 be fd 9c 0c 40 1c c0 cc bf d0 21 b6 3f
       -0.45339444 2.1970818 -1.5996127 1.4229069
000090 59 7b 94 bf db 00 28 c0 45 4f 82 be ec 77 01 c0
       -1.1600143 -2.6250522 -0.25451103 -2.0229445
0000a0 75 78 ef 3f 99 84 2d c0 0a 8f 71 bf 6d c9 ee 3f
       1.8708636 -2.711218 -0.94358885 1.865522
0000b0 59 87 81 bf e2 aa 04 3e 9e dd b8 be 86 23 3d bd
       -1.011943 0.12955812 -0.3610658 -0.046176456
0000c0 26 a0 9d 3f 5f 47 2d bf af 15 d5 bf 7f b6 1e 3d
       1.2314498 -0.6768703 -1.6647242 0.03874826
0000d0 91 11 d4 3d d0 03 b8 3f 94 ed 97 be e9 f6 4d 3e
       0.10354913 1.4376163 -0.29673445 0.2011372
0000e0 49 88 45 bf 30 91 f5 3f f8 0d a6 be d9 71 49 bf
       -0.7716108 1.9184933 -0.32432532 -0.7868934
0000f0 9c 1a c5 be cb 21 c4 be 90 8a 6e 3f 9a 14 fe be
       -0.38496864 -0.38307032 0.9318018 -0.49625093
000100 ad 87 15 bd 20 fa 91 3c 22 ff 76 3e d6 24 09 40
       -0.036506344 0.017819464 0.24120763 2.1428733
000110 d1 0a 8c 3f 05 4e 54 3f db ab af bf ce 14 d9 3f
       1.0940801 0.8293155 -1.3724321 1.6959474
000120 ea f6 fa 3f 64 0b 87 3f 0d 96 de bf 63 dc 5e 3f
       1.9606602 1.0550351 -1.7389542 0.87055033
000130 e5 d8 d8 bf 9b 2d 71 bf 56 e1 f2 3f f6 16 40 bf
       -1.6941191 -0.94210213 1.8975017 -0.75035036
000140 7d 94 8d 3f b6 98 38 3f b3 a8 2f 40 8a b0 22 40
       1.106094 0.7210802 2.7446716 2.542025
000150 e5 3a 7b bf 49 6c c8 bd 83 37 bf bf d6 9a c1 bc
       -0.9813674 -0.09786279 -1.4938816 -0.023633402
000160 ab fc 8c 40 d8 78 2e 3f 78 91 64 c0 2e 44 79 bf
       4.4058433 0.6815314 -3.5713787 -0.9736966
000170 2d 72 96 bf 1c 8c 22 c0 90 5b 9f 40 e2 07 a0 be
       -1.1753594 -2.5398016 4.979927 -0.31256014
000180 66 4a cb bf e0 a2 98 3f 7e b1 1b c0 d9 d0 94 3f
       -1.588208 1.1924706 -2.4327083 1.1626235
000190 db ad 0c 3f 0a 4c 93 bf 82 83 90 be 36 0a a3 bf
       0.5495278 -1.150758 -0.28225332 -1.2737491
0001a0 b9 e8 a5 be d1 89 c1 bf 9c b9 df bf 0b 2b 5c 40
       -0.32404116 -1.5120183 -1.7478518 3.4401271
0001b0 da 33 b5 be 99 2f c8 be b0 31 be be 94 b8 c2 3e
       -0.35391122 -0.39098814 -0.37147284 0.38031447
0001c0 44 1e 00 bf cf ef a5 bd c4 60 a5 bf 37 37 aa 3e
       -0.5004618 -0.081023805 -1.2920156 0.3324525
0001d0 ee bd ef 3e fb af 0f bf 54 b5 d4 3e 06 9f 98 bf
       0.46824592 -0.561279 0.41544592 -1.192353
0001e0 a2 c4 ff be b6 0c 59 bf 1f bd f2 3e 7e 82 de bd
       -0.49954706 -0.8478502 0.47409913 -0.10864733
0001f0 95 12 b9 3e 79 69 30 3f 15 4e a3 bf 00 c1 61 3f
       0.3614699 0.6891094 -1.2758204 0.8818512
000200 d7 cd 36 bf 69 46 c0 3f f6 93 13 3e 96 cf ea be
       -0.71407837 1.5021487 0.14411911 -0.458615
000210 2b 37 cb bf 30 a9 09 40 86 74 35 c0 41 3f 4b be
       -1.5876211 2.1509514 -2.835237 -0.19848348
000220 92 9e d5 bf 4c 76 2f 40 69 3b 17 bf 14 69 19 3e
       -1.6689017 2.7415953 -0.5907503 0.1498149
000230 fa 0f 39 3f 0b eb 2f 3e 2f a9 80 bd 2a d3 a5 be
       0.72290003 0.17179506 -0.06282269 -0.32387668
000240 60 da 4d be dd 6d 5e bd 06 84 83 bf 55 96 d8 3d
       -0.20102835 -0.054303993 -1.0274665 0.105755486
000250 f2 d4 3f be 41 d7 20 3f 58 42 92 bf 9d 8e da be
       -0.18733576 0.6282845 -1.1426497 -0.4268693
000260 34 ac 01 3d 73 3d 31 bf 9e e8 6f 3f 96 e4 1f 3e
       0.031658366 -0.6923439 0.9371432 0.15614542
000270 dc 33 d2 bd ea d1 47 bd 35 90 a7 bf 2f ca 97 3e
       -0.10263798 -0.048784174 -1.3090883 0.2964644
000280 a3 cd f6 bf 6b 03 96 3f 9b 67 b3 3f b9 78 8a 3f
       -1.9281505 1.1719793 1.4015993 1.0818092
000290 72 4c a2 bf fe 68 cc be 75 3c 8b 3f d4 e6 51 c0
       -1.2679579 -0.39923853 1.0877825 -3.2797136
0002a0 25 e9 47 3e 63 cf 8f bf 1d 46 46 bf 18 e9 2d bf
       0.19522531 -1.1235164 -0.77450734 -0.679338
0002b0 65 9f 08 c0 77 13 0e 3f c7 55 98 3d 93 04 87 3f
       -2.1347287 0.5549845 0.07438236 1.0548271
0002c0 9c df a6 3f 47 c4 0f 3f 1e 3f 32 be 86 12 f7 be
       1.303699 0.5615887 -0.1740689 -0.4825632
0002d0 23 ac 8b 3f 8f b4 ed bf 29 9c a9 3f 48 ea e8 3f
       1.0911907 -1.8570727 1.3250781 1.8196497
0002e0 22 c0 9c 3f dc 0e 69 3e ab a1 b3 bc 65 d6 7b bf
       1.2246134 0.22759575 -0.021927675 -0.98374015
0002f0 dc 72 08 3f c0 fc 69 3f 0c c5 43 bf 77 0e 84 be
       0.5330026 0.9140129 -0.76472545 -0.25792286
000300 eb 5b 94 3f 38 02 c4 bf 4e 03 e7 bf fe 9e 12 3f
       1.1590551 -1.5313177 -1.8047884 0.5727385
000310 2f 3d 87 bf 7f f1 b5 3f 34 0e c3 be f9 73 0c 3f
       -1.0565547 1.4214324 -0.38096774 0.5486446
000320 c8 35 12 3e 0e 26 b5 3f 03 e1 cd bf 8c 66 28 3f
       0.14278328 1.4152238 -1.6084293 0.65781474
000330 6b 6b 50 40 65 78 11 bf 5b 46 23 3f c5 65 18 3f
       3.2565563 -0.5682433 0.6377923 0.5953029
000340 f5 a6 68 3e 49 5f 2a c0 cf 17 ea bf 3a 84 be bf
       0.22719939 -2.6620657 -1.8288516 -1.4884102
000350 34 d3 0d c0 92 68 74 3f 97 e2 58 3e 7a 3a 94 3f
       -2.2160158 0.9547206 0.21180187 1.1580346
000360 f2 a2 b6 3f a7 31 4f 3f b8 5a 4a 3c 62 55 bd 3f
       1.4268477 0.8093514 0.012350731 1.4791682
000370 38 65 31 3d 8f 35 36 be a0 82 3f 3f d5 d9 b9 bf
       0.04330942 -0.17793868 0.7480869 -1.4519602
000380 f8 2d 58 bf a8 3b 05 c0 7d c1 07 c0 ef 66 96 3f
       -0.8444514 -2.0817661 -2.1211846 1.1750163
000390 78 ec 1f 3d 5e 21 89 3f 9e 75 87 bf f1 51 85 3f
       0.039043874 1.0713308 -1.0582769 1.0415632
0003a0 32 18 c9 bf c1 ca a2 3f ae 38 9d bf 63 83 9d 3f
       -1.5710509 1.2718126 -1.2282922 1.2305721
0003b0 2e 91 2f 3f c2 e5 b8 3e 83 20 81 3f 21 26 38 bf
       0.685809 0.3611279 1.0088047 -0.7193318
0003c0 5d 95 1f bf 25 a2 30 bf fc ea 6e 40 cc 0d a0 be
       -0.62337285 -0.6899741 3.7330923 -0.31260526
0003d0 52 51 1d bf 8c f7 85 bd 10 d6 b8 bd c3 e9 45 3e
       -0.6145221 -0.065413564 -0.09025204 0.19327454
0003e0 53 13 ac 40 f9 c4 1e 40 ba c9 14 c0 cf ec 19 3f
       5.377359 2.4807723 -2.3248124 0.60126966
0003f0 9c ef a6 3f 49 57 3e c0 0a 65 43 40 aa 9c 04 c0
       1.3041873 -2.9740775 3.053042 -2.072062

net.2.bias f4 [16]
000000 3a 78 2a bf 23 ac 39 be 4e 3c 1b 3f 4c ea 0b 3e
       -0.665897 -0.18132071 0.6063889 0.13663596
000010 1b 6e a8 be 0a 96 0f be 5a 25 24 bf 08 c1 98 bf
       -0.32896504 -0.14022079 -0.64119494 -1.1933908
000020 5a 5f 00 be 53 e7 02 bf f2 05 e1 be 50 35 26 be
       -0.12536374 -0.5113422 -0.43949848 -0.16231275
000030 99 b5 06 3e 4b ec 77 bf 58 2b 8f 3c 90 3d 39 bf
       0.13155212 -0.9684493 0.017476723 -0.7235956

net.4.weight f4 [1, 16]
000000 2b 31 22 3f 74 4b f5 3e 73 b1 30 bf f4 e1 0e 3f
       0.63356274 0.4790913 -0.69020766 0.5581353
000010 97 f5 11 bf 8b 5e f1 bf 6a c3 86 be 1d e2 69 3d
       -0.57015365 -1.8856977 -0.26320964 0.057100404
000020 b7 c7 67 3f 79 d2 54 3f 13 f5 92 be 9c 8c 89 3f
       0.90539116 0.83133656 -0.28702602 1.0746036
000030 2a 41 e1 3f 64 69 92 3d dc cc 91 3d 02 76 7f bf
       1.7598011 0.07149008 0.07119152 -0.9978944
