onnx_models/bean_sakaro.onnx (onnx, 2339 bytes, 5 tensors)

net.0.weight f4 [16, 1]
000000 77 1e e3 be b1 89 9f 3e 74 28 22 be 06 5c e8 3e
       -0.4435918 0.31159738 -0.15835744 0.45382708
000010 a9 bb 6c be 56 e4 50 be 75 e2 ba 3e 28 f3 8a 3e
       -0.23118462 -0.20399603 0.36500898 0.27138638
000020 a3 86 b0 3e 26 8c a1 3e 07 7a a6 3e 09 12 a2 3e
       0.3447772 0.31552237 0.32514974 0.31654385
000030 fe 61 a2 be ec 16 2b bf 8e 7b 1b bf 1a 5b cb be
       -0.31715387 -0.6683185 -0.60735404 -0.39717942

net.0.bias f4 [16]
000000 cd 16 1e 3e 31 b0 85 be bf 7d 9a 3e 6d 8f c8 be
       0.15438385 -0.26110986 0.30174062 -0.39171925
000010 75 3f d8 3e 60 45 bb 3e 46 2a b7 be dc d5 b8 be
       0.42235914 0.36576366 -0.3577444 -0.36100662
000020 2d ac ac be 55 74 70 be 47 95 f3 be bd 49 97 be
       -0.3372511 -0.23481877 -0.47574827 -0.29548445
000030 cc c7 81 3e 79 94 a8 3e 90 3e 9a 3e 71 90 84 3e
       0.25347745 0.32925776 0.30125856 0.2589145

net.2.weight f4 [16, 16]
000000 cb eb 3b 3b c7 ab 45 bd 13 54 c2 3d db 01 93 be
       0.002867448 -0.048259523 0.09488692 -0.28712353
000010 43 27 1e 3e 53 b3 4a 3e 9a fd 93 be 7e 50 30 3c
       0.15444665 0.1979497 -0.2890442 0.010761378
000020 6d 87 bb be 9b 8f 23 be 56 d3 8e be a4 3d 3f be
       -0.3662676 -0.1597275 -0.27895612 -0.18675858
000030 ab 41 5b 3e 98 b5 71 be f3 e2 79 be a4 36 8c bc
       0.21411769 -0.23604429 -0.2440298 -0.017115898
000040 53 8f 71 3e 60 d7 aa be 9e d8 19 3d 84 7f 49 bf
       0.2358983 -0.33367443 0.037560098 -0.787102
000050 76 4f 7f 3e d2 7a 1e 3f 64 c3 6e be e4 92 02 bf
       0.24932656 0.6190616 -0.23316723 -0.5100539
000060 52 ec 35 bf 36 bd a6 be be 2b 16 bf cf 44 27 bf
       -0.7106372 -0.3256623 -0.58660495 -0.6533937
000070 b2 58 ac 3e dc d8 0c 3f 15 30 d1 3e 5e 73 93 3e
       0.3366142 0.550184 0.40856996 0.28798956
000080 74 af e0 3e 48 42 1a bf f9 d8 78 3d 19 fe 6a bf
       0.4388386 -0.6025739 0.060753796 -0.9179397
000090 a5 95 42 3e 3b c4 1f 3f 15 92 02 bf a1 ce fb be
       0.19002397 0.624088 -0.51004153 -0.49181083
0000a0 91 7a 15 bf b6 7d 1b bf e9 b8 cf be 11 d9 21 bf
       -0.58390146 -0.60738695 -0.40570763 -0.6322184
0000b0 3a a1 dc 3e 30 f2 42 3f 34 ad 19 3f 1e c9 04 3f
       0.43091756 0.761508 0.6002991 0.5186938
0000c0 c2 c2 46 3e 10 4d e2 be fa 1a 25 3e 55 8f 76 bf
       0.19410232 -0.4419942 0.16123572 -0.9631246
0000d0 18 6f 20 3e 2b ee 3a 3f 40 d9 ce be 7b c0 19 bf
       0.15667379 0.73019665 -0.40400124 -0.60059327
0000e0 80 cc 20 bf 6c 2a 27 bf 6e 55 1c bf ea a9 30 bf
       -0.6281204 -0.65299106 -0.61067855 -0.6900927
0000f0 49 5c ce 3e c1 2a fd 3e 44 b8 0d 3f 32 e4 d8 3e
       0.40304783 0.4944668 0.5535929 0.423616
000100 ba 87 bc 3e 42 da 0d bf 12 52 2b 3e 1d 29 3a bf
       0.368223 -0.5541116 0.16730526 -0.72718984
000110 01 d8 f6 3e 19 23 12 3f 93 39 09 bf a2 d1 06 bf
       0.48211673 0.57084805 -0.53603476 -0.52663624
000120 54 5c 35 bf 98 02 00 bf 9c 51 d4 be e2 b9 28 bf
       -0.70844007 -0.5000396 -0.41468513 -0.65908635
000130 79 1a de 3e d7 46 36 3f 44 2f 20 3f 12 a9 11 3f
       0.43379572 0.71201843 0.6257212 0.56898606
000140 86 96 95 bc d4 d6 33 bd f9 9f b5 bd e6 00 ac be
       -0.018260252 -0.043906048 -0.08868403 -0.33594435
000150 64 1f 46 3e 03 92 40 3e 98 6b 5b be 04 ad 99 be
       0.19347912 0.18805699 -0.21427763 -0.30014813
000160 0a 2a e0 be 75 a4 30 be 0b c7 e2 bd 66 7e c8 bd
       -0.43782073 -0.17250235 -0.11073121 -0.097897336
000170 62 a6 bc 3c 7c c9 89 be e6 fa b5 bd 24 30 5b 3d
       0.023028556 -0.26911533 -0.08885746 0.053512707
000180 de ac fd bd 01 1d 12 be bf b9 3a 3e 0c 0d 7c be
       -0.123864874 -0.14268877 0.18234919 -0.24614352
000190 c8 0d 7e 3e d8 bb cd 3e 19 95 53 be a0 eb c2 be
       0.24809945 0.40182376 -0.20662345 -0.38070393
0001a0 1f ad 6d be 3c 34 19 be 73 eb 48 be 12 e0 b2 be
       -0.23210572 -0.14961332 -0.19621067 -0.34936577
0001b0 7b 8f 4f bd 8a 3e 77 be 13 00 9b be 9d 8b 7a bd
       -0.050673943 -0.2414495 -0.30273494 -0.0611683
0001c0 44 b0 32 bd bc 4d 39 be 39 c9 9a bd 04 ce d4 be
       -0.04362513 -0.1809606 -0.075579114 -0.41563427
0001d0 59 af 48 3e 82 20 46 3e 43 5a af bd d7 96 35 be
       0.1959814 0.19348338 -0.08562138 -0.17733322
0001e0 ee 84 76 be 00 86 c5 bc 88 23 10 be 1f 4e 5d be
       -0.24074146 -0.024111748 -0.14076054 -0.21611832
0001f0 a1 da 15 3e e8 11 24 be db ac df bd 95 0c ae 3d
       0.14634182 -0.16022456 -0.109216414 0.084984936
000200 d8 e0 d3 bd 8d ab 98 be ed 0b 38 3e 1f 5c 96 be
       -0.1034562 -0.29818383 0.179733 -0.29367158
000210 44 cf 5d bd 1e e1 80 3e 03 73 35 be 58 16 4e be
       -0.054152742 0.2517175 -0.17719655 -0.20125711
000220 23 37 ad be 9c de 77 be fc 2e a2 be 99 4a 6c be
       -0.33831128 -0.24206012 -0.3167647 -0.23075332
000230 9a e9 62 bd 55 78 9d be 50 a7 53 be f0 24 d0 bd
       -0.05539856 -0.3075587 -0.20669293 -0.10163295
000240 e1 53 51 3e 89 5d b8 be 16 93 ec 3e c1 b1 29 bf
       0.20442154 -0.36008862 0.46205968 -0.66286856
000250 f1 c1 1d 3f 4c b1 3d 3f 33 1f f2 be f4 47 2c bf
       0.61624056 0.7409866 -0.47289428 -0.6729729
000260 05 4b 26 bf d1 4a 83 be 80 9f 7e bf 87 66 30 bf
       -0.6495822 -0.25643018 -0.9946213 -0.68906444
000270 50 72 5b 3e c7 be bd 3e ba 4e 03 3f 62 74 be 3e
       0.21430326 0.37059614 0.51292 0.37198168
000280 17 a8 3a bd 29 b4 92 be 71 e3 15 3e 43 dc a9 be
       -0.04557046 -0.28653076 0.14637543 -0.3317586
000290 1b b8 1c 3e ce ff d1 3e e8 f2 89 be 2f 0f 97 be
       0.15304606 0.41015476 -0.26943135 -0.29503772
0002a0 9d 0c 46 be 46 76 41 be 54 a4 8d be 82 30 f5 bd
       -0.19340749 -0.18892774 -0.27664435 -0.11972143
0002b0 ba 55 81 3d bd e1 6a be 56 6a be be 0c 14 88 bd
       0.06315179 -0.22937675 -0.37190503 -0.06644449
0002c0 e9 b5 18 be 23 92 bc bd 3f 08 b9 bd 63 b3 19 bf
       -0.14913143 -0.09207561 -0.09034776 -0.6003935
0002d0 d5 c1 f5 3d e5 87 f7 bd 01 1a 50 be a3 22 d5 bd
       0.11999861 -0.12086467 -0.2032242 -0.10406997
0002e0 69 6b 6f be e7 1f 59 bd ab ff 91 be a7 7f b6 be
       -0.23380817 -0.05300894 -0.28515372 -0.35644266
0002f0 f0 f4 3f 3d a0 a7 42 be cb 91 41 be 42 bc 8a 3c
       0.04686445 -0.19009256 -0.18903272 0.016935471
000300 de 49 72 be 6b 17 c1 bd 7c 6c 4b 3e bb cd ff be
       -0.2366099 -0.09428295 0.19865602 -0.49961647
000310 45 d8 70 3e aa 00 9a 3e d1 5e b4 bd 6d 1a 96 be
       0.2352 0.30078632 -0.08807147 -0.29317036
000320 8a 6c 88 be 29 4b 62 be 35 63 17 bf c7 b1 f0 be
       -0.2664531 -0.22098984 -0.5913575 -0.47010633
000330 f3 3d 99 bd 3e 1d b8 be 1b 58 a9 be d1 b2 35 be
       -0.07482519 -0.3595981 -0.33075032 -0.17743994
000340 c3 64 8e bb 3a 26 d4 3c 99 bf 5e 3d c4 a5 42 be
       -0.004345508 0.025897134 0.05438194 -0.19008547
000350 a9 1f 1f 3e fa 19 1b 3e 75 ae b4 be 89 c7 3c be
       0.15539421 0.15146628 -0.3528935 -0.18435492
000360 0e 28 cc be fd e7 7e bd bf f1 a8 be 45 3d c5 bd
       -0.3987431 -0.06223296 -0.32996938 -0.09630827
000370 a0 c5 1e 3e 5c 01 42 be 46 9e 7f be 98 32 19 3e
       0.15505075 -0.18945831 -0.2496272 0.14960706
000380 25 9c d6 3d b8 f4 e8 be f1 48 c5 3d 77 a3 1c be
       0.10479001 -0.45499206 0.09633053 -0.15296732
000390 d1 d4 c9 bc 02 9e ba 3e 39 5f 20 be a6 ac 7b be
       -0.024637612 0.36448675 -0.15661325 -0.24577579
0003a0 4e 15 53 be 57 9a 2f be 40 f7 2e be e1 08 6c be
       -0.20613596 -0.1714872 -0.17086506 -0.23050262
0003b0 b6 4c f8 3d e4 43 99 be 0d a8 3a be 43 dd 16 be
       0.121240065 -0.2993461 -0.18228169 -0.14732842
0003c0 68 1f 59 3e 11 51 e8 be b8 16 d7 3c 9a 1a 37 bf
       0.21203387 -0.4537435 0.02625595 -0.71524966
0003d0 2a b2 a8 3e 51 b8 13 3f ec 0f 34 bf f4 26 dd be
       0.32948428 0.5770312 -0.70336795 -0.4319378
0003e0 08 c2 47 bf e9 63 3a bf 47 ac e4 be bc 12 65 bf
       -0.78030443 -0.728087 -0.44662687 -0.8948171
0003f0 25 f8 cf 3e a1 26 2b 3f 5e 5f 48 3f 51 30 0a 3f
       0.40619007 0.6685582 0.7827052 0.53979975

net.2.bias f4 [16]
000000 25 4b 27 be cb b9 11 be 14 a7 1c 3e db 78 b5 bd
       -0.16337259 -0.1423103 0.1529811 -0.08860942
000010 4d 95 50 3e 11 3b f6 bd 07 c3 a5 3d c7 24 c3 bd
       0.20369454 -0.12022985 0.08093839 -0.09528499
000020 10 e7 7e be b9 90 d7 3e 11 a2 1d 3e e7 eb a3 bd
       -0.24892831 0.42102602 0.15393855 -0.08003979
000030 9b e7 89 3d e2 8d 2f be 84 d3 98 be 5b 1a 91 bc
       0.06733628 -0.17143968 -0.29848874 -0.017712763

net.4.weight f4 [1, 16]
000000 fd 67 ee be 70 48 b5 3d b4 d4 20 3f 7a f8 9f 3e
       -0.46563712 0.08851707 0.6282456 0.3124426
000010 60 1e 10 3f ca b1 f8 be 74 49 24 bf 2d 5c bd be
       0.5629635 -0.48573142 -0.6417458 -0.36984387
000020 ae ea 18 bf f9 33 1b 3f d6 a5 12 bf c4 a2 ed be
       -0.5973309 0.6062618 -0.57284296 -0.46413243
000030 09 ec 0d bf 6e 14 de be c5 4e 06 bf 0f 0e 1f 3f
       -0.55438286 -0.43374962 -0.5246394 0.62130827
