onnx_models/bean_sakaro.onnx (onnx, 2339 bytes, 5 tensors)

net.0.weight f4 [16, 1]
0.41932032 -0.54022235 0.41816863 -0.5430448 -0.5434044 0.36278766 0.39813218 0.39094695
0.31206968 0.41833982 0.3761137 0.3462406 0.13468046 0.33802414 0.06214862 -0.28579506
00000000: 27b1 d63e 034c 0abf 331a d63e fc04 0bbf
00000010: 8d1c 0bbf 4ebf b93e fbd7 cb3e 332a c83e
00000020: 99c7 9f3e a330 d63e fa91 c03e 7346 b13e
00000030: ade9 093e 8011 ad3e 8d8f 7e3d bb53 92be

net.0.bias f4 [16]
-0.30256885 0.20547332 -0.26063436 0.18928984 0.28982678 -0.35763952 -0.25706336 -0.36844352
-0.40717357 -0.39925143 -0.29356816 -0.38945076 -0.22191131 -0.40209144 -0.07452877 0.32591558
00000000: 4eea 9abe 9967 523e de71 85be 32d5 413e
00000010: 2d64 943e 871c b7be cf9d 83be a1a4 bcbe
00000020: 0e79 d0be af6a ccbe 914e 96be 1766 c7be
00000030: b83c 63be eede cdbe 8aa2 98bd 68de a63e

net.2.weight f4 [16, 16]
-0.27815416 -0.18619503 -0.10834267 -0.16118553 -0.07056003 -0.28321362 -0.1388202 -0.08170166
-0.2149846 -0.10753375 -0.21561691 -0.18643709 0.020295158 -0.20088817 0.11790246 0.10975883
-0.15665667 -0.2002869 -0.08730355 -0.080110386 -0.06551462 -0.109278604 -0.0957908 -0.23850794
-0.12544487 -0.20923996 -0.3242218 -0.11855222 -0.032661073 -0.36780897 -0.011555286 0.1801597
-0.13460954 -0.16178982 -0.12011332 -0.0045921244 0.04498786 -0.1431094 -0.18524577 -0.26824763
-0.20900203 -0.10380455 -0.058120906 -0.14207022 -0.1432688 -0.30481005 0.12308471 0.14794208
-0.56487155 0.5644857 -0.6067651 0.80049944 0.73119843 -0.6434956 -0.6912899 -0.4347907
-0.4903238 -0.2472912 -0.51322854 -0.22402513 0.15886557 -0.47403064 0.038239617 0.28307062
-0.68023026 0.6547924 -0.66811186 0.62478024 0.54188144 -0.49702618 -0.5272113 -0.34257832
-0.59637606 -0.18683888 -0.5696701 -0.423093 -0.034353532 -0.70644677 -0.037390333 0.1297075
-0.54490507 0.7149547 -0.5857054 0.75399536 0.6572046 -0.40707397 -0.7319998 -0.57485044
-0.29046428 -0.35231408 -0.5971483 -0.36342818 0.11236522 -0.34979305 0.04013122 0.27225083
-0.55157775 0.4826256 -0.3619079 0.50202143 0.5396085 -0.36263362 -0.38570186 -0.53708565
-0.8103608 -0.48052767 -0.60015804 -0.4366484 -0.10377261 -0.672125 -0.028593492 0.32851347
-0.19714543 -0.15794036 -0.17309357 -0.28658494 -0.28458312 -0.20698574 -0.16967948 -0.14316343
-0.34239292 -0.05201941 -0.23161635 -0.26431456 -0.25381282 -0.15676044 -0.32582062 -0.07238388
-0.48104855 0.15013814 -0.3822717 0.18068297 0.3242714 -0.5899695 -0.41872174 -0.6698354
-0.9129368 -0.5399818 -0.31733656 -0.51465684 -0.38452205 -1.0406969 0.090775296 0.6538627
-0.29720995 -0.062900245 -0.027570648 0.028779283 -0.07868062 -0.07793546 -0.19989559 -0.16523549
-0.32433346 -0.1602322 -0.22592644 0.00860022 0.21402648 -0.42433065 -0.03003952 0.0038131808
-0.2106772 -0.18425581 -0.29036954 -0.32549876 -0.19661912 -0.27885538 -0.3365692 -0.15645571
-0.23637249 -0.15690097 0.02462301 -0.124932505 0.048580084 -0.21509142 0.17432253 0.13821904
-0.24334492 -0.0637611 -0.021572309 -0.09649221 0.096276835 -0.078714885 -0.056703594 -0.12773536
-0.31097502 -0.19971445 -0.2861178 -0.20183852 -0.039787114 -0.32654524 0.13467278 -0.0538916
-0.67271745 0.6583186 -0.432091 0.6586559 0.650943 -0.36107618 -0.73482907 -0.4152803
-0.54376394 -0.2612916 -0.56859595 -0.35314617 0.010264059 -0.6478874 -0.10022027 0.31649238
-0.21802098 -0.14445701 -0.09607159 -0.108522676 0.13691045 -0.18807827 -0.16232309 -0.16140226
-0.17933668 -0.04469533 -0.12600149 -0.149081 -0.049236514 -0.20069483 -0.12666109 0.2041228
-0.83565545 0.77405804 -0.79997027 1.136638 0.603451 -0.37719882 -0.9093107 -0.5311984
-0.27613816 -0.34117344 -0.47713715 -0.28858003 -0.28228885 -0.37214148 -0.3786111 0.040368177
-0.11680479 -0.19343759 -0.087791674 -0.105718076 -0.057148844 -0.08834117 -0.25852436 -0.27907598
-0.26080734 -0.19615008 -0.19464788 -0.103065684 -0.0140724275 -0.3102344 0.048343714 0.1221057
00000000: 396a 8ebe e9a9 3ebe c3e2 ddbd d20d 25be
00000010: c781 90bd 6001 91be e226 0ebe 3353 a7bd
00000020: ec24 5cbe a83a dcbd aeca 5cbe 5de9 3ebe
00000030: 0842 a63c a1b5 4dbe d876 f13d 3dc9 e03d
00000040: 9b6a 20be 0218 4dbe 34cc b2bd ea10 a4bd
00000050: 872c 86bd 76cd dfbd f82d c4bd 6d3b 74be
00000060: 9f74 00be 0043 56be 6600 a6be 82cb f2bd
00000070: 9ec7 05bd 7551 bcbe 6252 3dbc c97b 383e
00000080: 15d7 09be 3bac 25be f9fd f5bd 8879 96bb
00000090: 3145 383d 458b 12be 11b1 3dbe c157 89be
000000a0: a104 56be 7b97 d4bd 3010 6ebd db7a 11be
000000b0: 0eb5 12be 1010 9cbe d613 fc3d 217e 173e
000000c0: 6c9b 10bf 2382 103f f554 1bbf 88ed 4c3f
000000d0: d22f 3b3f 21bc 24bf 60f8 30bf e39c debe
000000e0: b90b fbbe e839 7dbe f262 03bf d866 65be
000000f0: a8ad 223e 25b4 f2be 25a1 1c3d a2ee 903e
00000100: 9223 2ebf 7aa0 273f 6109 2bbf 99f1 1f3f
00000110: beb8 0a3f 377a febe 52f7 06bf 6d66 afbe
00000120: 1aac 18bf b152 3fbe e6d5 11bf a59f d8be
00000130: 4ab6 0cbd b2d9 34bf 9b26 19bd 0bd2 043e
00000140: e67e 0bbf 4507 373f caf0 15bf d705 413f
00000150: 903e 283f 006c d0be 5764 3bbf 6629 13bf
00000160: bcb7 94be 8362 b4be b6de 18bf 4213 babe
00000170: bd1f e63d 1318 b3be a260 243d 7664 8b3e
00000180: 3334 0dbf b41a f73e fe4b b9be 7a84 003f
00000190: c823 0a3f 1dab b9be b77a c5be 727e 09bf
000001a0: ce73 4fbf b907 f6be f5a3 19bf 6190 dfbe
000001b0: bc86 d4bd 6210 2cbf e63c eabc eb32 a83e
000001c0: 7ee0 49be 1ebb 21be 713f 31be 43bb 92be
000001d0: e1b4 91be 12f4 53be 75c0 2dbe 6f99 12be
000001e0: 204e afbe 4e12 55bd d62c 6dbe 3d54 87be
000001f0: c1f3 81be cf85 20be f6d1 a6be 003e 94bd
00000200: ff4b f6be d0bd 193e 1eb9 c3be f504 393e
00000210: e706 a63e 3e08 17bf b262 d6be 557a 2bbf
00000220: 3ab6 69bf 3f3c 0abf f079 a2be 8dc0 03bf
00000230: 13e0 c4be 8e35 85bf 66e8 b93d 8c63 273f
00000240: e72b 98be d8d1 80bd d7db e1bc 88c2 eb3c
00000250: 4e23 a1bd a09c 9fbd 6eb1 4cbe 7e33 29be
00000260: 090f a6be e913 24be 4359 67be f0e7 0c3c
00000270: c229 5b3e de41 d9be 7015 f6bc 8fe6 793b
00000280: c4bb 57be 8ead 3cbe 51ab 94be c6a7 a6be
00000290: 8656 49be 22c6 8ebe cc52 acbe ed35 20be
000002a0: a10b 72be a6aa 20be 32b6 c93c 9ddc ffbd
000002b0: e9fb 463d ed40 5cbe 9b81 323e 4b89 0d3e
000002c0: 692f 79be 2e95 82bd 69b8 b0bc b59d c5bd
000002d0: ca2c c53d 4535 a1bd 0742 68bd 0fcd 02be
000002e0: 1e38 9fbe f281 4cbe 087e 92be c2ae 4ebe
000002f0: d0f7 22bd f030 a7be a9e7 093e 70bd 5cbd
00000300: 3637 2cbf 9187 283f 083b ddbe ac9d 283f
00000310: 33a4 263f fade b8be c21d 3cbf 9f9f d4be
00000320: 1d34 0bbf 03c8 85be 818f 11bf 93cf b4be
00000330: 952a 283c f3db 25bf 4940 cdbd 4a0b a23e
00000340: e440 5fbe 8aec 13be 2fc1 c4bd 2341 debd
00000350: 4132 0c3e 9797 40be 0638 26be a246 25be
00000360: 09a4 37be 7312 37bd 8906 01be b1a8 18be
00000370: 3aac 49bd f282 4dbe 72b3 01be 9105 513e
00000380: 84ed 55bf ab28 463f daca 4cbf 5b7d 913f
00000390: c47b 1a3f 3420 c1be 96c8 68bf 9efc 07bf
000003a0: fb61 8dbe 49ae aebe 524b f4be c3c0 93be
000003b0: 2a88 90be 5489 bebe 50d9 c1be 1a59 253d
000003c0: 5a37 efbd 8114 46be 1fcc b3bd b882 d8bd
000003d0: e814 6abd 37ec b4bd 4e5d 84be 0ce3 8ebe
000003e0: 8a88 85be 91db 48be c651 47be 1a14 d3bd
000003f0: 0a90 66bc 0bd7 9ebe 0f04 463d 8e12 fa3d

net.2.bias f4 [16]
0.11009418 -0.016406769 -0.009320427 0.1243326 0.21516436 0.18234026 0.3132893 0.07953023
0.71223956 0.09373921 0.06905368 0.034111135 -0.007398399 -0.2928957 -0.13420336 0.02543543
00000000: 0f79 e13d 7d67 86bc b4b4 18bc 17a2 fe3d
00000010: 0c54 5c3e 68b7 3a3e 7567 a03e bfe0 a23d
00000020: 5555 363f 58fa bf3d 046c 8d3d 1eb8 0b3d
00000030: 456e f2bb 6df6 95be 9b6c 09be f75d d03c

net.4.weight f4 [1, 16]
-0.49168685 -0.4584823 -0.40204492 0.44524708 0.5390574 0.37481153 0.5799158 -0.7958695
0.48935732 -0.41263705 -0.5100843 -0.43153477 0.5386159 -0.39904794 0.5672387 -0.5025932
00000000: 61be fbbe 31be eabe d5d8 cdbe 6df7 e33e
00000010: aaff 093f 4ce7 bf3e 5d75 143f 1bbe 4bbf
00000020: 0b8d fa3e 2a45 d3be e294 02bf 20f2 dcbe
00000030: bbe2 093f 0350 ccbe 8e36 113f f3a9 00bf
