onnx_models/bean_hambela_buliye.onnx (onnx, 2339 bytes, 5 tensors)

net.0.weight f4 [16, 1]
0	0xbce93c00	-0.028470993
1	0x3dd27a09	0.102771826
2	0x3f3c4ba3	0.7355291
3	0x3f326a64	0.6969359
4	0x3f0949c1	0.53628165
5	0xbf07abd8	-0.5299659
6	0x3eca79ed	0.39546147
7	0x3f3f4898	0.74720144
8	0xbea0bc5b	-0.31393704
9	0x3e6e3bc9	0.23264994
10	0xbee8fc8e	-0.45505184
11	0xbe7ad707	-0.24496089
12	0x3e95b402	0.29238898
13	0xbf03fa7b	-0.5155408
14	0xbed6519d	-0.4185914
15	0xbdfc560d	-0.123211004

net.0.bias f4 [16]
0	0x3e9f332e	0.31093735
1	0xbea681b6	-0.32520837
2	0xbeb1d3cd	-0.34731904
3	0xbec55823	-0.38543805
4	0xbec1f9f1	-0.37886003
5	0x3f08e1ca	0.53469527
6	0x3d06938d	0.03285556
7	0xbe576d40	-0.2103777
8	0x3ec6a2bd	0.38796034
9	0xbebc828e	-0.36818355
10	0x3ee2f63e	0.44328493
11	0x3f0842f1	0.53227144
12	0xbee61f61	-0.44945815
13	0x3f0029a9	0.5006357
14	0x3efd7341	0.49501994
15	0xbe8cde3c	-0.275133

net.2.weight f4 [16, 16]
0	0xbc479ae9	-0.01218293
1	0xbdee1bcc	-0.116263956
2	0xbf4d3c97	-0.8017058
3	0xbf1bd88f	-0.6087732
4	0xbf0c876b	-0.5489413
5	0x3f123e96	0.5712675
6	0xbea1035c	-0.31447875
7	0xbee2dc16	-0.44308537
8	0x3ed13ce6	0.40866774
9	0xbd231bb4	-0.03982134
10	0x3f4daab6	0.8033861
11	0x3df80d70	0.12111938
12	0xbed7a177	-0.42115375
13	0x3f38683f	0.72034067
14	0x3ec984b3	0.39359054
15	0x3e3802fe	0.17969891
16	0x3e26c25f	0.16285084
17	0xbe7707b7	-0.24124037
18	0xbf8ea80b	-1.1145033
19	0xbf5f451e	-0.8721484
20	0xbf6b76e6	-0.919783
21	0x3f830dad	1.0238549
22	0xbe5bd510	-0.21467996
23	0xbf510afa	-0.81657374
24	0x3efe4bc3	0.49667177
25	0xbf002648	-0.5005841
26	0x3f7dad1d	0.99092275
27	0x3e6639f1	0.2248304
28	0xbedb991d	-0.42890254
29	0x3f4a40df	0.79005235
30	0x3f50d789	0.8157888
31	0xbd907c08	-0.07054907
32	0x3db8f132	0.09030379
33	0x3cc49fd8	0.024002
34	0x3e458a86	0.19291124
35	0x3ea0e29c	0.3142289
36	0x3e9476a0	0.28996754
37	0xbddbeeb8	-0.10738891
38	0x3d1ecb17	0.0387679
39	0x3e6c630e	0.23084661
40	0xbe589661	-0.21151115
41	0x3b084fe2	0.0020799567
42	0xbe97aeb4	-0.29625475
43	0x3e093ea7	0.13402806
44	0xbd47004c	-0.048584267
45	0xbdd28939	-0.102800794
46	0xbef7dd7b	-0.48411164
47	0xbe4da78f	-0.2008345
48	0x3de0ea6c	0.109822124
49	0xbc8b88cb	-0.017033001
50	0xbf9920db	-1.1963152
51	0xbf662308	-0.89897203
52	0xbf57d92a	-0.8431574
53	0x3f6943bb	0.91118973
54	0xbe53ecf9	-0.20695867
55	0xbf295d3e	-0.661579
56	0x3f1f9799	0.62340695
57	0xbf174db6	-0.5910295
58	0x3f4898e7	0.7835831
59	0x3f27a91b	0.6549241
60	0xbf03854b	-0.51375264
61	0x3f70170f	0.93785185
62	0x3f6f7505	0.9353793
63	0x3af69a06	0.0018814213
64	0x3e196acb	0.14982145
65	0xbd1b6b4c	-0.037944123
66	0xbf81771c	-1.0114474
67	0xbf5003fb	-0.81256074
68	0xbf33f793	-0.70299643
69	0x3f416464	0.7554381
70	0xbe77a5a4	-0.2418428
71	0xbf32d4e8	-0.6985612
72	0x3ecf8276	0.4052922
73	0xbea7ba55	-0.32759348
74	0x3f26323b	0.64920396
75	0x3e5706b9	0.20998658
76	0xbedcd8b2	-0.43134075
77	0x3f13353e	0.57503116
78	0x3f577215	0.8415845
79	0x3e16225a	0.14661542
80	0x3e4507f5	0.19241317
81	0x3d27f719	0.041007135
82	0x3cbda486	0.02314974
83	0xbe911fc5	-0.2834455
84	0xbe99c2d9	-0.3003147
85	0x3e7a9401	0.24470522
86	0xbe3114a9	-0.17293037
87	0x3d4a0dfa	0.049329735
88	0x3e7a7486	0.24458513
89	0xbdcdc024	-0.100464135
90	0x3d2dde05	0.042448062
91	0xbd9d9d5e	-0.07696031
92	0x3db1c454	0.08680025
93	0xbe49c452	-0.19703797
94	0x3e96e274	0.29469645
95	0x3b659aef	0.0035034975
96	0xbe669a90	-0.22519898
97	0x3ca5d10f	0.020241288
98	0xbccee6c3	-0.02525652
99	0x3daf9f50	0.08575308
100	0x3e45f58b	0.19331948
101	0xbd17386d	-0.036919046
102	0x3ca58b02	0.020207886
103	0x3d935f0b	0.071958624
104	0xbd906e1f	-0.07052254
105	0xbd644d07	-0.05573752
106	0xbbea09e3	-0.007142292
107	0x3c0ef2ee	0.008724911
108	0x3e1707a1	0.14749004
109	0x3ca67b03	0.020322328
110	0xbddbe692	-0.10737337
111	0x3da2ba2a	0.07945664
112	0x3e890a76	0.26765794
113	0x3e23b29f	0.15986107
114	0x3f2a21fb	0.664581
115	0x3f299883	0.6624834
116	0x3f58aaf1	0.84635836
117	0xbedfb596	-0.43693227
118	0x3f0b3ee7	0.54392856
119	0x3ef79d0d	0.48362008
120	0xbf4f8b5b	-0.81072015
121	0x3e8aa515	0.27079073
122	0xbf1c9122	-0.61158955
123	0xbe3dfd8f	-0.18553756
124	0x3eb3a153	0.35084018
125	0xbf1a74d7	-0.60334533
126	0xbf41034f	-0.75395674
127	0xbea4ae15	-0.32164064
128	0x3e59b5b6	0.21260723
129	0xbee27b56	-0.44234723
130	0xbfa3092f	-1.2737178
131	0xbf8ce2be	-1.1006696
132	0xbf7d8870	-0.9903631
133	0x3f96f795	1.1794306
134	0xbe87d064	-0.26526177
135	0xbf6023d2	-0.8755466
136	0x3f3a5322	0.727831
137	0xbef9e08d	-0.4880413
138	0x3f61f17c	0.882591
139	0x3f090d59	0.5353599
140	0xbf228934	-0.63490605
141	0x3f354105	0.70802337
142	0x3f80186d	1.0007454
143	0xbe114bc0	-0.14189053
144	0x3e8d3841	0.2758198
145	0xbea70070	-0.3261752
146	0xbf8cf21c	-1.1011386
147	0xbf9b375b	-1.2126268
148	0xbf70d330	-0.94072247
149	0x3fa6a71c	1.3019748
150	0xbe32510b	-0.17413728
151	0xbf5b67b6	-0.85705125
152	0x3f3f7257	0.74783844
153	0xbeeffa39	-0.46870592
154	0x3f509c76	0.8148874
155	0x3f0664cd	0.5249756
156	0xbefa3f50	-0.4887643
157	0x3f5f653a	0.87263834
158	0x3f4f4d3f	0.80977243
159	0xbe57bacf	-0.21067356
160	0xbe84b356	-0.25918072
161	0xbd7c82c4	-0.061648145
162	0xbe44151b	-0.19148676
163	0xbe40e1f3	-0.18836193
164	0x3cb414e0	0.02198261
165	0x3dfc7a4f	0.12328016
166	0xbe9f362b	-0.31096014
167	0xbe1899a3	-0.14902358
168	0x3e5b39a0	0.21408701
169	0x3bf72085	0.0075417184
170	0xbe4ca929	-0.19986404
171	0xbe26aea1	-0.16277553
172	0x3d99438d	0.074835874
173	0xbd752e21	-0.059858445
174	0x3e02d298	0.12775648
175	0x3ea6f595	0.3260924
176	0x3ef5f26b	0.48036513
177	0xbe2662f2	-0.16248682
178	0xbf8110e1	-1.0083276
179	0xbf9a6a1c	-1.2063632
180	0xbf8907c0	-1.070549
181	0x3f8613db	1.047481
182	0xbe6867ad	-0.22695799
183	0xbf620396	-0.8828672
184	0x3f7994a4	0.9749243
185	0xbed221f9	-0.41041544
186	0x3f98cc21	1.1937295
187	0x3e843a6d	0.25825825
188	0xbee75bd2	-0.4518724
189	0x3f80532a	1.002538
190	0x3fa63055	1.29835
191	0xbdca7281	-0.09885121
192	0xbe896a0f	-0.2683873
193	0x3e7b4e8c	0.24541682
194	0xbea3992e	-0.31952804
195	0xbe499d88	-0.19689
196	0xbd0ec99d	-0.034860242
197	0x3da81497	0.08207052
198	0xbdd6ce0b	-0.10488518
199	0xbc6c760c	-0.014432441
200	0xbd3e0b60	-0.046397567
201	0x3e53f48a	0.20698753
202	0x3d0aaf35	0.033858497
203	0xbe42f2a0	-0.19037867
204	0x3dd384c2	0.10328056
205	0x3e0457db	0.12924139
206	0x3e3377ee	0.17526218
207	0x3ed34d6d	0.4127001
208	0xbeaa2c6e	-0.33237022
209	0x3e8bab2d	0.27279034
210	0xbc2eeb7c	-0.010676261
211	0xbe8aef0e	-0.2713551
212	0xbd9f7846	-0.07786612
213	0x3e455b07	0.19273005
214	0xbe422a75	-0.18961509
215	0xbd7a134e	-0.061053567
216	0x3e34ada9	0.17644371
217	0x3dcfd083	0.10147192
218	0x3c719922	0.014745982
219	0xbe014156	-0.1262258
220	0x3dd67202	0.10470964
221	0x3db3b68f	0.08775055
222	0x3e8bdf1c	0.27318656
223	0x3e6402fd	0.22266765
224	0xbdeef124	-0.11667088
225	0x3e1e2127	0.15442334
226	0x3c84d105	0.01621295
227	0x3dc627a6	0.09675531
228	0xbbead121	-0.0071660434
229	0xbe285c9d	-0.16441579
230	0xbebf0a37	-0.3731248
231	0x3daa36ed	0.083112575
232	0xbcf78be9	-0.030218082
233	0x3cb8f119	0.022575902
234	0x3d39dfaf	0.045379337
235	0xbe518120	-0.20459414
236	0x3e695cb4	0.2278927
237	0xbe4a7d3f	-0.1977434
238	0x3e254600	0.16139984
239	0x3e438b48	0.190961
240	0xbe8bd0bc	-0.2730769
241	0x3e4a6a0d	0.19767018
242	0xbe97eeac	-0.2967428
243	0xbd8cc0c7	-0.06872707
244	0x3d4e8099	0.05041561
245	0x3db1f6df	0.08689665
246	0xbee2b58f	-0.44279143
247	0xbe24ee7c	-0.161066
248	0xbdabb128	-0.08383399
249	0x3e9114dc	0.28336227
250	0x3c243b47	0.010023898
251	0xbe3ea845	-0.18618877
252	0x3df38a84	0.11891654
253	0xbdbabfa8	-0.09118587
254	0x3e0de00a	0.13854995
255	0x3ed4b6e1	0.41545776

net.2.bias f4 [16]
0	0x3dec344e	0.11533414
1	0x3ea277f5	0.31732145
2	0x3e75bd09	0.23997892
3	0x3e503d8e	0.20335981
4	0x3e98bee1	0.2983313
5	0xbe3f84e2	-0.18703035
6	0xbe1996d3	-0.14998941
7	0x3d67e838	0.056617945
8	0x3e9d38be	0.30707353
9	0x3e6d603c	0.23181242
10	0xbe48b1a3	-0.19599013
11	0x3e863772	0.26214176
12	0xbeddd65e	-0.43327612
13	0xbf0b8e50	-0.54514027
14	0x3d9e12e1	0.077184446
15	0xbec61e6c	-0.38695085

net.4.weight f4 [1, 16]
0	0x3e628530	0.2212112
1	0x3f0a5f5f	0.54051775
2	0x3e25d935	0.16196139
3	0x3f0724f4	0.5279076
4	0x3f0f372c	0.5594356
5	0xbe69dd83	-0.22838406
6	0x3c2906f2	0.010316597
7	0x3edc0292	0.4297071
8	0x3f3261de	0.69680583
9	0x3f2334fc	0.6375272
10	0xbea16c4e	-0.31527942
11	0x3f060b68	0.52361155
12	0xbe8d7b65	-0.27633205
13	0xbe6ec164	-0.2331596
14	0x3cda5e71	0.026656361
15	0xbec24e6b	-0.37950453
