onnx_models/control_policy.onnx (onnx, 669310 bytes, 8 tensors)

net.0.weight f4 [256, 135]
000000 81 e2 81 bd 7f 78 d1 bc 4d ae 8c 3d 8b 52 1e 3c
       -0.0634203 -0.025570152 0.06869183 0.009663234
000010 25 24 71 3d 4f f6 09 3d 1a 01 29 3d 9f 4f c7 bb
       0.05887236 0.033682164 0.041260816 -0.0060824896
000020 93 bb 3f bd b3 d3 a7 bc ca 30 0e bd 87 7e 35 bd
       -0.046809744 -0.020486688 -0.034714498 -0.04431012
000030 fb 02 b5 3d 26 a7 99 3c 7e f8 6d bd a8 9e a6 3d
       0.08838459 0.01875646 -0.05809831 0.0813573
000040 a6 b2 e1 3c 7c f9 3c 3d 2d db b9 3c 2d c2 7b 3d
       0.027551007 0.046136364 0.022687519 0.061464477
000050 a7 fe 22 bc d0 5d ec bc ce cb 35 3d 48 1d 87 3d
       -0.009948409 -0.028853327 0.044383816 0.06597382
000060 b1 f5 fb bc c2 69 72 ba a3 e3 75 3d 2b 50 27 bd
       -0.030756803 -0.00092473265 0.060031544 -0.04084794
000070 0d 9b 58 3d 57 41 4b 3c 34 f8 66 3d c7 90 3f bd
       0.052882243 0.012405715 0.05638905 -0.04676893
000080 09 28 45 bd 65 c8 1d 3d e2 a4 a1 bc 4f 0d 45 3d
       -0.048133884 0.03852119 -0.019731943 0.048108395
000090 f3 29 76 bc 13 c5 d2 3c e6 76 a6 3d 27 33 b4 bc
       -0.01502465 0.025728738 0.08128147 -0.021997048
0000a0 7d 7d eb bb dd 7b 5d 3d cf 65 ad bc 26 40 40 bd
       -0.00718659 0.054073203 -0.02116671 -0.046936177
0000b0 c6 fc 8d bd d3 bc ae bb f5 ea 7e bc 6d 3d d1 3b
       -0.06932978 -0.005332568 -0.015558948 0.0063854964
0000c0 61 04 55 ba e8 b1 5c bd ab f2 64 bd 3e 1e 3c 3d
       -0.00081259577 -0.053880602 -0.05589549 0.04592728
0000d0 4d 73 ac bd ca f7 4f 3d af 53 47 3d 69 fb fd bc
       -0.084204294 0.05077342 0.04866379 -0.03100367
0000e0 d2 b1 f0 3c 63 01 2e bd e6 90 a2 3d e4 ee a0 3d
       0.029381666 -0.04248179 0.079377934 0.07858065
0000f0 50 cb e6 bb b3 ae 43 bd 8c 7c b5 3d ba 43 3f bd
       -0.0070432797 -0.047774028 0.08861646 -0.04669545
000100 92 66 7c bb 0f 9e c1 3c 02 b6 fc 3b 26 45 82 bd
       -0.0038513285 0.023634939 0.0077121267 -0.06360845
000110 dd 9a ae 3d 1b d8 52 bd 1f a5 4e bd cc 1f a1 bc
       0.085256316 -0.051475625 -0.05045044 -0.019668482
000120 01 99 0b bd 85 26 82 bd 9e 22 f9 3c 57 78 a4 3d
       -0.034081463 -0.06355003 0.030412015 0.080307655
000130 88 12 7c bd 43 d1 60 3d 11 6b a8 3d d3 8e ed bc
       -0.06154111 0.054887068 0.08223546 -0.028998768
000140 7d 3a b0 3d 39 88 0c 3d 62 46 36 bd 48 17 87 bb
       0.08604906 0.0343096 -0.044500716 -0.0041226484
000150 1f 11 90 3c 27 5d 8a 3d e1 80 91 3c 2e 67 91 3d
       0.017586289 0.06756049 0.01776165 0.07099758
000160 18 91 cd 3c 69 bb f1 bc 9c 58 66 ba 4e 64 44 bd
       0.0250936 -0.02950831 -0.00087870075 -0.04794722
000170 8f da af 3d e5 48 fa bb b6 74 92 bd af 5f 82 bd
       0.085866086 -0.0076380842 -0.07151167 -0.063659064
000180 c8 80 1c bc 26 26 31 3d c5 a8 86 3d f3 99 15 bd
       -0.009552188 0.04324927 0.06575159 -0.03652377
000190 1c e9 fa 3a 2c f1 09 3d 0d f3 b4 3d 63 ff 45 3d
       0.0019142958 0.033677265 0.08835421 0.04833926
0001a0 73 e4 00 bd e2 0a 03 3c 1a b7 1c 3d 89 1a 78 3d
       -0.031467866 0.0079982 0.038260557 0.06057218
0001b0 20 f8 56 bd ec 16 23 bd 41 c0 9e 3b a2 fb 9e 3d
       -0.052482724 -0.039816782 0.004844696 0.07762839
0001c0 56 63 1a 3d 5c 47 b4 3d b8 ec e5 3d 17 60 fe 3c
       0.03769239 0.08802673 0.11226791 0.031051679
0001d0 39 5b 09 bd 4d f2 83 3d 42 04 96 3c 31 3d 87 3d
       -0.033534262 0.064426996 0.018312577 0.06603468
0001e0 19 b0 b3 3d f0 77 2b 3d 5b 21 f6 3c 28 83 15 bc
       0.08773822 0.04186243 0.030045202 -0.009125508
0001f0 bd bf 9c 3d 39 b6 a7 3d 18 36 a1 3d a5 54 e7 bc
       0.07653759 0.08189053 0.07871646 -0.028238604
000200 ad 68 40 bb 4d 21 6e bd b4 a0 0c 3d a0 aa b2 3b
       -0.0029359267 -0.058137227 0.034332946 0.005452469
000210 20 96 58 bc b6 46 54 3d ce e2 5e bd 56 97 33 bd
       -0.013219386 0.051825248 -0.054415517 -0.043845497
000220 d4 1f fb 3d 8e 2e ed 3d f3 f7 2c 3d 49 4f 39 bc
       0.1226193 0.11581145 0.04222865 -0.011310407
000230 d2 ca 1f bd 3a 18 e4 3d d7 3b 91 3d 2f bc 4c 3d
       -0.039011784 0.11137433 0.07091492 0.049984153
000240 01 01 94 3d 67 dd ed bc d7 57 be 3d 89 7e a0 3d
       0.07226754 -0.029036237 0.09294098 0.07836635
000250 8f 55 88 bd 02 21 56 bd 39 78 e5 3b f1 63 59 bd
       -0.06656944 -0.052277572 0.007002857 -0.053073827
000260 7c 70 98 bd 93 12 25 3d b0 49 30 3d 27 7e 61 3d
       -0.0744333 0.040300917 0.043039024 0.05505195
000270 2d 1b f3 3c 50 c0 27 bd eb 2e 06 bd 05 62 8c bd
       0.029676044 -0.040954888 -0.03275959 -0.06854633
000280 c3 77 76 3d 03 ca 90 3c 91 79 bd bd 46 92 c5 3c
       0.060172807 0.017674452 -0.092517026 0.0241176
000290 51 54 8f bd 4f 9f 6c 3d 75 c0 a9 3d 94 ef 97 bd
       -0.06998504 0.057769116 0.082886614 -0.07418743
0002a0 41 4c 70 3c 27 b4 ed bc 7d 5f 8d 3d b0 13 75 3d
       0.014666618 -0.029016567 0.069029786 0.05983323
0002b0 05 03 5e 3d 36 b7 85 bd 20 4d 85 3d 21 fd 75 bd
       0.0542021 -0.06529085 0.06508851 -0.060055856
0002c0 b1 9f 95 bd ab 0a a8 bb 20 40 4c bd 01 f2 d2 3c
       -0.07305849 -0.005128225 -0.049865842 0.025750162
0002d0 a0 94 68 bd a8 9f 54 bd 64 f2 84 bd 93 8a 68 3b
       -0.056782365 -0.051910073 -0.06491545 0.0035482987
0002e0 fe 2a 9e bd a6 79 bc 3c 2e ab 12 3d bf 30 57 bd
       -0.07723044 0.023007225 0.03580778 -0.052536722
0002f0 93 83 4f bd 12 73 af 3d d3 36 be 3d 1c 67 82 3d
       -0.05066259 0.0856687 0.09287801 0.06367323
000300 46 a6 e6 3c 42 7a 12 3d 09 da 96 3c e2 f2 b0 3b
       0.028155457 0.035761125 0.018414514 0.0054000476
000310 57 48 83 3d 8c 6e a7 3c 93 9f b3 bb ce 29 68 bd
       0.06410282 0.020438455 -0.005481669 -0.056680493
000320 82 fc 84 bd 0e c6 86 bd d3 f3 66 bc 6a 7a 08 bb
       -0.064934745 -0.06580745 -0.014096218 -0.0020824918
000330 45 4d e6 3c db a5 fe bc ee 62 b1 3d 22 aa 09 bd
       0.028113017 -0.031084945 0.086614475 -0.033609517
000340 83 bb 12 bd 2a 99 a5 3d 8b 1b 19 3d 47 10 39 3d
       -0.035823356 0.08085854 0.037379783 0.04518154
000350 a3 69 98 bd 62 f8 30 bd d6 8b 39 3d 40 50 db 3c
       -0.074420236 -0.043205626 0.045299374 0.026771665
000360 d1 d3 0d bd fe d2 4b bd 3d 9e 9b bd 36 a9 31 bd
       -0.034625832 -0.049761765 -0.07598541 -0.043374263
000370 75 2f 1f 3d 78 64 81 3d 2d 92 96 3d ca 54 55 3d
       0.038863618 0.06317991 0.073520996 0.052082814
000380 c5 be 45 bd 47 7b b9 3d 03 87 41 3d 82 af 6c bd
       -0.048277635 0.090567164 0.047247898 -0.057784565
000390 20 f9 b5 bc 05 e2 d8 3b 0c a9 fd bc f2 cc 37 bd
       -0.022213519 0.0066187405 -0.030964397 -0.044873185
0003a0 d9 87 b7 3d 73 3b e4 3c 24 f2 82 3c 10 bb b4 bc
       0.08961458 0.027860379 0.015984602 -0.022061855
0003b0 4b 24 80 bd 19 40 5d bd 1d 52 07 bd 56 07 8a bd
       -0.06256922 -0.054016206 -0.033037294 -0.067396805
0003c0 73 73 fd 3c 0e fa f1 3d 62 e0 17 bd 3a 95 c6 3c
       0.03093884 0.11815272 -0.037079223 0.024241079
0003d0 34 4d b3 3d e5 25 8e 3d 34 d7 ca bc 8b 3d ca bc
       0.0875496 0.069408216 -0.02476082 -0.02468755
0003e0 0c 8b e1 bc 53 87 a7 3d ac 56 73 3c ab 56 71 3d
       -0.027532123 0.08180108 0.014852207 0.058920544
0003f0 57 5e 58 3c 0e 55 54 3c 87 b3 cb 3c fa 30 0b 3c
       0.013206086 0.012959732 0.024865879 0.008495564

net.0.bias f4 [256]
000000 d4 5e ba 3d 1a 88 7d 3c eb cc 19 bd 36 bb 01 bc
       0.09100118 0.015474344 -0.03754894 -0.00791817
000010 3d e7 17 3d 71 f4 6b bd dd f9 69 3d 92 72 64 3d
       0.03708576 -0.057606164 0.057123054 0.055773325
000020 1f 73 86 bd 4c e4 5f 3d 39 95 83 bd 12 02 ae bc
       -0.06564926 0.05466108 -0.06424946 -0.021241222
000030 7b cf f2 3c fd 36 e8 bb cc 9d 8e 3d c9 5b 03 bd
       0.02963995 -0.0070866332 0.06963691 -0.032069955
000040 69 17 84 3c 8a d0 93 3d 6d 55 86 3b 96 9b 7c ba
       0.016124444 0.0721751 0.004099539 -0.0009636221
000050 e3 8e 5e 3c 26 4d 88 3c b5 4b a5 3b 51 eb 14 bc
       0.013583872 0.01663835 0.0050444254 -0.009089307
000060 a4 5c 34 3d 24 ba 97 3d 70 0e 2e bd 79 8b 2b bd
       0.04403366 0.074085504 -0.042494237 -0.04188106
000070 cc 3e 25 3d 5a e8 9b bd 78 e1 0a bd ab 95 e6 bb
       0.04034309 -0.07612677 -0.03390643 -0.007036885
000080 45 1f 17 bd 64 df 87 bb 99 d3 8f bb e6 98 37 bc
       -0.036895055 -0.0041465033 -0.004389238 -0.011205887
000090 07 0f 7d 3d 53 50 9c bb 37 83 29 3d 30 cd 0a 3d
       0.06178191 -0.0047703176 0.0413849 0.03388709
0000a0 db b5 ca 3c 82 ca 17 3c 78 db ae bc a0 17 a2 3d
       0.024744919 0.00926459 -0.021344885 0.07914662
0000b0 28 29 4c 3c 2a dc 02 3c 7c ad 01 bd 53 17 2b bc
       0.012460984 0.0079870615 -0.03165959 -0.010442573
0000c0 8a e3 d2 bc f1 78 8b 3d 6f 85 23 3c d9 b1 90 3d
       -0.025743265 0.06810177 0.0099805435 0.07065172
0000d0 04 d3 cd bc 7c 19 16 3c f8 e3 27 3d b5 50 62 bd
       -0.025125034 0.009161349 0.040988892 -0.05525275
0000e0 26 8c b0 3d ff 57 72 bd 65 aa a6 bd 9b ce 5f 3d
       0.08620481 -0.05916595 -0.08137969 0.054640394
0000f0 f6 f4 ba 3c a8 4a 46 bc 50 bd 47 3c 45 85 79 3d
       0.022821885 -0.01210276 0.012191132 0.06091811
000100 df 8d 3f bc f6 c5 8c 3b 15 a9 6f bc db 0b 99 bd
       -0.01169154 0.0042960597 -0.014627715 -0.074729644
000110 3e be 73 bb 7a bf b2 3d 9a c1 b7 bd fc 18 07 bc
       -0.003719225 0.087279275 -0.089724734 -0.008245703
000120 a5 f3 8e 3d a7 67 26 bd 54 1b 38 bd f2 0d 96 3d
       0.06980065 -0.040626194 -0.044947937 0.073268786
000130 65 9a c0 3d 83 10 61 bd a4 29 40 bd d2 80 75 bd
       0.094044484 -0.054947387 -0.04691471 -0.059937306
000140 11 b0 63 3c b9 98 d8 bc a8 91 a7 bd e2 74 91 bd
       0.013896958 -0.026440011 -0.081820786 -0.07102372
000150 84 c5 8e 3c f1 9f 58 3d ce 2a dd bc d3 36 60 3d
       0.017428167 0.052886907 -0.02699795 0.054739784
000160 e9 84 2e bd 2d 1d 18 bd 4b bc 53 3d 7a bb 1d 3c
       -0.04260722 -0.0371372 0.051693242 0.009627217
000170 f2 91 9b bd 7a a6 49 bd b3 a7 8b 3d 0d 6d 54 bd
       -0.07596196 -0.04923103 0.068190955 -0.05186181
000180 0d d6 96 bd 49 62 bb bd 10 19 0c 3d 10 e0 f0 3c
       -0.07365046 -0.09149606 0.03420359 0.029403716
000190 62 03 4b 3d 08 98 0d 3d cd 03 b1 3d 07 4e 03 bd
       0.049563773 0.034568816 0.08643303 -0.032056835
0001a0 98 e0 9c 3c 98 d0 81 bd a4 69 a3 bd c1 9f 32 bd
       0.019150063 -0.06338614 -0.07979134 -0.043609384
0001b0 71 ce 71 3b 7d 38 85 3d 39 64 83 3c 20 0c 22 bb
       0.003689673 0.06504915 0.016039 -0.0024726465
0001c0 fd 80 8f bc 6c f9 a1 bd 95 af a0 bd 72 18 25 3d
       -0.017517561 -0.079089016 -0.078459896 0.040306516
0001d0 83 d4 68 bd 65 11 42 3d 80 c7 62 3d 88 b6 ac 3d
       -0.056843292 0.04737987 0.05536604 0.084332526
0001e0 ca b2 8a 3d 8d dc 39 bd cc 9c 03 3d 25 89 bb bd
       0.067723826 -0.04537635 0.032131955 -0.091570176
0001f0 6d 0b f5 bc d0 48 69 3d bc a1 6c bd 74 27 71 bd
       -0.029912675 0.056954205 -0.05777143 -0.058875516
000200 ba c3 23 bd eb 5b b6 3c ec 4f 86 3d 14 ed 3b 3d
       -0.03998158 0.022260627 0.06558213 0.045880392
000210 e1 4f c9 bc f5 db 27 bd 1b ef f5 3c 3a 7a 88 3c
       -0.024574222 -0.04098125 0.030021241 0.016659845
000220 7f 7a 57 bd d7 ba 32 bd 08 4b a5 3d 74 f8 10 3d
       -0.052607056 -0.043635216 0.08070952 0.035393193
000230 a2 04 21 bd 57 96 2c bd 16 b7 33 3d bc 41 b3 bd
       -0.03931106 -0.042135563 0.043875776 -0.08752772
000240 e1 f8 9d 3d 95 8f ad bc 50 4b a7 3d 33 32 42 3d
       0.077134855 -0.02118663 0.081686616 0.047411155
000250 5c 3b 48 3d 65 10 b4 3d c9 de 44 bd 60 a3 80 3d
       0.048884735 0.087921895 -0.048064027 0.06281161
000260 eb de c4 3c c3 f3 7b 3d fc fe 0b 3d 04 8d 3b 3d
       0.024032077 0.061511766 0.03417872 0.04578878
000270 27 b2 c2 3d 7d e1 8d bd 02 f6 2d 3c 48 ac 09 bd
       0.09506636 -0.06927774 0.010617735 -0.033611566
000280 b3 f5 dc bb 90 23 82 bd e1 e8 67 3d 3b 6d 4e bd
       -0.006743157 -0.06354439 0.056618575 -0.05039714
000290 d3 5c 40 3c 72 d2 41 bd 60 ba 48 bd 06 56 0b bd
       0.011740881 -0.047319837 -0.049005866 -0.034017585
0002a0 63 06 45 bd f3 6b 90 bd 85 42 23 bd 8d 61 a2 3d
       -0.048101794 -0.0705184 -0.03985836 0.079287626
0002b0 7b 75 57 3d 8b 74 9c bc ca dd 87 bd ff b3 91 3b
       0.052602272 -0.01909854 -0.066341 0.004446506
0002c0 c7 42 a9 bd 89 51 72 bd 8c 11 7a 3d c2 4b 15 bd
       -0.0826469 -0.05915979 0.06105189 -0.0364492
0002d0 d8 ea 4a bd c5 ef 64 bd ca 1b f9 bc a8 64 2c bd
       -0.04954037 -0.055892725 -0.030408759 -0.04208818
0002e0 7d 03 37 3d bb 57 6b bd 7a e0 b1 3d e9 6f 2e 3d
       0.04468106 -0.057456713 0.08685394 0.042587195
0002f0 22 54 88 3d 94 b2 07 3d 66 0e 16 3d f1 db 86 bd
       0.06656672 0.03312929 0.036634825 -0.06584919
000300 2b 2c 1f bd a6 df 79 bc c9 90 6e 3d 59 7f 51 bd
       -0.03886048 -0.015251076 0.058243547 -0.05114684
000310 73 38 e0 bc f0 fd 78 3d 73 75 86 3d e0 68 47 39
       -0.027370667 0.06078905 0.065653704 0.00019017188
000320 a1 08 56 3d 2f 1b c1 3d e7 4f ce bb d9 9d 27 bd
       0.052254323 0.09429013 -0.006296146 -0.04092202
000330 93 3b 7d bd dc 9c 7f bd 8e 23 8a 3d 59 24 31 3d
       -0.061824393 -0.062405452 0.06745063 0.043247554
000340 d9 36 70 3d 81 8c c2 3c 8e 82 c4 bc a7 0d bb bc
       0.058646057 0.023748638 -0.023988035 -0.022833658
000350 34 8f 93 3a 57 6d 6b 3d a8 36 f7 3c 40 58 71 bd
       0.0011257888 0.05747732 0.03017743 -0.058922052
000360 08 e4 4a 3d 59 8d d3 3c e6 7a fd 3c 16 d7 51 3d
       0.049533874 0.025824236 0.030942392 0.051230513
000370 8c b1 6e bc ff 65 85 bd d5 2e c0 3c 8f 2c 5d bd
       -0.014568698 -0.06513595 0.023459831 -0.053997573
000380 91 6d 41 3d aa d3 86 bd 42 c6 3f bd f1 a9 75 bd
       0.04722363 -0.065833405 -0.046819933 -0.059976522
000390 73 54 95 bd 4e 76 c6 3c c9 17 de 3c d4 dc 22 bd
       -0.07291498 0.024226334 0.027110951 -0.03976138
0003a0 6d ea 4b 3d c8 24 61 bd 52 7b 90 bc 78 79 8f bc
       0.049784113 -0.054966718 -0.017636929 -0.017513976
0003b0 b6 0d 7b 3c d9 14 10 3d cb a3 7e bd c2 76 68 bd
       0.015323093 0.035176132 -0.062167924 -0.05675388
0003c0 16 1c 30 3d 4e 7b fa 3c 1d 54 d7 bc 85 e6 0e 3d
       0.042995535 0.030576374 -0.026285226 0.03488781
0003d0 17 a0 76 bd 5d ee 70 3c 25 65 2e bd bd 23 31 bc
       -0.060211267 0.014705268 -0.042576928 -0.010811743
0003e0 1a 51 9f bd 9b 5c 5f 3d 23 da 5b bd f9 6d 80 3d
       -0.07779141 0.054531675 -0.05367483 0.062709756
0003f0 83 f4 8c 3b e7 de b1 3c e3 30 ac 3c f6 f4 cb bb
       0.004301609 0.021712733 0.021019405 -0.00622427

net.2.weight f4 [256, 256]
000000 8f f5 5b bd 98 1b c6 3c 72 25 78 bd f0 49 3f bd
       -0.05370098 0.02418308 -0.060582586 -0.04670137
000010 02 ad 83 bc 47 29 03 3d 2e 20 5f 3d 0d f7 b3 bb
       -0.016073707 0.032021787 0.05447405 -0.005492097
000020 77 42 43 bc a6 6e 5e bd fc 6a bf 3c 32 a5 88 3c
       -0.011917702 -0.05430474 0.023366444 0.016680334
000030 e2 09 8c bd 41 c6 e7 3a 42 ef d6 bb ef 02 98 bc
       -0.068378225 0.0017682986 -0.0065592835 -0.018556086
000040 df 60 33 bd 1d 1a 5b bd 8f b6 0c 3d 07 60 65 bd
       -0.043793555 -0.0534917 0.03435379 -0.055999782
000050 25 c9 a4 3c 9f 9d 9b 3c 8d 22 42 bd 70 bd 63 bd
       0.020115444 0.018996058 -0.04739623 -0.055600584
000060 e7 18 35 3c 10 aa 29 3b 76 b7 d0 3c 3f 9b 1d 3c
       0.0110533 0.0025888719 0.025478106 0.009619533
000070 4d ee 05 3d 20 ed 7d 3b 57 02 fa 3b b4 ea 07 bd
       0.032697964 0.0038746074 0.0076296735 -0.033182815
000080 4a db 4b bd 33 7c a7 bc 56 1d c6 3c 1f c0 ea 3c
       -0.049769677 -0.020444965 0.02418391 0.028656064
000090 b6 24 a9 3c e4 1d 6d bc aa ae 8a 3c c5 cc 4d ba
       0.020647388 -0.0144724585 0.01692899 -0.00078506424
0000a0 86 c2 33 bd 09 6c 91 3c ec e3 14 bd 0a 29 23 3d
       -0.043886684 0.01775171 -0.036350176 0.03983406
0000b0 0d c0 47 bd 8e 28 43 bc 0c cb a5 3c bf 17 f7 ba
       -0.04876714 -0.011911524 0.020238422 -0.0018851681
0000c0 75 e8 32 3d 92 85 91 3c b6 ed 86 bd 23 a6 97 3c
       0.04367872 0.017763887 -0.065883085 0.018511837
0000d0 46 58 84 bd 01 ed a0 3a 22 4e 13 3d 35 85 67 3d
       -0.06462149 0.0012277664 0.035963185 0.05652352
0000e0 82 2d 3c 3d 32 ec 02 bd b2 40 39 bd 0b 67 6d bd
       0.045941837 -0.031963535 -0.045227714 -0.057959598
0000f0 ec 0c 34 3d c6 bf 1e bd b9 09 03 3d 71 3f 5f 3b
       0.043957636 -0.03875711 0.031991694 0.0034064914
000100 4e dd 06 3d 48 d6 40 bd ee fb 6f 3d 8f ec 78 3d
       0.032925896 -0.047079355 0.05858987 0.060772475
000110 88 95 72 bd 1e 5a 5f 3d b8 be 18 bd 3e 2b f5 3c
       -0.059224635 0.0545293 -0.03729126 0.029927846
000120 a1 ad f5 3b e1 34 a4 bc cb 93 36 3d fe 7c 27 3d
       0.007497505 -0.020044746 0.04457454 0.040890686
000130 71 82 9e bc b3 ab 4c bd af 3d 7a bd ee 06 83 bd
       -0.019349309 -0.049968433 -0.061093982 -0.06397806
000140 0f d2 d9 3c 50 bd 20 3b bb 6a 80 3c 12 7c b7 bc
       0.026589422 0.0024526902 0.015675893 -0.022398029
000150 71 ea 16 bd 74 5d 75 bd 09 78 c6 bc 1e b5 27 bd
       -0.036844674 -0.059903577 -0.02422716 -0.04094421
000160 e7 c2 4e 3b f6 0f 2d 3d a6 44 73 bd ac 14 59 3d
       0.0031549276 0.04225155 -0.05939164 0.05299823
000170 d4 d8 6d 3c 38 dd af bb 72 e5 74 bd 1d 40 1e 3c
       0.014517028 -0.0053669475 -0.05978913 0.0096588405
000180 e1 f5 80 bb 25 cb ef 3c 28 bb 21 3d d3 5f 53 3d
       -0.003935561 0.029271672 0.039485127 0.051605057
000190 6b e3 a4 3b 3e b5 81 bc 85 89 3c 3d 85 9a 49 3c
       0.005031993 -0.015833493 0.046029586 0.012304907
0001a0 95 0f 36 bd 5f 43 a3 3c d3 34 c5 3c 95 71 60 bd
       -0.044448454 0.019929586 0.02407304 -0.05479582
0001b0 e5 53 45 3d c1 d9 84 bc 24 5c 6a 3c fa 9c 9b 3b
       0.04817571 -0.016217114 0.014304195 0.0047489377
0001c0 65 da 0b 3d 86 75 9a 3c 45 0a 1b bd 46 5f 43 3d
       0.034143824 0.018854868 -0.03785159 0.04769828
0001d0 b4 06 01 bc c7 ac 66 3d cf 96 c0 bc 09 a7 03 bd
       -0.007875133 0.056317117 -0.023509411 -0.03214172
0001e0 ac bb 56 bd 28 87 2a bd 31 df bb bc 47 11 9a bc
       -0.05242507 -0.0416328 -0.022933574 -0.018807067
0001f0 b7 34 85 bc 44 eb 23 bd 30 b7 a2 3c a6 f4 a0 3c
       -0.016260488 -0.04001929 0.019862741 0.019647907
000200 a8 12 c4 bc ef 36 80 3c b5 f3 7b 3d 58 41 8a 3d
       -0.023934677 0.015651194 0.061511714 0.067507446
000210 8c e9 66 3d dd 6c bd bc e7 84 34 bd 33 93 cf bc
       0.05637507 -0.0231232 -0.044072058 -0.025338745
000220 ec e4 15 bd 79 34 78 bc 71 d6 cd 3c 6f 39 50 bd
       -0.03659527 -0.015149229 0.025126668 -0.050836023
000230 2d e5 1c 3d 63 65 30 3c 09 e4 46 bd 72 df 36 bd
       0.038304497 0.01076636 -0.048557315 -0.044646688
000240 cb aa 13 bd 92 f5 89 bd 17 60 60 3d 91 07 16 bc
       -0.036051553 -0.06736292 0.05477914 -0.009157077
000250 d6 14 3a bd 6a a2 bc 3c 5b bb 34 bd 15 03 63 3d
       -0.045430027 0.023026664 -0.04412399 0.05542286
000260 3a 50 31 3d 8d 6f 90 bd 6c c9 0c bc 88 e7 81 3d
       0.0432894 -0.070525266 -0.008592945 0.06342989
000270 17 40 79 3d 17 0c 27 3d 51 96 06 bb 4d 58 23 3c
       0.060852136 0.040783014 -0.0020536373 0.009969783
000280 fa 6a 35 3d 77 5e da 3c d5 5d b3 3c 7a 38 39 3d
       0.044291474 0.026656372 0.021895329 0.045219876
000290 f9 77 60 bc 10 d8 20 3d be 0c 14 bd fb db 6f 3d
       -0.013700479 0.039268553 -0.036144964 0.0585594
0002a0 50 7d 7c bd e4 7f 93 39 79 c9 78 3c 4d 33 99 3c
       -0.061642945 0.0002813331 0.015184754 0.01870122
0002b0 a6 6d 79 bb 9c 6a 1a bd 2e 2f 52 3d 82 55 91 3c
       -0.003805974 -0.037699327 0.051314525 0.017740969
0002c0 54 7b 47 bd 86 24 48 bb 04 7c 86 3d 94 eb cf 3c
       -0.0487016 -0.0030539348 0.06566623 0.025380887
0002d0 df d8 79 3c 41 86 88 3d 32 4f 3e bd 1b 29 5e 3b
       0.01524946 0.06666232 -0.046462245 0.0033899012
0002e0 eb 7b 63 3d e3 f1 58 3d b4 b9 ac bc d3 5a 2d bd
       0.0555381 0.052965056 -0.021084644 -0.042322945
0002f0 dc 0c 59 bb 47 1f e0 3b f6 f2 de 3b 04 46 d6 bc
       -0.0033119237 0.006839666 0.0068038655 -0.026156433
000300 d9 e6 a7 3b 9a 76 bd bc 7c 80 25 3d cc 3c 43 3d
       0.0051239547 -0.023127843 0.040405735 0.047665402
000310 b4 de 3c bd 52 fa 0d 3d f6 77 09 bd 2c b1 c0 3c
       -0.046110824 0.034662552 -0.03356167 0.023521982
000320 36 35 c8 bc d2 c4 1e 3d 0c 53 17 3c 70 c4 ec 3c
       -0.024439435 0.03876192 0.0092361085 0.028902262
000330 e1 b7 13 bd 02 fb 26 bd 68 03 7e 3d 22 e9 3f bd
       -0.036064032 -0.040766723 0.062014967 -0.046853192
000340 7b 39 b9 3c 29 cd 79 3d 89 11 51 bd 8f ec cf 3c
       0.022610417 0.06098667 -0.051042113 0.025381355
000350 fc d3 7a 3c a1 78 8d bc 1b 3d 07 bd e3 71 31 bc
       0.01530933 -0.017269434 -0.03301726 -0.010830375
000360 73 d8 b6 3b d4 79 34 bc 84 88 e8 3b de 31 2d 3c
       0.005580002 -0.011015374 0.007096352 0.010570971
000370 5f 42 5c bd a2 3a 9a 3c 49 46 4c bc e0 c2 c1 bc
       -0.053774234 0.018826786 -0.012467929 -0.023652494
000380 78 fe b0 3b 55 bd 3d 3d 69 43 87 bd 15 83 41 3d
       0.005401429 0.04632314 -0.06604654 0.04724415
000390 84 a6 e7 3c 1d 15 24 3d e7 f3 8d bc 91 b6 06 bd
       0.028277643 0.040059198 -0.017328216 -0.032888953
0003a0 55 77 69 bd 9b 7c 7a 3d cf 5d fc bc 26 b9 ba 3c
       -0.05699857 0.06115399 -0.03080645 0.022793364
0003b0 ad ae 7d 3d e7 6d 25 3c ca 3a b7 bc 9f f3 9a 3c
       0.061934162 0.010097004 -0.0223669 0.018914996
0003c0 cf d7 3f 3b ef b5 1e bb 33 a8 51 3d 58 8e 23 bd
       0.002927292 -0.0024217328 0.051185798 -0.03993067
0003d0 ff 80 88 3c 60 61 81 bd 53 4d b8 bc 3e 68 6f bd
       0.016663073 -0.06317401 -0.022497809 -0.058449022
0003e0 24 d4 de bc 36 ca ab bc 63 3e 17 3c b2 c4 f1 bc
       -0.027200766 -0.020970445 0.009231183 -0.029512737
0003f0 1a d7 4b bd fe 44 4c bc b3 59 47 3d 0c 88 63 bc
       -0.049765684 -0.012467621 0.04866953 -0.013887417

net.2.bias f4 [256]
000000 8b 32 49 3d 91 5b 5b bd 31 af 2f 3d 54 63 e0 3c
       0.049120467 -0.05355412 0.042891685 0.027391113
000010 dd 5b af 3c 05 ad a5 3c ed b5 ff bc 3b 70 e6 3c
       0.021406109 0.020224104 -0.031214679 0.028129688
000020 c9 c0 ba bc e1 b4 04 3d 91 7f 72 3d 26 08 38 bd
       -0.022797005 0.032399062 0.059203688 -0.044929646
000030 5a be 51 3c 0f fd 9a bc 38 f5 6d 3d f4 a2 08 bd
       0.012801731 -0.018919496 0.058095187 -0.03335853
000040 9f 6b cc bc 57 78 30 bd e3 23 1c bd 23 24 7e 39
       -0.024953661 -0.043083515 -0.03812016 0.0002423679
000050 5a e1 0c bd 68 3c 67 bb 36 2c 5d bc d5 8e 82 3d
       -0.0343946 -0.0035283808 -0.01349931 0.06374899
000060 26 38 df bc 5a 5a 25 3d 83 02 08 bd 83 9e 86 bd
       -0.027248453 0.04036937 -0.03320552 -0.065732025
000070 94 06 3a 3d 9d dd c8 3c 37 4e 36 3d c6 f9 db bc
       0.04541643 0.024519736 0.044508185 -0.0268525
000080 79 32 47 3d f6 67 6b bc 4f e8 e0 3c b0 98 6c bd
       0.04863212 -0.014368048 0.027454523 -0.0577628
000090 79 10 74 bd 0d ce 19 bd ce 7f 4a 3c 82 13 6f bd
       -0.059586022 -0.03755002 0.012359573 -0.058368213
0000a0 2e b3 98 3c de d7 18 bd 86 d4 9f bd 07 f0 e6 bc
       0.018640127 -0.037315242 -0.078042075 -0.028190626
0000b0 53 39 2f bd f0 3b cb bb d8 e3 93 bb b4 28 15 3d
       -0.042779278 -0.0062022135 -0.004513245 0.03641577
0000c0 12 e9 7e bc 8d 85 a4 3c 22 f8 53 bc 34 ab 3a 3d
       -0.015558498 0.020083213 -0.012937577 0.04557343
0000d0 76 51 6c bb ce cb 22 bd 4d 8a 86 bd f9 42 2f 3d
       -0.0036059297 -0.039745145 -0.065693475 0.04278848
0000e0 e8 4a 06 bd 89 ec 30 bd ac 90 03 3c 4a 05 62 bc
       -0.03278628 -0.043194328 0.008030098 -0.013795206
0000f0 a6 bd 41 3c 47 66 1d 3d e1 00 79 bc fc a6 dd 3c
       0.011825001 0.038427617 -0.015197963 0.027057163
000100 47 3a d6 bc 17 20 f7 3c 5d 70 38 3d 3f 6e de 3b
       -0.026150836 0.030166669 0.045029033 0.0067880447
000110 46 39 94 3c 30 87 7b 3d be a4 19 3d 5f fe 74 3c
       0.018093716 0.06140822 0.037510626 0.014953225
000120 b2 71 21 bd e4 16 73 bc 16 43 b3 bc fa 6a d7 3c
       -0.03941507 -0.0148370005 -0.021882575 0.026296128
000130 29 50 77 3d 54 f4 55 bd 8a 26 28 3c a7 cf 59 3d
       0.06037918 -0.052234963 0.010263095 0.05317655
000140 da 88 25 bd 85 d4 7d bc 8a b5 f4 bc b7 1f b6 bc
       -0.040413715 -0.015492563 -0.02987172 -0.02223192
000150 83 56 39 3d 18 ea fe 3b 22 5b 67 3c 7b 4d 20 bc
       0.04524852 0.007779371 0.014120849 -0.009784098
000160 f0 18 eb bc b1 42 d1 bb cd 11 0a 3d b4 a6 26 bd
       -0.028698415 -0.006386124 0.033708382 -0.040686324
000170 bf fc 8c bb 8d 4f 25 bd 1b 05 8e 3c 1e 2f 70 bd
       -0.0043025906 -0.04035907 0.017336419 -0.058638684
000180 1b 99 25 3d df 63 86 3c 07 4c 0b bd 6b 29 79 3b
       0.040429216 0.016405044 -0.034008052 0.0038019072
000190 58 ab 47 3d fd 69 12 bd e6 00 0d 3d 79 d7 24 bd
       0.04874739 -0.03574561 0.034424685 -0.040244553
0001a0 e3 84 39 3b 8d 83 4d 3c 78 83 98 38 1f 54 5b bc
       0.0028307966 0.012543571 7.272413e-05 -0.013386755
0001b0 94 62 81 bc 43 1f 2e bc 6e af 46 3d 53 07 ac bc
       -0.015794076 -0.010627571 0.048507147 -0.020999586
0001c0 88 27 23 bd 6b 3d 3d 3d 8a e7 55 3d 86 62 2b 3b
       -0.03983262 0.04620115 0.052222766 0.0026151254
0001d0 44 34 7c bd c6 8b 00 bc 9f 63 f4 3c e9 eb 3d 3d
       -0.061573282 -0.007845825 0.02983266 0.04636756
0001e0 e6 14 95 bc b4 83 11 3d f8 5c 18 bd d4 83 bc bc
       -0.018198442 0.035525993 -0.037198037 -0.02301208
0001f0 70 73 50 3b c9 f6 84 3d 1c 74 8e bd ec e8 56 bc
       0.0031807087 0.06492383 -0.0695574 -0.013117056
000200 af ac f7 3c ef fc 10 3d 27 4a 1a 3d 5a f9 8e 3d
       0.03023371 0.035397466 0.037668373 0.06981154
000210 be 13 9f bc ae f1 79 bd d6 dd 87 ba b2 b6 c1 bc
       -0.019418593 -0.0610215 -0.0010365795 -0.023646686
000220 21 40 c8 bb 83 f7 42 bc a0 fb 9a 3c ae a5 3a bc
       -0.0061111604 -0.011899832 0.018918812 -0.01139204
000230 d2 f4 f0 bc 89 d8 56 3d 35 b8 83 bd 41 93 81 bc
       -0.029413614 0.052452598 -0.06431619 -0.015817286
000240 f3 18 69 bd cc 26 fe 3b 13 3f 30 3d 8c 72 0d 3d
       -0.05690856 0.00775609 0.043028902 0.03453307
000250 a6 43 86 bd a4 a0 47 bb c4 f0 83 ba ea 48 17 bd
       -0.06555872 -0.003046074 -0.0010066261 -0.03693477
000260 49 a4 6a bd e1 36 8f bc a8 a8 c7 3b 58 d6 00 3d
       -0.05728558 -0.017482223 0.0060931034 0.031454414
000270 85 e2 d0 bb c1 e7 bd bb 6f de b9 bc 61 85 a7 bc
       -0.0063746595 -0.0057954495 -0.022689072 -0.020449342
000280 2e d8 c1 bc f5 d5 0b bd cd 22 61 bc d2 d0 30 bd
       -0.023662653 -0.034139592 -0.013741207 -0.043167897
000290 96 14 3e bd 46 ba db 3c 84 91 31 bd c9 48 bf 3b
       -0.04640635 0.02682222 -0.043351665 0.005837534
0002a0 45 a4 3c bd da e9 1e bd e2 f4 cd 3c 7f 10 4a 3d
       -0.046055097 -0.038797237 0.025141183 0.04933214
0002b0 db ca af bc 26 a0 82 3c 01 d0 b5 bc 3d 92 3c 3d
       -0.021459034 0.015945505 -0.02219391 0.0460379
0002c0 99 13 76 bd 64 ef 30 3d 91 57 00 bd 67 83 42 3d
       -0.060077284 0.04319705 -0.03133351 0.047488596
0002d0 fc 9c ce bc e9 2c d6 3a 34 37 56 bd 31 54 7f bd
       -0.02522134 0.0016340289 -0.05229874 -0.06233615
0002e0 3d 3e 0a 3d f1 22 48 bd a5 c0 6b 3c c6 4b f5 3c
       0.03375076 -0.048861448 0.014389192 0.029943358
0002f0 67 42 b1 bb db d0 72 3d 80 70 58 bd 00 09 84 bd
       -0.005409527 0.05928121 -0.052841663 -0.06447029
000300 c6 e8 53 bc 61 e3 40 bd 31 8d a4 bb c7 8d e1 3b
       -0.0129339155 -0.047091845 -0.005021714 0.0068833563
000310 22 76 d6 3c 72 06 ab bc 93 5b df 3b 80 62 27 bd
       0.026179377 -0.020877097 0.0068163364 -0.04086542
000320 24 f6 f1 bc be 07 5f 3d dc ca 3d bd 1e 04 ff bc
       -0.029536314 0.054450743 -0.04633604 -0.031129893
000330 41 b6 6b bc e1 da b5 3b cb 0a 4d 3d 78 d0 00 3d
       -0.014386714 0.005549774 0.05005912 0.03144881
000340 12 dd 52 3d ea a6 41 bd 53 54 77 3d 28 a0 51 3c
       0.05148036 -0.047278322 0.060383152 0.012794532
000350 ef 32 b9 bc 60 1e 9e 3c c0 52 5f 3d 27 f6 23 3d
       -0.022607295 0.019301593 0.054522276 0.04002967
000360 9b f8 40 bb 8a 19 67 3d 44 5f 44 bb 70 9d 8e bc
       -0.0029445055 0.05642084 -0.002996401 -0.017409056
000370 1b b7 55 bd 76 ac 68 bd c5 c2 93 3b a2 03 50 3d
       -0.052176576 -0.056805097 0.0045093023 0.050784715
000380 55 b0 0f 3c 94 26 95 bc f8 0c 00 3d 37 2e 3e 3d
       0.008770068 -0.018206872 0.031262368 0.046430793
000390 1f 7c 20 3d ea 96 43 3d 06 f2 f4 bc d0 0b 5b 3d
       0.03918087 0.047751345 -0.029900562 0.053478062
0003a0 9b b5 52 bd dc 10 0a bd 07 09 4e bc 55 39 7e 3d
       -0.051442724 -0.033707485 -0.0125753945 0.062066395
0003b0 4e 30 04 3d 7b 76 9a 3b 0e 82 78 3d 0d 53 80 3d
       0.03227263 0.004713831 0.060670905 0.06265841
0003c0 32 90 23 bc 8d a7 d0 3b 9d af b2 3d 0a d5 c0 ba
       -0.009983109 0.00636763 0.08724902 -0.0014711928
0003d0 93 58 59 bd 06 7f 19 3d 32 fb 64 3d 74 aa 37 3c
       -0.053062987 0.037474655 0.05590362 0.011210073
0003e0 2b e0 07 bd 6e 27 18 bd 65 d2 ef 3c 7e 8e 4b bd
       -0.033172768 -0.037146978 0.029275129 -0.049696438
0003f0 9b 7e 8d bc e1 69 e1 3c 7a eb c8 3c 01 f6 0d bc
       -0.017272284 0.027516307 0.024526346 -0.008664609

net.4.weight f4 [256, 256]
000000 1c 39 2b 3d 07 cc 30 3d 57 db bc bc fe ae 76 3b
       0.04180251 0.043163326 -0.023053808 0.0037640925
000010 ca 3d 8a 3b bc 47 7d 3d e5 9c aa bc 2e 4d 51 bd
       0.0042187916 0.06183599 -0.020826766 -0.051098995
000020 77 51 0c 3d 8f 6a 4f bd 3a 8b a5 3b 54 5e 39 3d
       0.03425738 -0.05063873 0.0050519975 0.045255974
000030 77 9d 89 3d 74 50 1e bd 08 a9 9b 3c 9b 9d 0f bd
       0.06719487 -0.038650945 0.019001499 -0.035062414
000040 7d 7f 3e bd ef c1 0e bd cc fa 6e 3d e6 03 e9 bc
       -0.0465083 -0.03485292 0.058344647 -0.028444242
000050 cf 22 46 bd ce b4 87 3b 44 ba 5d 3d e4 a7 7c 3d
       -0.04837304 0.0041414266 0.054132715 0.06168355
000060 67 13 09 3d cf c9 58 bc 81 e0 83 3b 03 30 fb 3c
       0.03346577 -0.013231709 0.0040245657 0.030662542
000070 db 49 b9 bc 4f 41 c7 bc 8c 68 ba bc 1e 7a 5b 3d
       -0.022618225 -0.024323134 -0.02275493 0.053583257
000080 9c 17 bb 3c 23 18 9f bc 83 cd c0 bc e1 b8 41 3c
       0.022838406 -0.019420689 -0.023535496 0.011823864
000090 a1 7b 34 3d 38 2d 25 bc f0 45 f8 bc 71 52 35 bc
       0.044063214 -0.010081582 -0.030306786 -0.011067019
0000a0 8d 7a 37 bc 41 67 65 3d 5b 04 d8 3b 3f 02 3a 3d
       -0.011198652 0.056006674 0.006592316 0.0454123
0000b0 8b 52 9b 3c 82 eb 56 3d c6 dc 31 3d 85 32 d0 3b
       0.018960258 0.05247069 0.043423437 0.0063536786
0000c0 e6 5a d3 3d b6 17 93 bc eb c8 5d 3d f3 83 9a bb
       0.10320072 -0.017955642 0.05414669 -0.0047154366
0000d0 89 20 07 3d e3 a9 b5 3c c0 16 6b 3c f7 1c e6 bc
       0.032990012 0.022175735 0.014348686 -0.028089983
0000e0 91 60 42 3c c5 f6 20 3d 55 14 1b 3d d9 cb 5f bd
       0.011863844 0.039297838 0.037861187 -0.054637764
0000f0 66 cf 1d 3c 42 dd af 3c 74 34 bf bc 7a 5d 0d bc
       0.009631967 0.021467809 -0.023340441 -0.008628244
000100 7e 7c c2 bc 06 24 df 3c 39 f1 17 3d 75 11 b9 3c
       -0.023741003 0.027238857 0.037095282 0.022591332
000110 41 8c 17 bd bc b3 49 bd 6f 35 6b 3d 4b db 75 bd
       -0.03699899 -0.049243674 0.057424005 -0.060023587
000120 ee 9d 1d 3d 0b ac 3e 3d a7 8a 30 bb db 9f 15 3d
       0.03848069 0.04655079 -0.0026938112 0.036529403
000130 9a 58 c9 3c a0 02 39 bd 3e 76 dc 3c 70 68 d9 bc
       0.024578381 -0.04516852 0.026911851 -0.026539057
000140 43 63 8b bc 14 b3 c6 bc 2d 9a 02 3c 0f 31 d0 3c
       -0.017015105 -0.024255313 0.007971329 0.025414018
000150 bc 7a 2b bd c9 4d 73 bc 37 fd 24 bd ee a3 93 bc
       -0.041865095 -0.014850088 -0.040280547 -0.018022504
000160 96 69 46 3d 6a b3 00 3d 37 bf 78 bd 57 a7 7e 3d
       0.04844054 0.031421103 -0.06072923 0.062171306
000170 c6 9a 26 bc 2f 0f 14 3d 74 cf 49 3d 4f bd e6 bc
       -0.010168737 0.036147293 0.04927011 -0.028166441
000180 1f f6 37 bd 43 15 6c 3d fd 23 33 bd a1 1c 1d 3d
       -0.044912454 0.057637464 -0.043735493 0.03835738
000190 5d f5 16 bb f8 17 66 bd 48 dc f9 3c ae 14 42 bd
       -0.0023034432 -0.056175202 0.030500546 -0.047383003
0001a0 2c 00 05 bd 62 10 6c bd c7 3a 27 3d 85 f0 e3 bc
       -0.032470867 -0.05763281 0.04082754 -0.02782465
0001b0 0f 01 1c 3c ec 87 81 3b 72 06 7b bd 80 07 be bc
       0.009521737 0.0039529707 -0.061285444 -0.023196936
0001c0 2c 65 2b bc f2 05 03 bd df 27 3c 3d d5 68 20 3c
       -0.010461133 -0.03198809 0.04593646 0.009790619
0001d0 f2 3b 93 bc ce ac ac bd 5a 67 49 bd ec 22 fc 3b
       -0.01797292 -0.084313974 -0.04917083 0.0076945927
0001e0 ae f7 31 bd eb 8c 80 bd 58 92 29 3d 97 1e 5b bc
       -0.043449096 -0.06276878 0.04139933 -0.013373992
0001f0 0a ae 71 3d b4 85 0d 3d 72 b7 d6 3c a5 0f a7 bc
       0.059003867 0.034551337 0.02621052 -0.020393202
000200 79 93 0a 3d db 19 95 bc 73 c9 a2 3b f7 2a 6a bd
       0.033832047 -0.018200805 0.0049678623 -0.05716988
000210 8c b4 6a 3d a4 34 98 bb ef 80 6a bc 48 4e 11 bc
       0.05730109 -0.004644947 -0.014312967 -0.008868761
000220 62 ca c5 bc e7 8e 50 bc 60 a5 63 bd 47 2c 40 bd
       -0.024144355 -0.012729383 -0.055577636 -0.046917226
000230 5e 8b 31 3c ae 64 4d bd 6e f8 b8 bb 05 0f e4 bc
       0.01083645 -0.050144844 -0.0056448495 -0.027839193
000240 0b 85 0b bd 81 a6 df 3c 0d e5 5c 3d 57 7c b4 bc
       -0.034062427 0.027301075 0.053929377 -0.022031946
000250 f0 a6 14 bd b7 07 b2 3b 3d 29 5a bc ac cc 51 3d
       -0.036292017 0.0054330486 -0.013315496 0.05122058
000260 cb a7 5c bd 9a 18 66 3d 99 e3 54 bd ad 34 7c 3d
       -0.053870957 0.056175806 -0.051974867 0.061573673
000270 e1 c0 16 3d 0c 46 6a 3d 8e ab 4c bc 49 9d b5 3c
       0.036805037 0.05719571 -0.012492074 0.022169726
000280 46 41 3e bd 7a b1 00 3d 22 82 ef 3c 80 f4 ef 3c
       -0.04644897 0.031419255 0.029236857 0.029291391
000290 bb 58 8d bc ba 6a 08 bd ae 56 73 bc 08 fd 4a 3d
       -0.017254224 -0.033304907 -0.014852209 0.049557716
0002a0 37 b7 d7 bc 4b 7e 34 bd 2f 06 8e 3d 8f 67 4b bd
       -0.02633248 -0.044065755 0.06934773 -0.049659308
0002b0 8a 4f 21 3d 12 f0 40 3d fe 44 61 3c d5 99 ab bc
       0.039382495 0.04710395 0.013749359 -0.020947376
0002c0 c6 ee 99 39 23 ec 72 bc 38 1a 76 bc 11 0a 70 bd
       0.00029360334 -0.014826807 -0.0150208995 -0.05860335
0002d0 6f ed 4e 3d 6d fa 40 3d 0a 40 33 bd 36 33 8d 3d
       0.050519403 0.047113825 -0.043762244 0.06894533
0002e0 38 9b 4c bd 0b 85 53 3c 21 04 a3 bc c7 84 07 bc
       -0.049952716 0.012910138 -0.01989943 -0.008271403
0002f0 a6 06 52 bd fd 95 1f bd 11 f5 32 bd ab 26 28 bb
       -0.05127587 -0.0389614 -0.043690745 -0.0025657814
000300 3a ee fe bc aa dd 0e bd 8a 96 f4 b9 96 c7 10 bc
       -0.031119455 -0.034879364 -0.00046651467 -0.0088366475
000310 7d fe 2a bd 5f 01 a1 bd a0 82 8a bc a2 56 81 bb
       -0.041746605 -0.0786159 -0.01690799 -0.003947095
000320 1e 4f 2b bd 2b a3 87 bc 01 80 43 ba 0d 9e 48 3d
       -0.0418235 -0.016557297 -0.0007457734 0.048978854
000330 3b 14 52 bd f0 09 c9 bc 40 2a 81 bd 4a f8 34 3d
       -0.051288825 -0.024540871 -0.06306887 0.0441821
000340 bf f7 73 3c 09 b1 03 3d 82 25 0b bc 9a 5d 15 bd
       0.01489061 0.032151256 -0.008492829 -0.03646622
000350 2a 24 92 bd a7 b5 47 3d 66 05 ad 3c bc 4c e2 bc
       -0.07135804 0.04875722 0.021120738 -0.02762448
000360 e7 c0 09 3d 90 1e 33 bd 2d 2c 14 bd 0c ee 39 bd
       0.03363123 -0.04373032 -0.03617494 -0.045393035
000370 e2 b7 9b 3c d4 9a 71 3d b9 eb 44 3d cf 39 04 3d
       0.01900858 0.058985546 0.048076365 0.032281693
000380 2a 9a 2c 3d 18 d4 3d bc 02 89 af 3b df e8 e2 3b
       0.04213921 -0.011586212 0.005356909 0.006924733
000390 5c 23 8c bc 71 3b 3c 3d e3 1d 03 bd 80 44 41 bd
       -0.017106704 0.045955125 -0.032010924 -0.047184467
0003a0 2c 45 80 3d 12 b0 06 bd 68 72 f2 3c 93 05 81 bb
       0.062631935 -0.032882757 0.029595569 -0.003937432
0003b0 b4 5b c9 bb 46 2e 53 bd b6 2d f9 bc 67 ab 3e 3d
       -0.006144965 -0.0515578 -0.030417304 0.04655018
0003c0 3f a6 70 bd 3c 69 56 3d 3d d6 cc bc b8 2f 1d 3d
       -0.058752295 0.052346453 -0.0250045 0.038375586
0003d0 6d 31 1d 3d 8e 96 27 bd 32 c5 7e 3d a4 df 07 bd
       0.038377214 -0.040915065 0.06219978 -0.033172265
0003e0 12 69 d0 bc c6 b2 18 bd fb 4a 0a 3d c0 7f 25 bc
       -0.025440726 -0.037279867 0.033762913 -0.010101259
0003f0 91 c3 6e bd 20 42 85 3c b2 bf 88 bd e9 7b 17 3d
       -0.058291975 0.016266882 -0.06677188 0.036983404

net.4.bias f4 [256]
000000 20 aa 5b 3c 27 be 3f bd 0a 2d c3 3c 78 64 13 bd
       0.01340726 -0.046812203 0.023825187 -0.035984486
000010 68 8c 3e bd 80 d6 f9 3b e8 85 b3 3c ed b8 e3 ba
       -0.04652062 0.0076244473 0.021914437 -0.0017373838
000020 fc 0d d4 bc 51 bd 46 bd 26 56 55 bd 7a 19 a6 bd
       -0.025885575 -0.04852039 -0.05208411 -0.08110328
000030 ec c8 94 3c 84 9f 1b bc 99 5b a0 bc e1 65 91 3d
       0.018162213 -0.009498481 -0.019574927 0.0709951
000040 c6 35 66 3d 55 72 e2 bc 92 f6 2a 3d 28 9a b1 bc
       0.056203626 -0.027642408 0.041739054 -0.021679953
000050 fa 18 2a 3d 46 32 ca bc a9 29 61 bd cc ae e5 bc
       0.041527726 -0.024682175 -0.05497137 -0.028037451
000060 ea a6 a0 3c b4 d7 c4 bb 87 11 1f bd 47 e1 a5 bc
       0.01961084 -0.006007159 -0.038835075 -0.020249022
000070 da 39 b8 3c 16 03 3b bc cc ec 2a bb 82 8d 24 bd
       0.022488523 -0.01141431 -0.0026081083 -0.040174015
000080 53 f5 02 bb 34 ac 66 bd 5c 66 36 3d 2b 3c ea 3c
       -0.001998265 -0.05631657 0.04453121 0.028593143
000090 a3 d8 08 3d be 9d 84 3c 43 51 7d 3d 21 00 14 bd
       0.033409726 0.016188499 0.061845075 -0.036132935
0000a0 06 cf 5f 3c b9 40 d0 bb da 08 3c 3c 29 b1 57 3d
       0.013660198 -0.006355372 0.01147672 0.052659187
0000b0 48 9b 20 3d 5d e2 31 bd 55 bb 73 3d 16 09 66 3d
       0.039210588 -0.043428767 0.059504826 0.05616101
0000c0 ff ec 98 3c 15 4c 1b 3b 3c 9c b0 3c 80 a6 65 3c
       0.018667696 0.0023696471 0.021558873 0.0140167475
0000d0 5e 30 94 3b bc 51 32 3d d8 f6 cf bc 73 2d 23 3d
       0.0045223674 0.04353498 -0.025386259 0.039838266
0000e0 6e c7 1e bd 7d 4d 6c 3d 81 cc 40 bd 57 cb 29 3d
       -0.03876441 0.057691086 -0.04707003 0.041453686
0000f0 e1 46 63 3d ef 40 b9 bc 3f 13 5b bd 30 0b 32 3d
       0.055487517 -0.02261397 -0.05348515 0.0434677
000100 43 f5 46 bd 29 c9 87 bc 0f 37 aa 3d 4d 04 64 3d
       -0.048573744 -0.016575413 0.08311283 0.055668164
000110 c2 bb 50 3c de b8 7c 3d f4 41 e3 3c 0f 9b 42 3d
       0.012740077 0.06169974 0.02774141 0.047511157
000120 c2 51 07 3d c5 c2 01 3d 57 1b 2e ba 43 40 f4 bc
       0.033036955 0.031679887 -0.0006641647 -0.029815799
000130 1e 3a 90 bc 2b 68 a8 3b b9 29 de 3c 61 c9 a5 bc
       -0.017605837 0.005139371 0.027119504 -0.020237627
000140 f3 da 38 bd de f3 fe 3c 13 af 55 bd ab c6 4f bd
       -0.04513068 0.031122144 -0.052168917 -0.050726574
000150 28 12 1f bd b3 8f 22 3e d6 a0 52 3d 0e 0a cc 3c
       -0.038835675 0.1587513 0.051422916 0.024907138
000160 72 5e 4b 3b 19 40 6b 3d e2 e0 91 3c ad 1b fa 3c
       0.0031031636 0.057434175 0.017807428 0.030530775
000170 39 a4 55 bd 93 9d 26 bd 42 76 11 3d 99 ac 9b bc
       -0.052158568 -0.04067762 0.03551317 -0.0190032
000180 1b 98 57 bd 8d 82 09 bc a8 4f 76 3d b9 81 7d 3d
       -0.052635293 -0.008392942 0.06013456 0.06189129
000190 d5 bd 6d bd 07 3c 25 bd 94 85 ff bb 11 79 49 3d
       -0.058042366 -0.04034045 -0.007797906 0.049187724
0001a0 31 b7 59 3d ef d7 e6 bc d1 b2 21 3d 81 f0 68 3c
       0.05315322 -0.028179137 0.039477173 0.014217497
0001b0 41 3e 10 bd 56 a0 42 3c 4c ea 38 bd 44 dd af bc
       -0.03521562 0.011879047 -0.045145318 -0.021467812
0001c0 59 4c b7 3c a0 5c 44 bd 42 ff 13 bd 38 06 37 bd
       0.022375273 -0.047939897 -0.036132105 -0.044683665
0001d0 9c de 6d 3c 0c 9b be 3c 66 c7 b2 bc dc dd f7 3b
       0.014518406 0.023267291 -0.021823596 0.0075642895
0001e0 ef 95 da 3c 9b 5a 1e 3d 10 4d f0 3b 2e 55 1a bd
       0.026682822 0.038660627 0.0073334053 -0.03767889
0001f0 3a 8c a4 bc c8 27 ca 3c d5 a9 3f bd 4f 88 52 bd
       -0.020086396 0.024677172 -0.046792824 -0.051399525
000200 6e 5a 97 3c 43 31 1d 3d ed 31 6b 3d e7 c1 5b 3b
       0.018475737 0.038377058 0.05742066 0.0033532323
000210 c6 cc 3b bd 48 39 63 3d d8 d0 03 3d 03 f0 80 bd
       -0.045849584 0.05547455 0.03218159 -0.062957786
000220 2a 25 b1 3b 7a ba 1d bc 38 9a e3 3c 37 dc 97 3b
       0.0054060416 -0.009626979 0.027783498 0.004634406
000230 86 ae 21 3c 53 24 66 bc a5 60 9e bc 9f ee cf bc
       0.00986827 -0.014046746 -0.019333193 -0.025382338
000240 ce 3c 7c 3d 9e ef a4 3a e0 57 95 3d 4b d3 ef bc
       0.061581425 0.0012583619 0.072921515 -0.029275557
000250 45 59 87 3d 27 04 22 3d 1d 0a 45 3b 0c 4f 92 bc
       0.06608824 0.03955474 0.0030065842 -0.017859958
000260 b1 20 d8 bc b7 58 dc bc 72 db 04 3c 52 b4 bb 3b
       -0.026382776 -0.026897771 0.00810896 0.005728283
000270 44 fa 31 bd 69 2e ac 38 dd 02 6b bd 06 eb 4f 3d
       -0.043451563 8.210244e-05 -0.057375778 0.050761245
000280 b4 d1 83 3d b9 d0 7e 3d e4 4c 03 3d 29 9f 0b bd
       0.06436482 0.062210772 0.03205575 -0.034087334
000290 a1 a5 1d 3d da c1 ca bb c8 2d 9b ba 0a b2 dd 3c
       0.038488034 -0.0061876597 -0.0011839205 0.027062435
0002a0 53 1f 0e bd 37 0e c7 3c eb 3a 8f 3d f4 80 81 bd
       -0.03469784 0.02429877 0.069936596 -0.06323424
0002b0 aa 5b 79 3d 07 ce 4b bd df 51 2e bd f6 87 69 3b
       0.060878433 -0.04975703 -0.042558547 0.0035634018
0002c0 1e c0 07 3d 82 0f 64 bd 93 7e e9 bc 65 ce 38 3c
       0.0331422 -0.055678852 -0.028502738 0.011279677
0002d0 33 db 4d bd f1 c2 35 bc 0b 96 b2 3d ea 02 3d 3d
       -0.050257873 -0.011093841 0.08720025 0.046145357
0002e0 43 80 7f 3b 1f cd 86 bc db 12 51 3d 44 0b f2 bb
       0.0038986362 -0.016455231 0.051043373 -0.007386597
0002f0 6a e6 03 3b 1a 40 ed 3c c7 e9 33 bd 0b 07 81 bc
       0.002012635 0.02896123 -0.04392412 -0.015750429
000300 f7 09 15 bd 00 05 2c 3d 17 81 4b 3d 88 e5 09 bd
       -0.036386456 0.041996956 0.049683657 -0.033666164
000310 66 23 78 3d 41 aa 55 3d 93 ed 04 3d db 28 27 bd
       0.060580634 0.05216432 0.03245313 -0.040810447
000320 db f6 c3 bc 3f 02 5e bd 82 48 2d 3d 23 f2 19 3c
       -0.02392142 -0.05420136 0.042305477 0.009396109
000330 f0 a2 bc 3b 39 e7 81 3d d1 66 0e 3d 17 96 17 3b
       0.0057567284 0.0634293 0.034766022 0.0023130232
000340 10 24 13 bc a4 3f 97 bd 52 84 ea 3c 2c 01 f9 3c
       -0.008980766 -0.07385185 0.028627548 0.030396067
000350 99 05 54 3d 87 7f 39 3d de 23 ea bb 08 eb 73 bd
       0.05176315 0.045287635 -0.007145389 -0.059550315
000360 90 eb 44 3c fe 3c dd 3b dc 98 15 bd a1 2b 00 3d
       0.012019053 0.0067516556 -0.03652273 0.031291608
000370 2e af 26 3d e2 86 a3 39 a5 35 33 bd 8f 01 ea bc
       0.040694408 0.00031190278 -0.04375233 -0.028565196
000380 ae fd 51 3d f1 f6 2a 3c 6b a4 36 bd 39 9d 8e bc
       0.05126732 0.010434852 -0.044590395 -0.017408954
000390 55 e4 49 3d ab 5d 66 3d bb 5e dc 3c 75 a5 97 3d
       0.04929002 0.056241672 0.02690064 0.07404605
0003a0 a5 f9 e2 3c 3c 2f 8f bc 16 75 63 bc 35 11 e8 bb
       0.02770693 -0.017478578 -0.013882896 -0.0070821294
0003b0 53 53 f3 3c 28 1d 45 bd bf 57 bc bc 69 ea 80 bd
       0.029702818 -0.04812351 -0.02299106 -0.0629471
0003c0 ba af 97 bc 3a 96 0f 3d 70 c5 11 3c 54 e5 66 3d
       -0.01851641 0.035055377 0.00889717 0.056371048
0003d0 91 ce 10 bd 32 a0 88 bd 21 49 98 bc 3b ae a8 bb
       -0.035353247 -0.0667118 -0.018589558 -0.005147723
0003e0 51 8c d8 bc f4 6f 73 bd a1 64 b3 bc 97 55 f3 bc
       -0.026434096 -0.05943294 -0.02189857 -0.029703898
0003f0 b5 76 38 bd 4f e9 27 3d 18 4b da bb 3c 24 41 bc
       -0.045035083 0.040993985 -0.006661784 -0.011788424

net.6.weight f4 [2, 256]
000000 3a c9 0d 3d 75 8c 2b bb 41 77 1b 3d 57 38 84 bd
       0.034615733 -0.0026176248 0.037955526 -0.064560585
000010 8b d3 ca bc a8 61 ff 3c 53 19 ee bb fe 32 21 3d
       -0.024759075 0.031174496 -0.0072662025 0.03935527
000020 6c f9 77 3c 90 7d 71 3d fe fd 26 bd 23 c4 3a 3c
       0.01513515 0.058957636 -0.04076957 0.011399302
000030 1d 9c 2c bb f2 54 1c bd 0a cc ee b9 6a 32 58 bd
       -0.0026338168 -0.038166948 -0.00045546918 -0.052782454
000040 6e cb bb b9 26 f9 d3 bd 8c 62 61 bd fa be 33 bb
       -0.00035818986 -0.10350256 -0.055025622 -0.0027427063
000050 15 58 da 3c 82 8d da 3d a2 d9 5e bd 2a 9f 63 3c
       0.026653329 0.10671522 -0.05440677 0.013892928
000060 97 41 49 bd 1c 90 33 bd eb 39 c4 bc 33 e5 cc 3c
       -0.049134817 -0.043838605 -0.023953399 0.025011634
000070 49 9d 8c bb d4 b1 98 bd 6a 9d 75 3d 49 01 74 3c
       -0.004291211 -0.07455793 0.059964575 0.0148928845
000080 4b 33 54 3d 5b 08 74 bd c8 20 7f 3d aa f0 3f 3d
       0.05180673 -0.05957828 0.062287122 0.046860375
000090 a3 d2 19 bc 58 25 8e bc 38 e5 7d bd ea ea 58 bd
       -0.009388599 -0.017351791 -0.06198618 -0.052958407
0000a0 54 3f 3a 3d 88 17 69 bc 63 61 8b 3c c5 eb ac bd
       0.04547055 -0.014226802 0.017014211 -0.08443407
0000b0 6c 2a e2 3c d0 a8 5b bd 68 3e 5e bc 53 da 84 bd
       0.027608119 -0.05362779 -0.0135646835 -0.064869545
0000c0 46 2e 90 3d 84 22 87 bb b3 74 2e bd 7c fe 33 3c
       0.07040076 -0.0041239876 -0.04259176 0.010985967
0000d0 da f1 1d bd 46 6d 29 bb de 5d 32 3d c9 11 25 bd
       -0.038560726 -0.0025852486 0.04354655 -0.040300164
0000e0 cb a5 28 bd de 5d 4a 3d 3e 21 71 3d 23 e9 1b 3b
       -0.041173737 0.049405925 0.058869593 0.0023790083
0000f0 ce e8 2b 3d 21 9e 60 3d 7d 43 c4 3c d3 18 52 3d
       0.041970067 0.054838303 0.023957962 0.051293205
000100 21 54 2f 3d 02 dc 55 3d ab 7d 66 3c 7e a1 1f bd
       0.04280484 0.05221177 0.0140680475 -0.03897237
000110 5e 97 e8 bc 21 e3 a6 3d 42 3f 7f bc d3 82 89 bd
       -0.02839249 0.0814879 -0.015579047 -0.06714406
000120 f7 da 36 bd 7f d3 72 3a 7c 0d 05 3d 3d 28 f2 3c
       -0.044642415 0.0009263083 0.032483563 0.029560203
000130 8c c5 69 bc 63 c0 7a bd 33 03 54 bd e3 d4 b4 bd
       -0.01426829 -0.06121863 -0.051760864 -0.088296674
000140 69 ca c7 3b df 13 16 bd 02 cd 8f 3d 03 0c 5f 3d
       0.006097127 -0.036640044 0.07021524 0.054454815
000150 a9 18 1c ba 4b dd 4c bb 53 85 c5 3d 53 1d cf bc
       -0.00059546024 -0.003125983 0.0964457 -0.025282538
000160 a6 57 a0 3c 9a 83 9a 3d 6f ef 95 3d af d0 50 3d
       0.019573044 0.07544632 0.07321059 0.050980266
000170 fb df 68 bd 27 0a 6f 3d 8d b5 20 3d 36 ec 27 bd
       -0.05685423 0.05835929 0.03923564 -0.040996753
000180 1c 37 44 3d e8 c3 2a 3d fd a8 ff 3c 4d 45 27 bd
       0.04790412 0.041690737 0.03120851 -0.040837575
000190 36 2b 2d bd 62 af 1b 3d 04 94 43 3b 0d 4d 79 3c
       -0.042277537 0.038009055 0.0029842863 0.015216124
0001a0 61 6f 6b 3c 35 db 3f bd 8b 4d f7 3d 4d 83 98 bc
       0.0143698165 -0.04683991 0.12075337 -0.018617297
0001b0 d1 0d 10 3d 39 e3 21 3d ba 13 0a 3e a7 cd af bc
       0.035169426 0.039523337 0.13484088 -0.021460367
0001c0 ad de 6f bd 89 9b db bc 31 c7 ef bd 6b 72 b6 bd
       -0.05856197 -0.026807563 -0.117079146 -0.08908542
0001d0 0f 3f 8d bd 0c ef 49 3c 29 f9 c4 3d cc 04 4a 3d
       -0.06896793 0.01232506 0.09617836 0.04932098
0001e0 3d 2c 08 bd 5b c1 83 bd 70 d6 c5 3c d5 c1 5d 3d
       -0.033245314 -0.06433364 0.024150103 0.05413993
0001f0 d6 fc e8 bc f7 ed 97 bd 02 b5 d6 bb 98 e9 e5 3c
       -0.028440874 -0.07418435 -0.0065523395 0.028065488
000200 b9 e1 bb bc 36 43 1f 3c b7 5f 89 bc 70 71 c7 3c
       -0.022934781 0.009720614 -0.016769273 0.024346083
000210 93 43 5f bd c3 08 41 bd 31 70 be bc 18 5b 5e 3d
       -0.054507803 -0.047127496 -0.023246856 0.054286093
000220 a8 88 63 3a 83 b4 11 bd b8 a2 2f 3d 73 48 f5 bc
       0.0008679726 -0.03557254 0.04287979 -0.029941773
000230 e5 91 2b 3d c0 8f 5e bd fe c4 04 3d 47 5e 30 bd
       0.041887183 -0.05433631 0.03241443 -0.04305866
000240 ac 3c b0 bc 28 65 1c 3d 82 3d 18 3c 92 c1 ea 3c
       -0.021513306 0.038182408 0.009292008 0.028656755
000250 a1 ee 64 3d 67 2b c6 bb 38 12 85 bd 6d e7 8a bd
       0.055891637 -0.0060476544 -0.064976156 -0.06782422
000260 47 b0 07 bd cd cf 91 bd 1b 5b 8d bd b7 cb 0d 3d
       -0.033127096 -0.07119713 -0.069021426 0.034618106
000270 6d 93 a2 3c 5e 56 e2 3b 68 7f a9 3b f7 6f dd bc
       0.019845689 0.0069072684 0.0051726587 -0.027030928
000280 0d 11 32 3d c4 23 0b bd a8 52 32 bd 34 17 71 3d
       0.043473292 -0.033969656 -0.04353586 0.05886002
000290 9f f2 df 3b 6d af 53 3d 46 16 98 3d 43 eb 95 3c
       0.0068343426 0.05168097 0.07426123 0.018300658
0002a0 8a 93 34 bc ad fb d2 bc e5 b1 04 bd 76 03 3d 3c
       -0.011021504 -0.025754774 -0.032396216 0.01153647
0002b0 91 9c 75 bd 55 fa 81 3c dd 8d 5a bd ed 60 c6 3c
       -0.059963766 0.015866438 -0.053357948 0.02421614
0002c0 3a d3 76 bd 57 bd b1 bb 1d 20 42 3c 3d 29 19 3d
       -0.060260035 -0.0054241824 0.011848477 0.037392844
0002d0 57 4b ba bd 67 31 d4 bc 97 cf 83 bd 28 3f 12 3d
       -0.09096401 -0.025902463 -0.06436079 0.03570476
0002e0 91 52 84 3d cc 9b c9 3c 99 66 85 bd 12 a7 18 3d
       0.06461061 0.024610423 -0.065137096 0.037268706
0002f0 fe 63 93 bd 36 16 2e 3d 60 9e 15 bc 0e 42 b8 bc
       -0.07196806 0.04250165 -0.009131998 -0.022492435
000300 0f d6 6d 3c 82 7f 2f 3d 4c 9d 06 3d 74 0d 74 bd
       0.014516368 0.04284621 0.032864854 -0.059583142
000310 82 b8 53 3c 27 85 43 3c 8e 2c 46 3d 7f 36 6e bd
       0.012922408 0.011933601 0.048382334 -0.05815744
000320 50 56 11 3d 13 e8 7e bd 75 2b 1b bc 46 a1 87 3d
       0.035482705 -0.062233042 -0.00947081 0.06622557
000330 a8 eb 29 bd da 50 c4 3b 1c a1 49 3d b2 6c 13 bd
       -0.041484505 0.0059910836 0.04922591 -0.03599233
000340 cf 3e 49 bd 57 c4 9c 3c 32 85 97 bd 86 88 a3 3d
       -0.049132165 0.01913659 -0.07398452 0.07985024
000350 62 a4 25 3c e8 9d 42 bd c8 15 9f 3c 7f 98 1a 3c
       0.010109993 -0.047513872 0.019419566 0.009435772
000360 dc b1 0b 3c fa 54 60 3d 88 b9 8c 3d 86 31 4e bd
       0.008526292 0.05476854 0.06871325 -0.050340198
000370 4f dc 95 3c 70 5a fc 3b 01 d7 2a 3d 78 b6 63 3c
       0.018293528 0.0077012107 0.04170895 0.013898484
000380 23 cf 54 ba a7 a0 21 bc d0 fa ed 3b b9 12 4c 3d
       -0.0008118024 -0.009864963 0.007262565 0.049822543
000390 47 89 89 bd 47 1d 8d bd eb ea 3c 3d a4 a6 3e 3c
       -0.06715637 -0.0689035 0.046122473 0.01163641
0003a0 ec 78 98 3d f2 c0 dc bc 6d 90 2b 3d 9e 2d 6e bd
       0.07444939 -0.026947472 0.041885782 -0.058148973
0003b0 a4 d5 ca 3c 11 7a 88 bc 8f 35 ca bc 04 5e ec 3c
       0.024760075 -0.016659768 -0.024683742 0.028853424
0003c0 3f a1 61 bd 28 70 55 bc 3a ee 82 3d 30 1b 82 3d
       -0.055085417 -0.013027228 0.06393094 0.06352842
0003d0 bf 2d 75 bd 7b 5a 18 3d 8e cb 7b 3d ab 5b c6 bc
       -0.05985808 0.037195664 0.06147342 -0.024213633
0003e0 21 73 78 bb 46 3c 49 3c 1f ab 81 3d 5f cc b0 39
       -0.003791042 0.012282437 0.06331467 0.00033721604
0003f0 4e d1 78 bc 3e 1c 03 bd 69 7f 5c 3c f3 1b 8d bd
       -0.015186621 -0.032009356 0.013458111 -0.068900965

net.6.bias f4 [2]
000000 9f 97 61 ba 11 25 bb 3c
       -0.0008605662 0.022844823
