onnx_models/control_policy.onnx (onnx, 623228 bytes, 8 tensors)

net.0.weight f4 [256, 90]
0.09894361 -0.05459484 -0.00815989 -0.08303997 -0.024793345 0.096067026 -0.07521976 0.07256376
0.032162003 0.043686792 -0.09459047 0.097864024 -0.028309634 0.029745825 0.093152545 0.007982612
0.0074317846 0.054811172 0.069585994 -0.031970385 -0.054461077 -0.101702966 0.07207376 -0.05686293
-0.001643575 0.020945763 0.07949586 -0.015405982 -0.018537981 -0.10059165 0.013978205 -0.09694214
-0.009628645 0.091983095 0.09138052 0.0408436 -0.036869675 0.0045565055 -0.005710334 0.02418365
-0.011414395 0.0045685414 0.026627768 -0.0788843 -0.012814691 0.051925637 -0.027449558 -0.029247427
0.07970797 -0.06727423 -0.015691742 0.06939545 -0.054776832 0.03635915 0.09730234 0.03876911
0.0675682 0.10793006 -0.0129275555 -0.04669962 0.0065799025 0.002764573 0.12893924 -0.063104466
0.07636109 0.103061 0.033733685 0.043444395 -0.006154032 0.09876353 -0.054888144 0.0692742
0.06241802 0.024707215 0.0067451526 0.04355933 -0.067264535 0.09675099 -0.05046989 -0.08258697
-0.04847292 0.0296164 0.047595747 0.079453886 -0.0052713994 0.008207051 0.09307506 0.07137373
0.01699666 -0.02683688 -0.034238003 -0.020983962 -0.014388476 -0.07999614 -0.1090474 0.050142728
0.04585229 0.05395115 -0.0093299905 -0.11066196 -0.019302102 -0.048087426 9.573209e-05 0.06083351
-0.10263508 0.017623814 -0.08099645 0.0894418 0.039856978 -0.0044846553 -0.02416974 -0.04308977
0.038874343 0.032938316 -0.040713664 0.011972513 0.080593936 -0.09268421 -0.08436014 -0.060948107
0.0027409072 0.021954985 -0.02139873 -0.084025174 0.09959422 -0.07861045 -0.027851725 0.044831455
-0.079610325 0.061308745 0.054920316 -0.02265432 -0.098257646 0.02754121 0.05804145 -0.027193137
0.076835155 -0.103125304 0.07597696 -0.039783094 0.06578193 0.08488662 0.025174033 -0.0037296866
0.015192715 0.007732313 0.04752304 0.022702727 0.08938183 -0.08769137 -0.031156655 0.015617097
-0.100516915 -0.06224467 0.005509363 -0.015129293 -0.0118905455 0.054874774 -0.0180422 0.10096734
-0.06509657 -0.08139849 0.11128968 -0.01983583 -0.085648 0.013055976 -0.070654064 0.02487495
0.09672528 0.08124027 0.01504681 -0.009995522 -0.055737715 -0.059542563 -0.09459057 -0.032372598
-0.085365534 -0.048847027 -0.024847029 -0.055393092 0.005118975 0.10103218 0.013974732 0.04758591
0.01998079 -0.023411829 -0.047309995 0.019573307 0.099852875 0.09908277 0.12927988 0.2194124
0.17863794 0.13137735 0.09765556 -0.0103748655 -0.01809814 0.063232645 -0.030050093 0.0009499365
0.053624127 -0.027351143 -0.05368808 -0.070662126 0.038115226 0.048792444 -0.09250449 -0.10732856
-0.07254299 -0.119040884 0.04419306 -0.07305732 -0.07966447 0.089441165 -0.09259422 -0.039610445
-0.06858081 0.04799278 -0.10037412 0.048439734 -0.022567911 -0.092687614 0.04304846 0.08557028
0.061316807 -0.017706607 0.066654384 -0.021355432 0.04042133 -0.04893365 -0.01908076 0.020580849
-0.08516558 -0.043233614 -0.0006018021 -0.017672358 0.07977695 -0.03605357 0.03599676 -0.02879483
-0.027931413 0.023060057 -0.032618493 0.11050478 0.121524066 -0.0059925825 0.0064480845 0.13100201
0.069318496 0.18256442 0.052422523 -0.0042932723 0.013197354 -0.02970881 0.049253754 -0.06365764
00000000: f3a2 ca3d d79e 5fbd 0fb1 05bc dc10 aabd
00000010: 6a1b cbbc cabe c43d d10c 9abd 4f9c 943d
00000020: 4ebc 033d ecf0 323d a6b8 c1bd ef6c c83d
00000030: 9be9 e7bc 84ad f33c c3c6 be3d 80c9 023c
00000040: 5486 f33b ae81 603d 1a83 8e3d 61f3 02bd
00000050: 9412 5fbd a549 d0bd 689b 933d 1be9 68bd
00000060: 3a6d d7ba 7396 ab3c bace a23d 5f69 7cbc
00000070: f7dc 97bc ff02 cebd d704 653c 9a89 c6bd
00000080: 77c1 1dbc a261 bc3d b625 bb3d 9e4b 273d
00000090: a804 17bd bd4e 953b c11d bbbb ca1c c63c
000000a0: 7103 3bbc b4b3 953b 7a22 da3c 188e a1bd
000000b0: b6f4 51bc faaf 543d e5dd e0bc 4d98 efbc
000000c0: ef3d a33d 12c7 89bd f88b 80bc 341f 8e3d
000000d0: ac5d 60bd 55ed 143d 7346 c73d 5ccc 1e3d
000000e0: 3261 8a3d 6f0a dd3d 19ce 53bc 1a48 3fbd
000000f0: 399c d73b d72d 353b a608 043e ea3c 81bd
00000100: 3463 9c3d a511 d33d 552c 0a3d c0f2 313d
00000110: c3a7 c9bb 8944 ca3d 64d2 60bd a2df 8d3d
00000120: 0aaa 7f3d c966 ca3c 7106 dd3b 456b 323d
00000130: fdc1 89bd 6225 c63d 84b9 4ebd 5b23 a9bd
00000140: 8a8b 46bd 189e f23c c2f3 423d b8b8 a23d
00000150: b4bb acbb de76 063c 239e be3d 642c 923d
00000160: 943c 8b3c 04d9 dbbc 263d 0cbd 8fe6 abbc
00000170: a4bd 6bbc 04d5 a3bd 3e54 dfbd 7662 4d3d
00000180: 9ccf 3b3d e2fb 5c3d d1dc 18bc bda2 e2bd
00000190: 711f 9ebc 52f7 44bd c6c3 c838 8f2c 793d
000001a0: 5732 d2bd d15f 903c 77e1 a5bd 432d b73d
000001b0: 1241 233d 04f4 92bb 9eff c5bc e67e 30bd
000001c0: b43a 1f3d 54ea 063d 5fc3 26bd 5c28 443c
000001d0: 6f0e a53d 38d1 bdbd 02c5 acbd b9a4 79bd
000001e0: cba0 333b f1da b33c 644c afbc 6415 acbd
000001f0: 0ef8 cb3d 84fe a0bd 4d29 e4bc 30a1 373d
00000200: bd0a a3bd e11e 7b3d 20f4 603d 8d95 b9bc
00000210: 4e3b c9bd 1b9e e13c dfbc 6d3d 24c4 debc
00000220: c05b 9d3d 5c33 d3bd cf99 9b3d 99f3 22bd
00000230: adb8 863d 09d9 ad3d c639 ce3c c26d 74bb
00000240: deea 783c 585f fd3b 85a7 423d 12fb b93c
00000250: d20d b73d 8897 b3bd 3e3c ffbc dade 7f3c
00000260: d0db cdbd 44f4 7ebd e387 b43b dbe0 77bc
00000270: 90d0 42bc 5fc4 603d 3ccd 93bc f7c7 ce3d
00000280: 5a51 85bd 40b4 a6bd d8eb e33d c07e a2bc
00000290: 3868 afbd bbe8 553c 14b3 90bd 8dc6 cb3c
000002a0: e717 c63d 4c61 a63d e586 763c 42c4 23bc
000002b0: 3b4d 64bd e7e2 73bd b3b8 c1bd 2199 04bd
000002c0: 20d4 aebd d213 48bd ff8b cbbc dee3 62bd
000002d0: 13bd a73b f6e9 ce3d 46f6 643c 71e9 423d
000002e0: c1ae a33c 2aca bfbc 20c8 41bd 3358 a03c
000002f0: aa7f cc3d e8eb ca3d f261 043e a5ad 603e
00000300: ddec 363e c987 063e a3ff c73d 57fb 29bc
00000310: 8d42 94bc 1e80 813d 9d2b f6bc 2905 793a
00000320: f9a4 5b3d 810f e0bc 08e8 5bbd 4eb7 90bd
00000330: b61e 1c3d 96da 473d fe72 bdbd 13cf dbbd
00000340: 6b91 94bd b5cb f3bd c803 353d 149f 95bd
00000350: 2027 a3bd ee2c b73d 0aa2 bdbd 903e 22bd
00000360: 1974 8cbd 1494 443d f290 cdbd be68 463d
00000370: 57e0 b8bc 01d3 bdbd 9553 303d 793f af3d
00000380: 5527 7b3d 720d 91bc 1882 883d 96f1 aebc
00000390: d690 253d a76e 48bd 414f 9cbc 2b99 a83c
000003a0: 4b6b aebd bb15 31bd 41c2 1dba 9fc5 90bc
000003b0: 1962 a33d e9ac 13bd 5771 133d 23e3 ebbc
000003c0: 6bd0 e4bc 72e8 bc3c f89a 05bd 5550 e23d
000003d0: 9ce1 f83d 6d5d c4bb 744a d33b 6425 063e
000003e0: dbf6 8d3d 2bf2 3a3e 00b9 563d 94ae 8cbb
000003f0: b739 583c e45f f3bc 4ebe 493d f05e 82bd

net.0.bias f4 [256]
0.036171786 -0.10426768 -0.027288942 0.098864034 -0.05169001 0.039409712 0.014666466 0.034663413
-0.05167931 -0.009428051 0.03876741 0.056292243 0.066971615 -0.06935724 -0.074668884 -0.10872902
0.045614116 0.01385321 -0.0050468594 0.10508989 -0.09214428 -0.002482417 -0.06029561 -0.053786386
0.08455875 -0.015593552 0.045978554 0.07178488 -0.100099884 -0.108580306 0.009020467 -0.052664086
0.024680031 0.08349169 -0.051443722 -0.021562139 0.02672261 -0.034612365 0.079052225 -0.10624426
0.059332244 0.08673015 0.031760365 -0.050760817 -0.054192044 0.0908897 -0.051989578 0.0050477786
0.05774196 -0.046241123 0.08067768 -0.046524256 0.09152022 -0.013583084 0.014947236 0.031108428
-0.11398501 -0.015280331 -0.07201669 0.07578864 0.051769916 0.012746924 0.060159236 0.060089525
-0.06155883 -0.031175002 -0.0014128075 -0.078999445 -0.0734278 0.020339733 -0.08345076 0.057162303
0.097538486 0.06269447 0.0060690064 0.09912379 -0.002231896 -0.033995274 -0.044935457 -0.052731033
-0.03701635 0.053138703 0.03340339 -0.060430683 0.025809333 0.10210461 -0.04964194 0.082990885
0.105768226 -0.09185006 -0.039902765 0.055765647 -0.030735224 -0.0736908 0.06555778 -0.089570224
-0.09182754 -0.07930279 0.037781607 0.0031193648 0.0059609488 0.00076486723 0.120222874 0.07178651
-0.06444494 -0.018159913 -0.031277116 0.09255839 -0.057732657 0.059497215 -0.06676411 0.014767964
-0.07376177 -0.017400585 0.062553324 -0.011834177 -0.086227395 -0.015129186 0.04952824 -0.0011949618
-0.07954978 0.009906955 -0.00889088 0.044671156 0.009974988 -0.041169427 -0.053249974 -0.008093012
0.09667331 0.038236246 -0.03362208 0.10028189 0.072965376 -0.058203686 -0.042544704 -0.00724751
0.06259217 -0.10652382 -0.08305364 -0.005621078 0.021492697 0.026269 -0.09287029 0.007630935
-0.07795506 0.05321682 0.063335836 -0.025102865 0.006770406 -0.019336218 0.065405264 -0.010708833
0.061404053 -0.049476102 -0.075333126 -0.073612176 -0.07710876 0.06708171 0.025120819 0.08023844
-0.09352347 0.007685093 -0.05079874 -0.020706935 0.07933269 0.08296127 0.08319536 0.10287458
-0.06692316 -0.046857413 -0.06440801 -0.07063684 -0.02257438 -0.05549263 0.024770891 0.0849468
-0.08378249 0.08166696 -0.004735978 -0.08018697 -0.08045752 -0.034055803 0.03598664 0.031880647
0.10356994 0.10656936 -0.050111003 -0.0142513 -0.11867134 -0.10099904 -0.089005835 -0.0020186033
-0.0889313 0.07176124 -0.054191057 -0.08482809 -0.073539115 0.03562903 -0.009159234 0.08202486
-0.049237594 -0.047026563 0.067560494 0.04912705 0.07213958 0.015106162 -0.07039108 0.030659633
-0.06257333 0.10334383 -0.07695875 -0.030454375 0.08606131 0.09020737 -0.056475118 0.07269151
-0.07845752 0.026490303 0.103710495 0.06679662 -0.08320878 -0.022366473 0.0019491826 -0.005464078
0.016788168 -0.0077941427 -0.008014704 0.049130503 0.00980881 -0.05934825 -0.009381567 0.0012557358
0.03153703 -0.007844615 -0.101627484 -0.07977964 -0.004545299 0.008433784 -0.04352829 -0.026398351
0.004283508 0.060520116 0.032255128 -0.042408783 0.005941468 0.10489419 0.028214967 -0.09333703
0.06841762 -0.06516988 0.07770934 -0.0352379 -0.028737482 -0.03644458 -0.103452854 -0.07714267
00000000: de28 143d 4b8a d5bd 0f8d dfbc 3a79 ca3d
00000010: e7b8 53bd 146c 213d 9e4b 703c 39fb 0d3d
00000020: afad 53bd 1d78 1abc 93ca 1e3d b292 663d
00000030: 6a28 893d 2b0b 8ebd 00ec 98bd 52ad debd
00000040: ded5 3a3d 93f8 623c 2060 a5bb 5e39 d73d
00000050: 24b6 bcbd 0cb0 22bb 88f8 76bd 1d4f 5cbd
00000060: 232d ad3d 197c 7fbc 0254 3c3d f303 933d
00000070: 2b01 cdbd 5a5f debd 95ca 133c 4cb6 57bd
00000080: c72d ca3c b1fd aa3d a7b6 52bd 15a3 b0bc
00000090: 60e9 da3c b2c5 0dbd 22e6 a13d 9796 d9bd
000000a0: 5e06 733d 949f b13d 2817 023d 93ea 4fbd
000000b0: 7af8 5dbd 6124 ba3d 06f3 54bd d667 a53b
000000c0: d582 6c3d 5567 3dbd 573a a53d 3890 3ebd
000000d0: f46e bb3d 958b 5ebc 40e5 743c 1ad7 fe3c
000000e0: f970 e9bd 5a5a 7abc 7d7d 93bd 1337 9b3d
000000f0: b10c 543d 79d8 503c 8869 763d 6f20 763d
00000100: 1d25 7cbd b862 ffbc f42d b9ba 76ca a1bd
00000110: 5061 96bd 839f a63c 3be8 aabd 0523 6a3d
00000120: 42c2 c73d f565 803d 84de c63b 6a01 cb3d
00000130: 0045 12bb a13e 0bbd 3e0e 38bd 7ffc 57bd
00000140: 759e 17bd f8a7 593d fed1 083d 2a86 77bd
00000150: 186e d33c 391c d13d 5955 4bbd 20f7 a93d
00000160: 039d d83d e21b bcbd 1571 23bd 856a 643d
00000170: 70c8 fbbc 34eb 96bd 2843 863d 9870 b7bd
00000180: 1410 bcbd 8069 a2bd e3c0 1a3d 426e 4c3b
00000190: 1054 c33b 5f81 483a 6937 f63d ce04 933d
000001a0: b5fb 83bd 19c4 94bc 6f1c 00bd 418f bd3d
000001b0: 1479 6cbd 5ab3 733d 9fbb 88bd 55f5 713c
000001c0: 6910 97bd ac8b 8ebc f51b 803d 23e4 41bc
000001d0: fd97 b0bd 68e0 77bc 20de 4a3d 44a0 9cba
000001e0: ffea a2bd c850 223c 0eab 11bc 1af9 363d
000001f0: 226e 233c 46a1 28bd a51c 5abd 8d98 04bc
00000200: a8fc c53d 9c9d 1c3d 4eb7 09bd 9760 cd3d
00000210: df6e 953d fd66 6ebd 5b43 2ebd 857c edbb
00000220: 5330 803d 2929 dabd 0718 aabd 0531 b8bb
00000230: 7411 b03c 1632 d73c c732 bebd ec0c fa3b
00000240: e7a6 9fbd e1f9 593d 38b6 813d 86a4 cdbc
00000250: 48da dd3b fd66 9ebc 32f3 853d 1a74 2fbc
00000260: d182 7b3d 74a7 4abd 4148 9abd fbc1 96bd
00000270: 33eb 9dbd 2362 893d 2dca cd3c 0d54 a43d
00000280: 3c89 bfbd 3cd3 fb3b 5712 50bd 97a1 a9bc
00000290: 2d79 a23d 99e7 a93d 5462 aa3d e8af d23d
000002a0: 020f 89bd 8fed 3fbd 59e8 83bd 0caa 90bd
000002b0: e8ed b8bc 3d4c 63bd 53ec ca3c 96f8 ad3d
000002c0: 2796 abbd 0241 a73d 4330 9bbb 1139 a4bd
000002d0: eac6 a4bd 197e 0bbd ba66 133d 4895 023d
000002e0: 7a1c d43d 0941 da3d 3241 4dbd 497e 69bc
000002f0: f609 f3bd 96d8 cebd b148 b6bd 8b4a 04bb
00000300: 9d21 b6bd 8ff7 923d 71f7 5dbd 5aba adbd
00000310: ad9b 96bd bfef 113d 9d10 16bc a6fc a73d
00000320: 5cad 49bd ed9e 40bd 285d 8a3d 7239 493d
00000330: ebbd 933d d67f 773c 3329 90bd e929 fb3c
00000340: 7226 80bd eea5 d33d 8d9c 9dbd 747b f9bc
00000350: e940 b03d a4be b83d 7452 67bd 49df 943d
00000360: 56ae a0bd 3102 d93c 2b66 d43d abcc 883d
00000370: 5d69 aabd e539 b7bc b77b ff3a 020c b3bb
00000380: 5787 893c 0266 ffbb 1b50 03bc 113d 493d
00000390: 22b5 203c 2717 73bd 25b5 19bc 8097 a43a
000003a0: f92c 013d b386 00bc 1222 d0bd 8263 a3bd
000003b0: bbf0 94bb db2d 0a3c b84a 32bd 5b41 d8bc
000003c0: ab5c 8c3b f1e3 773d f41d 043d d5b4 2dbd
000003d0: a5b0 c23b c4d2 d63d 1323 e73c 7c27 bfbd
000003e0: 8a1e 8c3d c977 85bd 1326 9f3d 9e55 10bd
000003f0: de6a ebbc e946 15bd 17df d3bd fafc 9dbd

net.2.weight f4 [256, 256]
-0.014519758 -0.022547174 0.084627815 0.04579007 -0.015072836 -0.025813026 0.012770348 0.049362928
0.0077229347 0.03126511 -0.04986157 -0.03044793 0.023403846 -0.032683223 -0.042887695 -0.06325895
-0.019563405 -0.048762202 0.054238975 0.07166898 0.043716952 0.0643922 -0.052688792 0.04320272
-0.013284115 0.07612818 -0.03387829 -0.016951438 -0.08228405 0.03207541 -0.035276156 0.04684015
-0.0166552 0.05779318 -0.002943693 -0.008882509 -0.019714307 -0.03763027 -0.03900048 0.025620494
0.027194364 0.045281865 0.021322856 0.019359946 -0.01658803 -0.061503198 0.030394383 0.011607506
0.044742275 -0.044506326 -0.024286168 -0.051358443 -0.01853452 0.0300055 -0.06265536 -0.022861253
-0.035714 -0.02364677 0.026201751 -0.031932905 -0.011700479 0.07204725 -0.039445534 -0.049107514
-0.0035016781 -0.05487391 -0.01821991 -0.034424324 -0.0021661888 0.03930412 -0.041469704 -0.079501174
0.0037463794 -0.0055673863 0.008035865 0.027111843 0.01064224 -0.0024399378 -0.028451813 0.010951262
0.0025148166 -0.028356032 0.0104643535 -0.052191425 -0.04497516 -0.053882163 0.016054077 0.014416673
0.04423623 -0.007173618 -0.012751032 -0.052076586 -0.06690397 -0.0055874917 0.06375523 0.00806043
-0.014410227 0.04248542 -0.045904953 -0.044973392 0.043631088 -0.039093945 -0.04724123 0.017054869
-0.045337774 0.025942191 0.031700306 -0.026319847 0.03835118 -0.016688379 0.018532284 0.05268923
0.022857549 0.05542208 0.03404099 0.05081947 0.01243344 -0.009770229 0.042207934 -0.052808005
0.053568613 -0.050738785 0.03808122 0.032729905 -0.056587994 -0.025548832 0.037379887 -0.043099795
0.04357773 -0.06052162 0.036247462 0.028165989 0.005757262 0.003583491 -0.022290267 -0.061821807
0.052435927 0.007498955 -0.057870433 -0.018631916 0.03978555 0.0136039 -0.06430218 0.028679395
0.04567324 -0.010011101 -0.039004073 0.0009337475 -0.099703826 -0.058696274 -0.029307818 -0.05079882
0.06547469 0.04562877 -0.0051861918 0.065740116 -0.02445337 0.057255607 -0.058470476 -0.012479852
-0.0034424176 0.05376767 -0.015427412 -0.056780685 0.013483843 0.054363668 0.02931759 0.029566975
0.0058794175 0.05406581 -0.045140706 0.025368297 -0.017367791 0.040182583 0.016147755 -0.0062241885
-0.06311398 0.01904891 -0.05344237 0.021464866 -0.009995063 0.00513628 0.004215034 0.055305704
-0.013692465 0.06937923 -0.016149083 0.0067327945 -0.04839918 0.014920531 -0.055707593 -0.011703786
-0.021389771 0.054640688 -0.024142431 -0.039084606 0.014590589 -0.0068569044 -0.060876086 0.034088425
-0.024698956 0.05662792 0.037582915 -0.0052400525 -0.033193976 0.04061902 -0.011234572 -0.005903672
0.011892259 0.010718895 -0.015482567 0.05214106 -0.043764986 -0.06291047 -0.05916961 -0.06878619
-0.043561835 -0.031409573 0.0338237 0.022910554 -0.048095625 0.016196473 0.03070658 0.020379854
-0.034423552 0.008980706 0.055337593 -0.016132563 0.037475605 0.023676066 0.05971506 -0.042660456
0.047198694 -0.03982397 -0.04797954 0.03548931 -0.039040513 0.05199828 -0.034664407 0.051599734
0.021185106 0.03401056 -0.06897569 0.03804189 0.014899938 -0.05475781 0.032895286 -0.03418738
0.051668447 0.04757694 0.07184737 -0.019268466 0.001022761 -0.06116259 0.058371365 -0.023642434
00000000: 47e4 6dbc dab4 b8bc 5951 ad3d 5e8e 3b3d
00000010: 0ef4 76bc d775 d3bc b93a 513c c830 4a3d
00000020: ac10 fd3b d80f 003d a53b 4cbd f06d f9bc
00000030: 6cb9 bf3c d8de 05bd 02ab 2fbd e98d 81bd
00000040: 6f43 a0bc e0ba 47bd b029 5e3d 30c7 923d
00000050: 8c10 333d 0fe0 833d 34d0 57bd 56f5 303d
00000060: 9ea5 59bc 17e9 9b3d f6c3 0abd bedd 8abc
00000070: 8a84 a8bd 8161 033d bb7d 10bd 75db 3f3d
00000080: 7c70 88bc 8bb8 6c3d f9ea 40bb f187 11bc
00000090: e67f a1bc 3322 1abd f8be 1fbd 12e2 d13c
000000a0: b7c6 de3c 7a79 393d 45ad ae3c c098 9e3c
000000b0: 9fe3 87bc c7ea 7bbd a4fd f83c 692d 3e3c
000000c0: ad43 373d 444c 36bd c9f3 c6bc 3b5d 52bd
000000d0: b5d5 97bc 18ce f53c 7451 80bd 8647 bbbc
000000e0: d848 12bd dfb6 c1bc 0ea5 d63c 14cc 02bd
000000f0: 5eb3 3fbc 828d 933d a491 21bd f624 49bd
00000100: 697c 65bb 77c3 60bd ec41 95bc 8500 0dbd
00000110: 9ef6 0dbb 5bfd 203d 23dc 29bd 83d1 a2bd
00000120: d185 753b 9f6e b6bb dca8 033c a819 de3c
00000130: ca5c 2e3c 5de7 1fbb c713 e9bc ec6c 333c
00000140: 9fcf 243b e94a e8bc ae72 2b3c adc6 55bd
00000150: e037 38bd 8bb3 5cbd d783 833c e933 6c3c
00000160: 0d31 353d ab10 ebbb b4e9 50bc 424e 55bd
00000170: f304 89bd 4717 b7bb 1a92 823d e50f 043c
00000180: df18 6cbc 3105 2e3d d506 3cbd 0536 38bd
00000190: 83b6 323d f920 20bd 0580 41bd a7b6 8b3c
000001a0: 1ab4 39bd b884 d43c 2ed8 013d b89c d7bc
000001b0: 2016 1d3d 11b6 88bc 04d1 973c a9d0 573d
000001c0: c13f bb3c 4302 633d 916e 0b3d 1428 503d
000001d0: a1b5 4b3c 5013 20bc 3ae2 2c3d 354d 58bd
000001e0: c36a 5b3d 79d3 4fbd 0efb 1b3d cb0f 063d
000001f0: d0c8 67bd c94b d1bc a71b 193d 6989 30bd
00000200: 907e 323d 85e5 77bd 3878 143d 5cbc e63c
00000210: 6aa7 bc3b 01d9 6a3b 149a b6bc dd38 7dbd
00000220: 0ec7 563d cbb9 f53b 8c09 6dbd f6a1 98bc
00000230: 2cf6 223d e4e2 5e3c ddb0 83bd 0df1 ea3c
00000240: dd13 3b3d 9a05 24bc bcc2 1fbd bcc6 743a
00000250: 8531 ccbd 816b 70bd f316 f0bc 6c12 50bd
00000260: 9817 863d 3ce5 3a3d eef0 a9bb c1a2 863d
00000270: 6f52 c8bc db84 6a3d bd7e 6fbd 4b78 4cbc
00000280: 2f9a 61bb 7d3b 5c3d 42c3 7cbc dd92 68bd
00000290: 56eb 5c3c 70ac 5e3d 712b f03c 7136 f23c
000002a0: 21a8 c03b 1c74 5d3d 76e5 38bd 2dd1 cf3c
000002b0: e646 8ebc 7e96 243d 4c48 843c 47f4 cbbb
000002c0: e741 81bd 760c 9c3c 63e6 5abd 16d7 af3c
000002d0: 55c2 23bc 3d4e a83b 451e 8a3b 3c88 623d
000002e0: 5c56 60bc b316 8e3d 154b 84bc c69e dc3b
000002f0: 383e 46bd 3e75 743c a52d 64bd 3dc1 3fbc
00000300: 9a39 afbc eace 5f3d 59c6 c5bc 2e17 20bd
00000310: 5e0d 6f3c e2af e0bb 3459 79bd 4ea0 0b3d
00000320: 7755 cabc aef2 673d 8bf0 193d bfb4 abbb
00000330: 68f6 07bd 2160 263d 3611 38bc 9773 c1bb
00000340: c0d7 423c 4e9e 2f3c 98aa 7dbc dd91 553d
00000350: ea42 33bd 34d7 80bd d55b 72bd c6df 8cbd
00000360: e56d 32bd 53a7 00bd b88a 0a3d eaae bb3c
00000370: ebff 44bd 77ae 843c 5e8c fb3c a7f3 a63c
00000380: b6ff 0cbd d023 133c aca9 623d 7028 84bc
00000390: 0580 193d 4ff4 c13c c797 743d bbbc 2ebd
000003a0: 6b53 413d 761e 23bd 3286 44bd 3d5d 113d
000003b0: f2e8 1fbd 26fc 543d 44fc 0dbd 3e5a 533d
000003c0: 638c ad3c a84e 0b3d 2043 8dbd d0d1 1b3d
000003d0: df1e 743c ba49 60bd 35bd 063d 1108 0cbd
000003e0: 4ba2 533d 0ae0 423d b724 933d e7d8 9dbc
000003f0: 2a0e 863a a085 7abd d016 6f3d c7ad c1bc

net.2.bias f4 [256]
0.05973685 0.0053469613 0.038269952 0.04277486 -0.06509143 -0.039464343 -0.037237845 0.06819271
0.0398631 -0.009975489 -0.01545018 0.0050363704 -0.028952945 0.03667634 -0.054226156 -0.019830123
-0.07051247 0.022615844 0.00693798 0.040797725 -0.0069742203 0.049786422 8.5919295e-05 0.020854978
0.013795327 0.07026329 -0.03142862 -0.019577712 0.009576528 0.025356172 -0.020857114 0.05707386
-0.061517447 0.076546706 0.060568355 -0.022051875 0.025521502 -0.051245682 0.073636636 0.054058816
0.005998782 0.0015836296 0.02457442 0.02777369 -0.005418536 0.03457216 0.03892353 0.027729819
0.005810838 -0.025751453 0.04647336 -0.038728703 0.018633166 -0.0073485146 -0.04938415 -0.043998852
-0.029925577 -0.03527163 -0.002862368 0.008830447 -0.039023656 0.046550393 0.05712317 -0.05520921
0.031599 0.044748172 0.014024946 0.02606342 0.053883992 0.033781517 0.017007109 0.03692189
-0.05444614 0.015267549 -0.043093964 -0.030902198 0.073149316 0.057985555 0.010161378 0.03561792
0.0335589 -0.04481613 -0.0004096304 -0.0045881975 -0.031388313 -0.06980066 0.034622394 0.055628866
0.0033351753 -0.054616198 0.008323629 -0.01285994 -0.008568746 -0.041089863 -0.03236345 -0.046711408
0.0469232 -0.065456115 -0.054999005 0.061859924 -0.07053588 -0.042138267 -0.011106731 0.029555846
0.033191707 0.0424237 0.051105745 -0.007448962 0.0386798 0.054528747 0.0083103515 0.044585466
0.043407198 -0.020310028 -0.045337297 -0.016983042 0.030019658 -0.027148912 0.0016167541 -0.019452158
-0.014443505 -0.02347915 -0.023131354 0.03343701 0.018345306 0.045609627 -0.029189518 -0.075518005
-0.026599718 0.028764136 -0.028118271 -0.021339614 -0.020029929 0.015710978 -0.050337035 0.005524833
0.0056088837 0.008384384 0.031911492 0.0071620555 0.028012006 0.15606609 0.0014945106 -0.011423979
-0.04441319 0.0055299234 0.010168897 0.03633395 -0.028962366 -0.014209774 -0.040074974 -0.055574805
0.025505725 0.020137116 -0.033392034 0.071126536 0.025178988 0.048699714 -0.013227212 -0.006275556
0.041520774 -0.034037203 -0.011950911 0.01518869 -0.047184262 0.017668461 -0.007578016 -0.030942827
0.05701124 0.026361724 -0.0005486062 0.028721306 -0.016787305 -0.048249725 0.030901339 0.03975489
-0.0050256406 -0.01648614 -0.018211892 -0.035791025 0.027766658 -0.038066067 -0.02439871 0.04514847
-0.052134626 -0.035871927 0.041998193 0.026110267 -0.043045457 -0.022534033 -0.041346382 0.04562851
0.010913972 -0.037702605 -0.00047271902 -0.026812728 0.066531636 -0.031523712 0.023266371 -0.030645978
0.05399991 0.03874203 -0.036514726 -0.035516772 0.0039081257 0.006580864 -0.0015540362 0.060272567
0.03781163 0.049883563 0.03696237 -0.027885653 0.013265681 0.05639643 -0.027912669 0.008266811
-0.052973337 0.016435554 0.057526372 0.03862713 0.05670156 0.0025705744 0.0047618095 -0.057084393
0.050557617 -0.011481935 -0.030740876 0.033380877 0.02557877 -0.06429983 0.011620382 -0.025950026
-0.041684035 -0.020839026 0.05385759 0.042801872 -0.06333019 -0.012199131 -0.04006844 0.045970198
0.050318867 0.0208179 0.066101484 -0.032370787 0.018022502 0.02412468 -0.05722102 0.018368384
-0.05299531 0.064467065 0.02917923 0.04614451 0.004086042 0.02603734 -0.012345084 -0.0008984424
00000000: a1ae 743d 9035 af3b f4c0 1c3d b134 2f3d
00000010: a84e 85bd 5da5 21bd b686 18bd 9fa8 8b3d
00000020: 7d47 233d 3c70 23bc c022 7dbc 2308 a53b
00000030: ba2e edbc ee39 163d 3f1c 5ebd c872 a2bc
00000040: d868 90bd dd44 b93c ff57 e33b 841b 273d
00000050: 0088 e4bb d9ec 4b3d 922f b438 0fd8 aa3c
00000060: cc05 623c 33e6 8f3d 4cbb 00bd 7061 a0bc
00000070: dfe6 1c3c bfb7 cf3c 8adc aabc 48c6 693d
00000080: b8f9 7bbd 85c4 9c3d 8616 783d 22a6 b4bc
00000090: 7812 d13c fee6 51bd cece 963d c76c 5d3d
000000a0: 6e91 c43b cb91 cf3a 4b50 c93c a685 e33c
000000b0: f98d b1bb 8a9b 0d3d 486e 1f3d a529 e33c
000000c0: d868 be3b b6f4 d2bc da5a 3e3d fda1 1ebd
000000d0: 95a4 983c cfcb f0bb 0947 4abd 2438 34bd
000000e0: 7c26 f5bc fc78 10bd 9196 3bbb 94ad 103c
000000f0: 45d7 1fbd a0ab 3e3d fcf9 693d 0d23 62bd
00000100: f46d 013d dc49 373d e3c8 653c f482 d53c
00000110: 76b5 5c3d 7d5e 0a3d 7e52 8b3c 683b 173d
00000120: ea02 5fbd be24 7a3c 4c83 30bd 9b26 fdbc
00000130: 4fcf 953d 4382 6d3d e97b 263c 19e4 113d
00000140: 0f75 093d 1e91 37bd a9c3 d6b9 9758 96bb
00000150: 0891 00bd a6f3 8ebd 36d0 0d3d 18db 633d
00000160: f592 5a3b 3cb5 5fbd d55f 083c 7fb2 52bc
00000170: ed63 0cbc d84d 28bd 898f 04bd 7654 3fbd
00000180: 8b32 403d db0d 86bd a346 61bd d560 7d3d
00000190: 1e75 90bd 2d99 2cbd 02f9 35bc 1a1f f23c
000001a0: 07f4 073d 79c4 2d3d 4254 513d 6c16 f4bb
000001b0: b66e 1e3d 8959 5f3d 2428 083c 409f 363d
000001c0: bfcb 313d 3761 a6bc 9ab3 39bd 0520 8bbc
000001d0: c9eb f53c 6567 debc 44e9 d33a 225a 9fbc
000001e0: 73a4 6cbc 5957 c0bc f77d bdbc 3ff5 083d
000001f0: e548 963c 29d1 3a3d db1e efbc 2fa9 9abd
00000200: a7e7 d9bc c4a2 eb3c 4a58 e6bc 6ad0 aebc
00000210: ce15 a4bc 4fb4 803c 352e 4ebd a909 b53b
00000220: baca b73b a85e 093c a0b5 023d adaf ea3b
00000230: 6f79 e53c cacf 1f3e 74e3 c33a a42b 3bbc
00000240: 9bea 35bd 5c34 b53b 729b 263c e8d2 143d
00000250: 7c42 edbc 1dd0 68bc a825 24bd 68a2 63bd
00000260: 62f1 d03c 98f6 a43c 16c6 08bd caaa 913d
00000270: 2a44 ce3c 5a79 473d f3b6 58bc 2ea3 cdbb
00000280: b011 2a3d 986a 0bbd c1cd 43bc fcd9 783c
00000290: 4944 41bd 73bd 903c 0151 f8bb d07b fdbc
000002a0: 9e84 693d 8bf4 d73c 57d0 0fba f248 eb3c
000002b0: 8885 89bc 81a1 45bd ce24 fd3c 06d6 223d
000002c0: 21ae a4bb f10d 87bc 1b31 95bc 9c99 12bd
000002d0: e776 e33c 2aeb 1bbd cedf c7bc 9aed 383d
000002e0: 1e8b 55bd 71ee 12bd 4c06 2c3d 33e5 d53c
000002f0: 6f50 30bd 4b99 b8bc d35a 29bd f6e4 3a3d
00000300: 84d0 323c 0c6e 1abd 46d7 f7b9 5ea6 dbbc
00000310: bd41 883d 021f 01bd 1e99 be3c 460d fbbc
00000320: 022f 5d3d f6af 1e3d 7790 15bd 097a 11bd
00000330: bc0f 803b 4aa4 d73b cdb0 cbba 5ee0 763d
00000340: 5ee0 1a3d b552 4c3d db65 173d 7470 e4bc
00000350: 4d58 593c f1ff 663d 1ca9 e4bc 8571 073c
00000360: 92fa 58bd dba3 863c c6a0 6b3d 7b37 1e3d
00000370: e53f 683d 1577 283b f408 9c3b 53d1 69bd
00000380: 8115 4f3d ba1e 3cbc 4ad4 fbbc 63ba 083d
00000390: 928a d13c a1af 83bd 6a63 3e3c 2695 d4bc
000003a0: e1bc 2abd 9bb6 aabc c799 5c3d 0451 2f3d
000003b0: 42b3 81bd ddde 47bc ce1e 24bd 3f4b 3c3d
000003c0: 281b 4e3d 4d8a aa3c 3760 873d 3b97 04bd
000003d0: eda3 933c 1fa1 c53c 9760 6abd 4b79 963c
000003e0: 9c11 59bd 4f07 843d 4809 ef3c 0702 3d3d
000003f0: 34e4 853b 424c d53c 0943 4abc 7385 6bba

net.4.weight f4 [256, 256]
0.0030219858 -0.01796255 -0.006432972 -0.017841524 -0.024555482 0.072825685 -0.025526423 0.06486407
-0.012582908 0.052876428 0.01889803 0.00765121 -0.03846982 0.0523303 -0.04720435 -0.056149077
0.0357374 0.040098377 -0.054362558 -0.049316373 0.02617392 -0.045783747 -0.05204967 0.031034367
-0.05753299 0.04404154 0.05056468 0.07214363 -0.01571018 -0.0066255233 -0.06279115 -0.056543317
0.053486664 -0.04880384 -0.022576569 -0.027767425 -0.07400993 0.006190315 0.06505242 0.006529434
0.018424781 -0.0024622974 -0.066140346 -0.018102888 0.019700162 -0.050631937 -0.00846635 -0.056971945
0.041572127 -0.016078005 -0.049960412 0.06428177 -0.032969184 -0.007518338 -0.011147338 0.021118082
-0.0038911432 0.02286382 0.058373336 -0.065248154 -0.016051788 0.051721472 0.038378727 0.052239247
-0.030263962 0.031993885 0.11393022 0.0077033993 0.04993823 -0.013315771 -0.05686026 -0.030549973
0.021927757 0.03497549 -0.039285216 -0.023126183 0.0026534044 0.03792317 0.049483836 -0.012926523
-0.054068677 0.05572644 -0.06657127 0.038951688 0.01619427 0.055319186 -0.01327018 -0.012366896
-0.004271895 0.024350712 0.011040302 0.04804929 0.04791927 0.014289821 -0.046215832 0.038840797
-0.04133304 -0.011914933 0.0031721734 -0.054257967 -0.019752959 -0.014631086 0.013572625 0.051315784
0.053165186 -0.029499907 0.040776648 -0.034280047 0.04401829 0.020546632 0.044190384 0.013592459
-0.070981994 -0.013132698 0.061783586 -0.00063361606 0.0046668723 0.06352623 0.051068746 -0.034858096
-0.0097429305 -0.019109229 0.015103978 -0.05073304 -0.0073245806 0.024425834 0.05183814 -0.069702215
0.0032489218 0.00806686 -0.0669497 0.008074926 -0.04154379 -0.06659891 -0.04832944 -0.07192344
-0.02764079 -0.01783336 0.028817203 -0.010344989 -0.0076480135 -0.0041556787 -0.016932022 0.036196828
-2.3958999e-05 -0.00093863276 -0.015730575 0.00054157473 0.008547688 -0.06780109 0.032104775 -0.06180674
0.045163415 0.032964356 0.012641593 -0.019279871 0.05046188 -0.018345175 -0.05280028 0.0141537
-0.05343608 -0.00017241598 0.04013678 0.055388175 0.037358753 -0.059304178 -0.039539963 0.018133659
-0.04622944 -0.009984439 0.06381313 -0.016833847 0.02030249 0.021471804 0.09889966 0.024759538
0.0116913 -0.010935425 -0.042104375 0.035820026 0.024475496 -0.034492254 -0.041294105 -0.027579103
0.044305347 -0.038112257 0.07196578 0.022950953 -0.002882808 -0.07857586 -0.038302526 0.049090322
-0.0123838615 -0.027199414 -0.0068920245 0.0045473306 0.045135137 0.06799308 -0.050646856 0.024574956
-0.025626883 0.030693542 -0.017277602 -0.0070713093 -0.0044106655 -0.03342665 0.022817094 -0.0036416093
-0.008662006 0.007162484 0.008824059 -0.0045503327 -0.06567568 0.041010793 0.0093800165 -0.073336765
0.02652906 -0.002097188 -0.0072427755 -0.01775546 0.022741111 0.075683154 -0.05111833 -0.064483896
-0.032226745 -0.0117531875 -0.013484826 0.030078467 0.016752101 -0.04037128 0.13837563 -0.00048854627
-0.011520283 0.035288807 0.041316394 -0.04482594 0.03125699 0.02380221 -0.065559976 0.03449538
0.018859878 0.023200346 -0.036083743 0.04243879 0.008274992 0.021347214 -0.04346545 0.032757603
-0.0073929317 -0.047153763 0.056201447 -0.009586835 0.053811383 -0.017517084 0.031433515 0.025521014
00000000: 820c 463b 3326 93bc aecb d2bb 6328 92bc
00000010: 9428 c9bc a225 953d ca1c d1bc 74d7 843d
00000020: 8b28 4ebc f494 583d 0bd0 9a3c 00b7 fa3b
00000030: 8892 1dbd 4c58 563d 5959 41bd 93fc 65bd
00000040: 6161 123d 323e 243d 46ab 5ebd f7ff 49bd
00000050: b06a d63c bd87 3bbd 0932 55bd c93b fe3c
00000060: b6a7 6bbd e764 343d e91c 4f3d 0ac0 933d
00000070: a3b2 80bc eb1a d9bb a598 80bd f799 67bd
00000080: d514 5b3d 89e6 47bd 7ff2 b8bc 8378 e3bc
00000090: 8592 97bd 20d8 ca3b 343a 853d ddf4 d53b
000000a0: 91ef 963c 7f5e 21bb 9774 87bd 824c 94bc
000000b0: 3c62 a13c 6f63 4fbd 72b6 0abc 6a5b 69bd
000000c0: 8947 2a3d 05b6 83bc 4aa3 4cbd 29a6 833d
000000d0: b20a 07bd 645c f6bb 53a3 36bc d4ff ac3c
000000e0: 8d02 7fbb e84c bb3c e118 6f3d d3a0 85bd
000000f0: 0a7f 83bc e5d9 533d 0333 1d3d d2f8 553d
00000100: 21ec f7bc 050c 033d 3f54 e93d cc6c fc3b
00000110: 088c 4c3d 642a 5abc 4ee6 68bd f043 fabc
00000120: d7a1 b33c 7642 0f3d 89e9 20bd 1f73 bdbc
00000130: bde4 2d3b 5355 1b3d 90af 4a3d c4c9 53bc
00000140: 1e77 5dbd 6841 643d 8556 88bd ce8b 1f3d
00000150: d9a9 843c 5f96 623d 2b6b 59bc 859e 4abc
00000160: 41fb 8bbb 257b c73c 62e2 343c 55cf 443d
00000170: ff46 443d da1f 6a3c d04c 3dbd 8717 1f3d
00000180: d54c 29bd da36 43bc 3de4 4f3b 9a3d 5ebd
00000190: f5d0 a1bc 39b7 6fbc b75f 5e3c 8030 523d
000001a0: bdc3 593d caa9 f1bc 6a05 273d 3c69 0cbd
000001b0: 864c 343d 6951 a83c fa00 353d e8b2 5e3c
000001c0: 025f 91bd 872a 57bc c910 7d3d 4119 26ba
000001d0: 90ec 983b 0a1a 823d 762d 513d 5dc7 0ebd
000001e0: d0a0 1fbc f58a 9cbc ad76 773c 73cd 4fbd
000001f0: 0903 f0bb b018 c83c 3b54 543d 09c0 8ebd
00000200: ddeb 543b dd2a 043c ed1c 89bd b24c 043c
00000210: d229 2abd 0265 88bd 17f5 45bd 994c 93bd
00000220: f06e e2bc 4417 92bc 0e12 ec3c 077e 29bc
00000230: 309c fabb 5c2c 88bb 06b5 8abc 2043 143d
00000240: 8ffb c8b7 940e 76ba 68dd 80bc 77f8 0d3a
00000250: 9a0b 0c3c 4cdb 8abd 4c80 033d 1029 7dbd
00000260: 46fd 383d a205 073d af1e 4f3c d2f0 9dbc
00000270: 1eb1 4e3d 9f48 96bc 1b45 58bd ece4 673c
00000280: cbdf 5abd 90ca 34b9 7766 243d b6de 623d
00000290: 7e05 193d f0e8 72bd a8f4 21bd 0a8d 943c
000002a0: 155b 3dbd c695 23bc 75b0 823d 23e7 89bc
000002b0: 6851 a63c a3e5 af3c e88b ca3d 84d4 ca3c
000002c0: de8c 3f3c 7f2a 33bc a375 2cbd 05b8 123d
000002d0: d680 c83c c047 0dbd 0224 29bd 92ed e1bc
000002e0: 8679 353d 991b 1cbd cb62 933d a303 bc3c
000002f0: 7eed 3cbb 61ec a0bd 1ce3 1cbd ef12 493d
00000300: aee5 4abc 4ed1 debc 7ed6 e1bb c601 953b
00000310: 9fdf 383d f53f 8b3d 1473 4fbd 6b51 c93c
00000320: 78ef d1bc 0671 fb3c c289 8dbc 71b6 e7bb
00000330: 5887 90bb 62ea 08bd eaea ba3c 11a8 6ebb
00000340: 16eb 0dbc 45b3 ea3b c992 103c f51a 95bb
00000350: f980 86bd effa 273d a4ae 193c 9631 96bd
00000360: 7953 d93c fa70 09bb ce54 edbb e673 91bc
00000370: 914b ba3c c5ff 9a3d 7461 51bd 2210 84bd
00000380: 3100 04bd 7190 40bc 76ef 5cbc 1e67 f63c
00000390: b43b 893c 5b5c 25bd 57b2 0d3e c911 00ba
000003a0: 92bf 3cbc ff8a 103d 613b 293d 689b 37bd
000003b0: 5407 003d dafc c23c 4f44 86bd 074b 0d3d
000003c0: 0880 9a3c a70e be3c 8ccc 13bd 4cd4 2d3d
000003d0: d593 073c 5ae0 ae3c d408 32bd d62c 063d
000003e0: 6840 f2bb 4e24 41bd 7d33 663d 1a12 1dbc
000003f0: 5369 5c3d fd7f 8fbc 6ec0 003d 7211 d13c

net.4.bias f4 [256]
-0.008025495 0.04193311 -0.0569955 -0.06318411 0.017867373 0.029230392 -0.051845454 -0.04208775
-0.028199153 -0.03619584 0.057772003 0.05885704 -0.040642653 0.010453258 0.03171852 -0.034889434
0.04401592 0.04408547 0.055644177 -0.014776307 0.058463357 0.039113887 0.009209796 0.020312764
-0.01846893 -0.02989143 0.017013371 -0.036419634 -0.0019869688 0.0005393877 -0.055583008 -0.020195002
-0.006379319 0.0634269 0.015576128 0.05598788 0.06119747 0.03368706 -0.026873693 0.020113714
0.022316672 -0.049582113 -0.005524121 0.00039977566 0.018853946 0.052021783 -0.001350392 0.020263303
-0.0061048768 0.05660218 -0.031374063 0.0519694 0.028219119 -0.05559935 -0.00093487103 -0.016623622
-0.057979193 -0.004319467 0.035751447 0.014989732 0.033066984 -0.02204251 -0.048640165 -0.070394196
0.07354679 -0.053910553 0.05640977 -0.02899595 0.053848043 -0.041122813 -0.050287995 -0.028079264
-0.04139647 0.004435699 0.06651527 -0.04970347 0.02125922 0.032726947 0.05092345 -0.02279484
0.012474818 0.016815012 -0.041786812 0.015958684 0.053567436 -0.010929981 0.00058535335 -0.011998884
-0.010690473 0.029095892 -0.02724577 0.057385467 -0.013482327 -0.036876045 0.015784172 -0.026757829
0.028459204 -0.006523154 0.05459658 -0.017351842 0.009647021 0.0018127402 -0.028447153 0.04314432
0.062592864 0.055090405 0.004271316 0.005509295 -0.022156034 -0.011422112 -0.050989456 0.055182386
0.039038885 0.05422515 0.035717804 -0.04647733 0.038335145 0.010535569 -0.012706468 0.047097184
-0.051992863 0.052579906 0.019207325 -0.037931707 0.04264188 -0.03929522 -0.019033311 0.031925436
0.00862718 0.04375594 -0.06580931 -0.005572365 -0.069418445 0.018727323 -0.028770778 0.044407822
-0.02776333 0.053337555 0.029127553 0.009946563 -0.047182854 -0.003577077 0.04827749 0.049724117
-0.053603034 -0.0025337997 0.007553605 0.057617053 -0.0050392244 0.057999574 0.059519418 -7.859147e-05
-0.058943093 -0.025450854 0.05506696 -0.01870486 -0.03444234 0.06198243 -0.009953138 -0.038305786
-0.02553698 0.030242065 0.046241917 0.043779157 -0.05484674 0.022427088 0.010679659 0.045065805
-0.05241898 -0.0009806684 0.00061251037 0.04792296 0.028493892 -0.021101473 -0.045316555 0.016652372
0.024370393 0.055057786 -0.06616842 0.07235908 -0.01802768 -0.05303357 0.031090733 0.045076244
-0.023730667 0.031937364 -0.020053966 -0.054103743 -0.023071911 -0.0430359 -0.04733837 0.010200593
0.0490616 0.045978818 0.017442202 0.032712318 -0.02964989 0.058533493 -0.06654205 0.012295374
-0.024348613 0.03336731 0.035263184 0.060175356 0.03478966 0.054377526 0.049540613 -0.026741657
0.026888208 0.04376481 0.015902808 0.04878311 0.056320306 -0.053384148 -0.019540993 -0.027746271
-0.04377334 0.021560036 0.06600175 0.039473798 0.04123902 -0.029116014 -0.0037397188 0.022195868
-0.014531347 0.048453912 -0.045383997 0.025908392 0.004556498 -0.020359464 0.04780246 -0.011651176
0.06570747 0.03676434 0.0048356615 -0.031261776 0.036175095 0.020338988 -0.004623858 0.060194593
0.048622545 -0.04263187 0.04260288 -0.0013262674 0.027790817 -0.048854258 -0.022867765 0.002678359
0.03655259 0.008027468 0.008730359 0.027752748 -0.006446254 0.0030693843 0.03874037 -0.020407356
00000000: 5e7d 03bc 0ec2 2b3d 1d74 69bd ac66 81bd
00000010: 995e 923c 9374 ef3c e65b 54bd 3464 2cbd
00000020: e901 e7bc 1742 14bd 56a2 6c3d 1414 713d
00000030: e978 26bd 2444 2b3c 47eb 013d 39e8 0ebd
00000040: 0a4a 343d f792 343d 26eb 633d 5318 72bc
00000050: 4677 6f3d e235 203d afe4 163c f466 a63c
00000060: 274c 97bc dfde f4bc a05f 8b3c c12c 15bd
00000070: ce37 02bb b265 0d3a 02ab 63bd fd6f a5bc
00000080: 9b09 d1bb f6e5 813d 0433 7f3c 8c53 653d
00000090: 33aa 7a3d 71fb 093d 3826 dcbc 84c5 a43c
000000a0: 74d1 b63c 9d16 4bbd b003 b5bb fb98 d139
000000b0: 9773 9a3c cb14 553d a3ff b0ba 3aff a53c
000000c0: 6b0b c8bb b0d7 673d 1782 00bd dedd 543d
000000d0: c82b e73c 25bc 63bd 2212 75ba 432e 88bc
000000e0: 977b 6dbd 518a 8dbb 1c70 123d 7e97 753c
000000f0: 3f71 073d 7e92 b4bc e93a 47bd d52a 90bd
00000100: b39f 963d 50d1 5cbd ee0d 673d ea88 edbc
00000110: c48f 5c3d 6570 28bd c9fa 4dbd 7c06 e6bc
00000120: 588f 29bd 5759 913b 2839 883d de95 4bbd
00000130: d127 ae3c b10c 063d 1c95 503d 3fbc babc
00000140: 2e63 4c3c a3bf 893c a628 2bbd c9bb 823c
00000150: 8769 5b3d aa13 33bc 6672 193a f896 44bc
00000160: 1827 2fbc 825a ee3c 8532 dfbc 060d 6b3d
00000170: fae4 5cbc 560b 17bd cf4d 813c 3c33 dbbc
00000180: 4723 e93c 2fc0 d5bb aaa0 5f3d 7325 8ebc
00000190: 8a0e 1e3c 7899 ed3a 010a e9bc 19b8 303d
000001a0: b030 803d 7aa6 613d 65f6 8b3b 5187 b43b
000001b0: 9280 b5bc cf23 3bbc 52da 50bd ed06 623d
000001c0: 3de7 1f3d 311b 5e3d d54c 123d 035f 3ebd
000001d0: 5005 1d3d 619d 2c3c ca2e 50bc fae8 403d
000001e0: 78f6 54bd 075e 573d ae58 9d3c 475e 1bbd
000001f0: 41a9 2e3d 06f4 20bd bfeb 9bbc 3fc4 023d
00000200: 0459 0d3c 6e39 333d 08c7 86bd 6398 b6bb
00000210: 422b 8ebd 0b6a 993c b2b0 ebbc fae4 353d
00000220: ec6f e3bc 7b78 5a3d e89c ee3c e9f6 223c
00000230: cf42 41bd 656d 6abb 9ebe 453d 84ab 4b3d
00000240: db8e 5bbd 1b0e 26bb 3b84 f73b dcff 6b3d
00000250: 1420 a5bb f690 6d3d a2ca 733d 79d1 a4b8
00000260: 506e 71bd 4f7e d0bc e58d 613d ef3a 99bc
00000270: 6913 0dbd 4ae1 7d3d 7d12 23bc 87e6 1cbd
00000280: ee32 d1bc 35be f73c 2a68 3d3d c651 333d
00000290: faa6 60bd 03b9 b73c bdf9 2e3c ec96 383d
000002a0: 49b5 56bd c589 80ba e090 203a de4a 443d
000002b0: 066c e93c ffdc acbc da9d 39bd 8e6a 883c
000002c0: 6ba4 c73c 4684 613d 4f83 87bd ff30 943d
000002d0: c9ae 93bc bb39 59bd feb1 fe3c dea1 383d
000002e0: d166 c2bc c1d0 023d 3748 a4bc e39b 5dbd
000002f0: 4e01 bdbc 6946 30bd e1e5 41bd 6320 273c
00000300: d1f4 483d 4954 3c3d f3e2 8e3c 5afd 053d
00000310: 53e4 f2bc d1c0 6f3d 3347 88bd 8972 493c
00000320: be76 c7bc 29ac 083d 2170 103d 6f7a 763d
00000330: 9a7f 0e3d f8ba 5e3d 19eb 4a3d 5211 dbbc
00000340: a944 dc3c bb42 333d 9b46 823c ccd0 473d
00000350: 1fb0 663d 56a9 5abd 6f14 a0bc 264c e3bc
00000360: ac4b 33bd ac9e b03c ed2b 873d 47af 213d
00000370: 3fea 283d b584 eebc 1216 75bb 1cd4 b53c
00000380: e314 6ebc 9c77 463d 92e4 39bd d63d d43c
00000390: ad4e 953b e4c8 a6bc 83cc 433d 93e4 3ebc
000003a0: a391 863d 3496 163d 7874 9e3b 590c 00bd
000003b0: 562c 143d f39d a63c bb83 97bb 9b8e 763d
000003c0: 6f28 473d c19e 2ebd 5c80 2e3d 26d6 adba
000003d0: 91a9 e33c 671b 48bd 2e55 bbbc 6887 2f3b
000003e0: 2bb8 153d a485 033c c809 0f3c bb59 e33c
000003f0: 193b d3bb b927 493b 39ae 1e3d 542d a7bc

net.6.weight f4 [2, 256]
0.032033168 0.03648088 0.032116525 -0.00879691 -0.12555909 -0.11459084 0.08046517 -0.03850704
-0.04554903 -0.06565024 -0.049673576 0.017768562 0.03786065 -0.046737306 0.049882606 0.101587206
0.03385184 -0.032669023 0.06427034 -0.11605562 -0.024494901 0.031029928 0.026340488 -0.018902956
0.12332285 -0.0384065 -0.05927784 0.06867886 -0.069089346 0.05574759 -0.04176537 -0.023596646
-0.07397152 0.036965247 0.06641375 0.021451548 0.051999167 -0.0526665 0.07569052 -0.010699941
-0.06702141 -0.15218233 -0.056009177 -0.0033723388 -0.06218504 -0.0346646 0.038774885 0.010176299
-0.032357983 0.047949456 0.036645696 -0.05871517 -0.04780148 0.034191027 0.049633086 0.053713996
-0.21701886 -0.035066623 -0.0587313 -0.015058812 0.003739061 -0.068873614 0.1461122 0.014614582
0.040449552 -0.002211357 0.028394487 0.05203644 0.049537793 -0.052374005 0.06671604 -0.061373856
-0.069692805 -0.08224221 0.10151734 0.049720716 0.07002006 -0.06441123 -0.025227197 0.05395502
-0.06275737 -0.052691896 0.1016111 -0.05103003 -0.029390793 0.06550336 0.095236346 -0.010445668
0.052434884 -0.044951502 -0.05839346 0.01837822 -0.03791304 0.03303795 0.061179586 -0.09797838
-0.036806863 -0.09320642 0.027807135 -0.032179464 -0.100618236 -0.038556453 -0.07323497 -0.05589378
0.038476426 -0.012454566 0.042068098 0.015849708 0.06744042 0.03455041 -0.04730937 -0.040443365
0.07513159 0.024077121 0.04075399 -0.14092472 0.04097987 -0.061800674 0.0018021226 0.0713741
0.037381157 -0.048004705 -0.05765803 0.072807476 0.003683362 0.03160979 -0.051703524 0.030887501
-0.033515234 0.031352066 0.041948933 -0.06425503 0.10809196 -0.06318886 0.047577396 -0.041539676
0.057481825 -0.047326278 0.031808242 0.06666364 0.12342322 -0.011991626 0.054606833 -0.029434986
0.021317527 -0.051758092 0.13407953 0.0019223432 0.037189763 0.055290148 0.034764417 -0.037936825
-0.0068678227 -0.09094009 -0.049888596 0.06868824 -0.10125039 -0.0025990882 -0.045601696 0.038273133
-0.05079802 -0.04883084 -0.047027793 0.07373412 0.05214752 -0.033349283 0.009585693 -0.048960403
-0.080952056 0.056780707 0.021489069 0.04449742 0.062451236 0.007985332 -0.05688756 0.06617141
-0.040616296 0.06193787 0.08044913 -0.036886625 0.046539646 0.14059308 -0.03912528 0.041015062
0.072770596 0.03659092 0.005888353 -0.054144174 0.062458348 0.028518114 0.15876941 0.0006987036
-0.04262815 -0.019170852 -0.0075067007 0.024758821 -0.062677026 -0.017302334 -0.1612024 0.043798536
0.02105984 -0.06943973 0.036195528 -0.033956725 -0.017158935 -0.037917107 -0.008689769 0.015661687
0.01179417 0.07854357 0.034835815 0.05038146 -0.0054498464 -0.027130937 -0.20351619 0.08049683
0.17475457 0.014236899 -0.06681354 0.038069528 -0.0056363638 -0.037663218 0.06801457 0.07749201
-0.070536464 -0.07706384 0.052455723 0.064780116 0.0019763478 -0.010642993 -0.031549647 -0.03734867
0.036656093 0.05386444 0.09444403 0.02097819 -0.029097373 -0.012027112 -0.030880187 0.042106282
0.020435827 -0.1393262 -0.07746705 -0.032573868 0.0037836907 -0.03834895 0.040033575 0.0460651
0.07154171 0.071659476 0.045059502 0.035837956 -0.116747804 0.036720265 -0.014259864 0.043318614
00000000: 3635 033d fa6c 153d 9e8c 033d ea20 10bc
00000010: 9092 00be 9aae eabd ecca a43d 8fb9 1dbd
00000020: 9f91 3abd a273 86bd 8576 4bbd 608f 913c
00000030: c513 1b3d 9e6f 3fbd b451 4c3d f40c d03d
00000040: 3aa8 0a3d f4cf 05bd 2ba0 833d 92ae edbd
00000050: 88a9 c8bc 7a32 fe3c 02c8 d73c 5fda 9abc
00000060: b190 fc3d 2250 1dbd 52cd 72bd 81a7 8c3d
00000070: b77e 8dbd 9657 643d 2a12 2bbd c14d c1bc
00000080: 617e 97bd df68 173d ef03 883d 28bb af3c
00000090: 14fd 543d d4b8 57bd a203 9b3d ce4e 2fbc
000000a0: 8542 89bd afd5 1bbe e169 65bd 7502 5dbb
000000b0: beb5 7ebd 78fc 0dbd 6ad2 1e3d 7eba 263c
000000c0: ce89 04bd a666 443d cc19 163d 517f 70bd
000000d0: 7ccb 43bd e40b 0c3d 104c 4b3d 3503 5c3d
000000e0: 313a 5ebe 05a2 0fbd 3b90 70bd 3cb9 76bc
000000f0: 090b 753b 9c0d 8dbd 709e 153e 0072 6f3c
00000100: 6eae 253d 6aec 10bb 8e9b e83c 2a24 553d
00000110: 24e8 4a3d 2086 56bd 6ba2 883d 2763 7bbd
00000120: 1abb 8ebd 9b6e a8bd 53e8 cf3d f3a7 4b3d
00000130: ad66 8f3d 09ea 83bd 44a9 cebc f0ff 5c3d
00000140: f086 80bd 75d3 57bd 7b19 d03d dd04 51bd
00000150: f6c4 f0bc a026 863d 460b c33d 4f24 2bbc
00000160: f6c5 563d 111f 38bd fb2d 6fbd ec8d 963c
00000170: b44a 1bbd cd52 073d 7297 7a3d e4a8 c8bd
00000180: cbc2 16bd 02e3 bebd cacb e33c 9dce 03bd
00000190: ef10 cebd 5fed 1dbd 37fc 95bd e0f0 64bd
000001a0: 7599 1d3d 3c0e 4cbc 994f 2c3d 3fd7 813c
000001b0: 341e 8a3d bb84 0d3d 78c7 41bd f1a7 25bd
000001c0: 97de 993d 623d c53c a8ed 263d 924e 10be
000001d0: 82da 273d b422 7dbd 3335 ec3a 962c 923d
000001e0: fc1c 193d 95a0 44bd d42a 6cbd 161c 953d
000001f0: 8f64 713b 4479 013d 13c7 53bd c907 fd3c
00000200: 4547 09bd 066b 003d a5d2 2b3d 2498 83bd
00000210: 515f dd3d 2969 81bd 84e0 423d 8225 2abd
00000220: 1072 6b3d 33d9 41bd 5c49 023d f286 883d
00000230: 50c5 fc3d 8678 44bc 6aab 5f3d a421 f1bc
00000240: 18a2 ae3c 4b00 54bd 254c 093e 22f7 fb3a
00000250: 4b54 183d ec77 623d 2265 0e3d a563 1bbd
00000260: 790b e1bb cc3e babd fc57 4cbd 6cac 8c3d
00000270: 5d5c cfbd 7755 2abb d8c8 3abd 4ac4 1c3d
00000280: 9611 50bd d902 48bd 37a0 40bd ea01 973d
00000290: a398 553d 4299 08bd 4f0d 1d3c b48a 48bd
000002a0: 31ca a5bd e392 683d d809 b03c ed42 363d
000002b0: decc 7f3d e9d4 023c ee02 69bd e084 873d
000002c0: 465d 26bd 90b2 7d3d 83c2 a43d 6e16 17bd
000002d0: 5ba0 3e3d a2f7 0f3e d441 20bd 69ff 273d
000002e0: c008 953d 5ce0 153d 16f3 c03b 48c6 5dbd
000002f0: 53d4 7f3d d29e e93c 7394 223e 3429 373a
00000300: db9a 2ebd 310c 9dbc c5fa f5bb 03d3 ca3c
00000310: d05c 80bd a0bd 8dbc 3e12 25be 1866 333d
00000320: b085 ac3c 6b36 8ebd c341 143d 3516 0bbd
00000330: e590 8cbc f84e 1bbd 885f 0ebc f04c 803c
00000340: 563c 413c 74db a03d 00b0 0e3d ca5c 4e3d
00000350: a094 b2bb b341 debc 8c66 50be 86db a43d
00000360: ddf2 323e e241 693c 8ad5 88bd cbee 1b3d
00000370: 3fb1 b8bb bf44 1abd 394b 8b3d 22b4 9e3d
00000380: 6c75 90bd a6d3 9dbd d0db 563d 70ab 843d
00000390: 9d85 013b f35f 2ebc 343a 01bd ebfa 18bd
000003a0: b324 163d f6a0 5c3d df6b c13d 74da ab3c
000003b0: 9d5d eebc 5d0d 45bc 72f8 fcbc a377 2c3d
000003c0: 0969 a73c 87ab 0ebe 0ba7 9ebd 2d6c 05bd
000003d0: ccf7 773b ca13 1dbd 3ffa 233d c2ae 3c3d
000003e0: 7684 923d 34c2 923d 5090 383d d2ca 123d
000003f0: 7919 efbd fd67 163d 34a2 69bc dc6e 313d

net.6.bias f4 [2]
-0.044381596 -0.056600895
00000000: 7ac9 35bd 57d6 67bd
