onnx_models/observer.onnx (onnx, 1397 bytes, 5 tensors)

net.0.weight f4 [8, 4]
0.28214064 -0.18673497 -0.11774801 -0.87890977 0.2670931 -0.69424444 -0.02553973 0.051582318
-0.26895306 0.09481083 -0.2730204 0.10995506 0.23116076 -0.43689036 -0.063172884 -0.73069113
-0.035061363 -0.06597506 -0.003413405 -0.030959824 -0.049804952 -0.0035632574 -0.11922829 0.075844854
0.056570005 -0.22546886 0.013150726 -0.13132146 0.15702382 -0.32492748 -0.19201076 -0.8083766
00000000: bd74 903e 7437 3fbe de25 f1bd 3b00 61bf
00000010: 6dc0 883e 01ba 31bf b238 d1bc fb47 533d
00000020: 37b4 89be 2e2c c23d 54c9 8bbe 1e30 e13d
00000030: 68b5 6c3e 18b0 dfbe c960 81bd 930e 3bbf
00000040: 819c 0fbd ef1d 87bd 6fb3 5fbb 759f fdbc
00000050: 4700 4cbd 8a85 69bb f62d f4bd 8c54 9b3d
00000060: f3b5 673d 4fe1 66be 2576 573c 2279 06be
00000070: daca 203e e55c a6be 789e 44be c5f1 4ebf

net.0.bias f4 [8]
0.38517052 0.030848412 0.104061924 0.3544033 0.10025821 0.02174166 0.11504418 0.32382897
00000000: 1235 c53e cfb5 fc3c 6b1e d53d 5974 b53e
00000010: 2d54 cd3d 911b b23c 489c eb3d e9cc a53e

net.2.weight f4 [8, 8]
0.3587215 -0.05850594 -0.2324449 0.33250457 0.04581869 0.0071983086 -0.06462099 0.24978599
-0.5936259 0.4053838 0.1629992 -0.54664195 -0.040440932 0.11424736 -0.07298424 -0.60423493
-0.120882146 -0.11012128 0.17448986 -0.06410805 -0.034417696 -0.031861812 0.099612534 -0.04497147
-0.04845881 -0.11587738 0.1200399 -0.02018372 0.14062025 0.13418153 0.1512232 0.0071489573
0.07945274 0.15089437 0.098777115 0.20021135 -0.17615728 0.11343416 -0.12887372 0.01774004
-0.36667457 -0.062564485 0.07097678 -0.13992496 -0.23592186 -0.1065445 0.22225173 0.015430226
-0.68471766 0.21044888 0.19898647 -0.4787361 0.08365987 -0.011570804 -0.03069838 -0.42352298
0.09952117 0.44080564 0.17379296 -0.010038553 0.048019823 0.08252793 -0.010599811 0.2636505
00000000: 58aa b73e eda3 6fbd 0906 6ebe 0a3e aa3e
00000010: 61ac 3b3d cadf eb3b 0258 84bd e6c7 7f3e
00000020: def7 17bf 778e cf3e 43e9 263e baf0 0bbf
00000030: 64a5 25bd 85fa e93d c378 95bd 24af 1abf
00000040: 0f91 f7bd 4487 e1bd 78ad 323e 154b 83bd
00000050: 92f9 0cbd 8881 02bd a801 cc3d 0134 38bd
00000060: bf7c 46bd 1f51 edbd 7bd7 f53d 5458 a5bc
00000070: c1fe 0f3e e266 093e 41da 1a3e cd41 ea3b
00000080: 1eb8 a23d 0e84 1a3e a84b ca3d 3404 4d3e
00000090: 9362 34be 2b50 e83d 79f7 03be 8f53 913c
000000a0: c5bc bbbe cf21 80bd 465c 913d 7d48 0fbe
000000b0: 8095 71be 0134 dabd f595 633e 0fcf 7c3c
000000c0: a849 2fbf e97f 573e 1cc3 4b3e e61c f5be
000000d0: de55 ab3d 7893 3dbc 2b7b fbbc 01d8 d8be
000000e0: c1d1 cb3d 47b1 e13e c8f6 313e be78 24bc
000000f0: 6fb0 443d 6704 a93d d4aa 2dbc 33fd 863e

net.2.bias f4 [8]
-0.007307502 -0.004799963 -0.0051131044 -0.00065190525 -0.030013472 -0.054128002 0.0026706073 -0.07252299
00000000: c573 efbb 0249 9dbb d48b a7bb 9fe4 2aba
00000010: d0de f5bc 53b5 5dbd 5b05 2f3b ef86 94bd

net.4.weight f4 [1, 8]
0.014811373 -0.08399555 -0.003797983 0.003882825 0.015897224 -0.025848731 -0.06692889 0.1522508
00000000: 67ab 723c dc05 acbd 95e7 78bb fe76 7e3b
00000010: e53a 823c b8c0 d3bc 0412 89bd a2e7 1b3e
