onnx_models/observer.onnx (onnx, 1397 bytes, 5 tensors)

net.0.weight f4 [8, 4]
000000 cb 9d 07 bd 34 2c cd 3d d4 86 43 be 7a 53 97 be
       -0.033109467 0.10018197 -0.19094402 -0.29555875
000010 08 7e aa bd b4 2f 56 be d4 c9 c1 3c f9 4c b9 3e
       -0.0832482 -0.20916635 0.02365581 0.36191538
000020 c4 15 f8 bd fc 11 02 be 2d 55 11 be 57 9b 09 be
       -0.121135265 -0.12702173 -0.14192648 -0.13438164
000030 59 59 46 be c0 86 7a be b0 96 bb 3d e3 42 95 bd
       -0.19370021 -0.24465466 0.09159601 -0.07288148
000040 bc f6 de bd 65 00 1c be 37 7c aa bd 3b 9a 06 be
       -0.108869046 -0.15234526 -0.08324473 -0.13144772
000050 01 33 1a be 24 ca d4 be 99 79 cb 3d 10 8b 09 be
       -0.15058519 -0.4156047 0.09935302 -0.13431954
000060 9a 28 ee bd 34 35 04 be 95 09 0f bd ad ff 84 bc
       -0.11628838 -0.1291092 -0.034921248 -0.016235197
000070 07 f1 a3 be 8b 57 5e be 10 af 74 bd f5 64 7a be
       -0.32019827 -0.21713082 -0.059737265 -0.24452575

net.0.bias f4 [8]
000000 f1 61 58 3e e0 ca 12 bd c1 29 e3 3d d8 9f 98 3d
       0.21131112 -0.035838008 0.11091948 0.07452363
000010 59 df 28 3d a6 7b 6a bd a0 d0 41 3c 79 34 a2 3d
       0.041228626 -0.057246827 0.011829525 0.079201646

net.2.weight f4 [8, 8]
000000 54 08 98 bd 54 95 9c 3e f3 96 7c 3d 13 54 12 3e
       -0.074234635 0.30582678 0.061667394 0.14289884
000010 db 55 45 3d c8 8f 2f 3e 5c e6 6c 3d 63 68 1d 3e
       0.04817758 0.17144692 0.057836875 0.15371852
000020 4c e6 5a 3d 6d 8a 98 be bd 81 06 be 41 e1 60 bb
       0.053442284 -0.2979311 -0.13135429 -0.003431395
000030 ad 51 9d 3d 71 f5 0b bd dc 25 58 be e9 32 ae bc
       0.07681594 -0.034169618 -0.21108192 -0.02126451
000040 84 a1 e9 bd a4 4c 75 be 9a ee 59 3e 93 1d 67 be
       -0.1140776 -0.23955017 0.21282426 -0.22569875
000050 71 94 e2 3c ec d7 3c bc b9 0b 43 be 10 04 81 bd
       0.027658673 -0.011526089 -0.1904744 -0.06299603
000060 45 5a da 3d c8 02 67 be fb df 84 3d 3a d8 9d bc
       0.10661749 -0.22559655 0.064880334 -0.019268144
000070 74 2b 5d 3d 66 80 12 be d8 87 e0 bc cb 2b 6a bd
       0.05399652 -0.14306793 -0.027408525 -0.05717067
000080 d1 32 a9 3c e3 d8 c8 bd ad 8c 90 3d 72 5e 1b 3e
       0.020654114 -0.09806993 0.07058082 0.15172747
000090 e7 98 11 be 99 dc 00 3d d8 5e 49 bd 50 03 c9 bc
       -0.14218484 0.03146038 -0.049162716 -0.024537712
0000a0 bd 24 39 3d a0 e6 5a be 7f 1f d2 bd 8b 41 d4 be
       0.045201052 -0.21377039 -0.10259914 -0.41456255
0000b0 9c 3c 39 bd fe 0f ea bd 56 dc fa bd 45 de ed bd
       -0.045223817 -0.114288315 -0.12249057 -0.1161466
0000c0 d6 c1 cf 3e 8f 74 b9 bd e0 e1 86 bc 70 9f 86 3e
       0.40577573 -0.09055435 -0.016465127 0.26293516
0000d0 1e 35 ee 3b 84 a2 06 3d 7e 77 fa bd 9e 06 68 3d
       0.0072695157 0.03286983 -0.122298226 0.056646936
0000e0 94 6c a7 be 8e dd 49 3e a1 ea 61 be 8d 95 07 be
       -0.32700026 0.19713423 -0.2206216 -0.13240643
0000f0 84 85 20 be 16 a4 f2 bd 5f 7f a6 bd 93 8a 8a be
       -0.15675932 -0.11847703 -0.08129763 -0.2705885

net.2.bias f4 [8]
000000 5e fe dd 3c 55 b8 90 bb 32 d7 ba bc df 9c 69 bb
       0.02709883 -0.0044165053 -0.022807691 -0.003564648
000010 91 a2 90 bb 6b cf 03 bc df ec 35 bd 00 eb a7 bc
       -0.0044139107 -0.008045058 -0.04441535 -0.020497799

net.4.weight f4 [1, 8]
000000 5f 0a ea bd 90 3d 19 3e bb b0 aa 3d e2 56 7b 3d
       -0.114277594 0.1496489 0.0833449 0.061362155
000010 2e 80 ca 3c 3b 27 56 3d 78 52 c8 bc 89 a6 ea 3d
       0.024719324 0.052283507 -0.024453387 0.11457545
