onnx_models/roast_stepper.onnx (onnx, 17226 bytes, 12 tensors)

rhs.htx.0.weight f4 [16, 3]
-0.470946 0.6091966 -4.1450624 -0.13249178 0.037601124 -2.8042889 -0.4728364 -0.2532981
2.3040416 -0.45052257 -0.6725475 0.9115294 -0.35650754 0.23844631 19.242323 -0.3814903
-0.50469434 0.37728322 0.37481415 -0.5666327 17.274002 0.28102627 0.31222478 4.362862
-1.0220212 0.3147854 -0.67124885 -0.62229496 0.76262087 1.9802759 0.66388005 1.0544401
18.8346 -0.056597468 -0.691997 1.4606274 -0.1261583 0.20021512 0.16090573 0.28303158
0.6473268 3.2928612 0.3610786 1.539074 -13.878577 0.6491309 -0.84712917 17.844572
00000000: d61f f1be 4ff4 1b3f 5aa4 84c0 edab 07be
00000010: a303 1a3d 7879 33c0 9d17 f2be 4ab0 81be
00000020: 6b75 1340 e5aa e6be 132c 2cbf fe59 693f
00000030: 2888 b6be 452b 743e 47f0 9941 b252 c3be
00000040: a633 01bf 442b c13e a4e7 bf3e d70e 11bf
00000050: 2831 8a41 ade2 8f3e eddb 9f3e 919c 8b40
00000060: 97d1 82bf 8d2b a13e f7d6 2bbf b94e 1fbf
00000070: 1f3b 433f ae79 fd3f 0bf4 293f e5f7 863f
00000080: 43ad 9641 bfd2 67bd b726 31bf d7f5 ba3f
00000090: a42f 01be 3105 4d3e 79c4 243e 84e9 903e
000000a0: 36b7 253f 3dbe 5240 4bdf b83e 6000 c53f
000000b0: a70e 5ec1 712d 263f 75dd 58bf afc1 8e41

rhs.htx.0.bias f4 [16]
0.0057870555 -0.34027097 0.05260968 0.10798618 0.092922516 -0.14490424 0.14218159 0.11666243
0.25431195 -0.1224082 0.9231173 -0.270166 -0.46142435 0.5543135 -0.7626545 0.16022755
00000000: 57a1 bd3b ff37 aebe 3f7d 573d dc27 dd3d
00000010: 294e be3d c761 14be 0d98 113e b6ec ee3d
00000020: 2d35 823e 26b1 fabd 6a51 6c3f 3353 8abe
00000030: d03f ecbe 7de7 0d3f 533d 43bf b112 243e

rhs.htx.2.weight f4 [16, 16]
0.39652163 -0.090098366 -0.009123437 0.42533112 -0.29173708 0.366334 0.21343602 -0.12575848
-0.2917046 0.8053527 -0.24899614 0.21767713 -0.010676844 -0.39585263 0.76362187 0.9602502
0.30542004 0.38052094 -0.06797795 -0.12601854 0.025238685 0.21689452 0.59709877 -0.2299935
-0.4477794 0.9037815 -0.41093597 0.2103161 0.2668461 -0.05725925 -0.051734217 1.1483378
-0.78770626 -0.29254505 0.16902281 -0.22958118 1.0742043 -0.034473862 -0.07106069 -0.0071020857
0.1753222 0.4712826 0.3236461 0.055616952 0.041028764 0.005377231 -1.8296741 -0.21563596
-0.37053478 -0.15711994 -0.37794378 -0.32384607 0.13823652 -0.12921165 -0.5649275 0.25091347
0.17887041 -1.418317 0.34490168 -0.25636458 -0.32993796 0.39516777 -0.2635829 -1.2107828
0.43580544 0.16192558 0.31999227 0.53368294 -0.26372325 0.4157076 0.6327291 -0.010228185
-0.25943604 0.8421542 -0.35927102 0.43103084 -0.22121492 -0.49345443 0.6089021 0.83144975
-0.083481364 0.008974637 -0.009788989 0.11891396 0.057335734 0.26866338 -0.4864337 -0.28565222
-0.2929824 0.33607084 -0.1366851 0.10965317 0.3616242 0.027952822 -0.59384996 -0.41581023
0.25861236 -0.4111938 -0.111448064 -0.59164697 0.46365792 -0.63114965 0.39647064 0.31949466
2.1378672 -2.0423694 0.667886 -0.67940676 -0.5644668 0.6253472 -1.0541751 0.41442925
0.1230956 0.12641433 -0.15947287 -0.101665065 -0.2978866 -0.1530981 0.4024017 -0.13241316
-0.30573243 0.70094883 -0.12739873 0.065098055 0.1485957 -0.24199675 0.33824876 1.1252326
-0.051777765 -0.1559508 0.021312283 -0.15980293 0.14154299 -0.13468231 -0.2097422 0.3701228
0.78714937 -0.5248751 0.39088082 -0.35192695 -0.04450667 0.30590996 -1.4754714 -0.25195587
-0.116442986 -0.06287834 0.083905056 0.26066124 -1.0485443 0.1900364 -0.41018537 -0.32576984
-1.1404475 -0.09308578 -0.82221836 0.13721776 -0.33588055 -0.52447486 2.5384052 -0.04016951
0.6317633 0.18491732 0.12379947 0.14218852 -0.16688547 -0.0710975 0.58080006 -0.29567087
-0.18265001 1.1945443 -0.44479346 0.53928363 0.22014976 -0.36277673 0.35311237 1.3455169
-0.22683385 -0.12534387 -0.0005337526 -0.17165153 0.07735463 0.27002746 -1.2235427 -0.10286734
-1.7563084 -1.1740654 -0.2705935 0.07343399 0.2710691 -0.5370999 0.89994776 1.0749002
0.10375798 -0.24902636 0.36747912 -0.026239458 -0.37478662 0.30787063 0.41279408 -0.32130387
-0.5286903 0.06812357 -0.37984827 0.12039076 -0.016136331 -0.058942918 0.65797955 0.5883814
0.075023465 0.01110282 0.06385596 -0.1146302 -0.16521035 -0.024030855 0.24871376 -0.002477023
0.056417864 -0.296721 -0.098939575 0.35484427 -0.5067154 -0.023665357 0.57915616 -0.031384196
0.417258 0.304905 0.015239608 0.17458168 -0.3383466 -0.014603998 0.23846132 -0.33798316
-1.7029544 0.56379926 -0.41507748 -0.27548894 0.13151243 -0.059825774 1.6604064 0.787259
0.08125054 0.09690065 -0.17726158 -0.00029427608 0.23002635 -0.19208157 -0.3076701 -0.05814818
0.3267955 -0.048156284 -0.17851856 0.046499517 -0.08638795 0.22136523 -0.80269635 -0.41389146
00000000: e204 cb3e 7e85 b8bd 787a 15bc 00c5 d93e
00000010: 905e 95be 2190 bb3e f98e 5a3e d5c6 00be
00000020: 4e5a 95be 982b 4e3f d8f8 7ebe c1e6 5e3e
00000030: eeed 2ebc 32ad cabe b97c 433f f5d2 753f
00000040: 0460 9c3e a4d3 c23e 0638 8bbd 010b 01be
00000050: 5cc1 ce3c 9919 5e3e 77db 183f 6b83 6bbe
00000060: 5743 e5be 395e 673f 3366 d2be 1b5d 573e
00000070: 0da0 883e ad88 6abd 42e7 53bd bcfc 923f
00000080: 1ea7 49bf 77c8 95be 5114 2d3e 5417 6bbe
00000090: 877f 893f 7734 0dbd 4488 91bd 9db8 e8bb
000000a0: aa87 333e f44b f13e f1b4 a53e 9ace 633d
000000b0: c70d 283d 7c33 b03b c332 eabf accf 5cbe
000000c0: bcb6 bdbe 0de4 20be d981 c1be 27cf a5be
000000d0: e08d 0d3e 0f50 04be 179f 10bf bb77 803e
000000e0: ce29 373e 698b b5bf f496 b03e 3842 83be
000000f0: a1ed a8be 6e53 ca3e 56f4 86be eefa 9abf
00000100: e421 df3e d2cf 253e 07d6 a33e 729f 083f
00000110: bc06 87be a0d7 d43e 89fa 213f 1e94 27bc
00000120: cdd4 84be 6b97 573f 5ff2 b7be 13b0 dc3e
00000130: 2a86 62be 0fa6 fcbe 02e1 1b3f e4d9 543f
00000140: 47f8 aabd 5b0a 133c ff61 20bc 2a89 f33d
00000150: e0d8 6a3d 3f8e 893e d70d f9be 0241 92be
00000160: ca01 96be 7a11 ac3e 2ef7 0bbe d791 e03d
00000170: cf26 b93e 51fd e43c 8d06 18bf 14e5 d4be
00000180: d768 843e fe87 d2be e23e e4bd 2d76 17bf
00000190: 9264 ed3e 0693 21bf 33fe ca3e ce94 a33e
000001a0: d1d2 0840 2eb6 02c0 94fa 2a3f 9aed 2dbf
000001b0: e580 10bf c116 203f 36ef 86bf 1230 d43e
000001c0: 8c19 fc3d c272 013e db4c 23be c635 d0bd
000001d0: 9884 98be c0c5 1cbe 9807 ce3e 5197 07be
000001e0: f688 9cbe 6271 333f d074 02be 2152 853d
000001f0: 7929 183e ffcd 77be f12e ad3e 9f07 903f
00000200: ec14 54bd 91b1 1fbe 1997 ae3c 61a3 23be
00000210: a5f0 103e 29ea 09be a9c6 56be bc80 bd3e
00000220: 9f82 493f 375e 06bf 8821 c83e c52f b4be
00000230: a04c 36bd 3ba0 9c3e 3fdc bcbf 5c00 81be
00000240: a979 eebd 5cc6 80bd 6ad6 ab3d 6475 853e
00000250: b336 86bf e798 423e d103 d2be 4ecb a6be
00000260: 2ffa 91bf c2a3 bebd e77c 52bf d082 0c3e
00000270: 89f8 abbe fc43 06bf 3b75 2240 c988 24bd
00000280: 3dbb 213f f75a 3d3e 948a fd3d de99 113e
00000290: 06e4 2abe 919b 91bd 50af 143f 2c62 97be
000002a0: 9b08 3bbe d4e6 983f f8bb e3be 7e0e 0a3f
000002b0: f06e 613e dfbd b9be 25cb b43e e639 ac3f
000002c0: 2247 68be 255a 00be 88eb 0bba 6bc5 2fbe
000002d0: 1b6c 9e3d 0a41 8a3e 0c9d 9cbf 1dac d2bd
000002e0: b7ce e0bf c647 96bf 3b8b 8abe 8f64 963d
000002f0: 92c9 8a3e 617f 09bf fa62 663f 5496 893f
00000300: 107f d43d c400 7fbe 3926 bc3e 22f4 d6bc
00000310: 08e4 bfbe 38a1 9d3e bf59 d33e f181 a4be
00000320: 3f58 07bf 5f84 8b3d 797b c2be 6e8f f63d
00000330: 5730 84bc 216e 71bd 5971 283f 2aa0 163f
00000340: e7a5 993d 9ae8 353c eac6 823d 3dc3 eabd
00000350: e72c 29be 5bdc c4bc d2ae 7e3e 8d55 22bb
00000360: 6b16 673d d1eb 97be d5a0 cabd 26ae b53e
00000370: 1ab8 01bf dadd c1bc 9443 143f b78c 00bd
00000380: d7a2 d53e 821c 9c3e 8caf 793c 8ac5 323e
00000390: c43b adbe 9b45 6fbc 342f 743e 210c adbe
000003a0: 69fa d9bf 2655 103f 0985 d4be e30c 8dbe
000003b0: 32ab 063e df0b 75bd 3288 d43f ce89 493f
000003c0: af66 a63d d973 c63d 0f84 35be 1149 9ab9
000003d0: 078c 6b3e 08b1 44be ef86 9dbe c92c 6ebd
000003e0: bd51 a73e 863f 45bd 92cd 36be 4776 3e3d
000003f0: 2aec b0bd 91ad 623e 827d 4dbf 95e9 d3be

rhs.htx.2.bias f4 [16]
0.008278707 -0.086733945 -0.11941861 0.28367475 -0.37026304 -0.44705316 0.51030225 -0.28368837
0.17677239 -0.3661745 -0.2899479 -0.4789658 0.058970068 -0.17917532 -0.2714953 0.10353347
00000000: 6aa3 073c 91a1 b1bd bf91 f4bd d13d 913e
00000010: 1e93 bdbe 27e4 e4be 2ba3 023f 9a3f 91be
00000020: d203 353e 397b bbbe 0d74 94be 013b f5be
00000030: 998a 713d bc79 37be 6f01 8bbe 5b09 d43d

rhs.htx.4.weight f4 [4, 16]
-0.13396542 -0.6126389 0.23180778 0.21054508 -0.38221145 -0.027350647 1.2120435 -0.43203634
0.35475495 -0.5418627 -0.53352094 -0.9972168 -0.10341451 0.1983089 -1.9993833 -0.12832192
-0.5096701 0.20647079 0.5855596 0.17419167 -0.18983941 0.14055547 0.72929305 0.031070923
0.29348502 -0.6011616 -0.18943442 0.8705451 -0.13035776 0.09875477 1.0330755 0.16635045
-0.73263687 -0.6978854 0.30822763 0.86602783 -0.75633633 -0.106524035 0.28383332 -0.7429927
0.33597237 -0.17005432 -1.0005844 -0.16813451 -0.14634785 -0.28934863 -1.9433829 0.17178948
0.43933055 0.0632057 -0.8191451 -0.07662865 0.1853415 -0.40468028 0.34278396 0.15187974
-0.14174733 0.32829106 0.1870488 0.8635473 0.39975634 -0.10065946 0.027839268 -0.2660327
00000000: 3b2e 09be e7d5 1cbf 055f 6d3e 2199 573e
00000010: 38b1 c3be 770e e0bc 3e24 9b3f de33 ddbe
00000020: 71a2 b53e 84b7 0abf d494 08bf 9a49 7fbf
00000030: fdca d3bd 7d11 4b3e cbeb ffbf d266 03be
00000040: bd79 02bf 146d 533e 3ce7 153f 4d5f 323e
00000050: 4365 42be c6ed 0f3e f3b2 3a3f 7388 fe3c
00000060: ab43 963e bae5 19bf 19fb 41be 0bdc 5e3f
00000070: 817c 05be f13f ca3d d13b 843f c657 2a3e
00000080: 178e 3bbf 9ea8 32bf 03d0 9d3e 00b4 5d3f
00000090: 429f 41bf 4629 dabd 9a52 913e c534 3ebf
000000a0: 9204 ac3e b822 2ebe 2613 80bf 742b 2cbe
000000b0: 36dc 15be 8125 94be c5c0 f8bf 95e9 2f3e
000000c0: efef e03e fd71 813d 7eb3 51bf 7bef 9cbd
000000d0: 2aca 3d3e 4132 cfbe 6181 af3e 5d86 1b3e
000000e0: 3626 11be c415 a83e b889 3f3e 7011 5d3f
000000f0: ddac cc3e 8c26 cebd 2d0f e43c 7035 88be

rhs.htx.4.bias f4 [4]
0.38113588 0.039279383 0.2457286 -0.10507047
00000000: 3e24 c33e 6be3 203d 47a0 7b3e 302f d7bd

rhs.power.0.weight f4 [16, 2]
-0.9085518 0.5561951 -0.68593395 -0.3668267 -0.16229944 -0.32170615 0.74666685 -0.10059962
0.77354467 0.06612566 -0.37101725 0.73384553 0.82100075 0.54397345 0.92354536 -0.37722266
-0.0386673 0.6623604 1.0435139 0.37132964 0.06903072 0.07442577 -0.011579662 -0.2358371
-0.59741616 0.37577298 0.84073234 0.31829032 -0.35075474 0.042644877 0.19321637 -0.2264434
00000000: da96 68bf cd62 0e3f 5e99 2fbf b6d0 bbbe
00000010: d331 26be abb6 a4be 8f25 3f3f 2c07 cebd
00000020: 0607 463f e46c 873d f9f5 bdbe 4ddd 3b3f
00000030: 1b2d 523f d841 0b3f 786d 6c3f 5423 c1be
00000040: 9a61 1ebd 7490 293f dd91 853f eb1e be3e
00000050: fa5f 8d3d 8a6c 983d 9fb8 3dbc 487f 71be
00000060: 44f0 18bf 5165 c03e 3c3a 573f f3f6 a23e
00000070: 2096 b3be 65ac 2e3d 83da 453e c7e0 67be

rhs.power.0.bias f4 [16]
-0.32643688 -0.5932797 0.5826661 -0.048584927 -0.09972123 -0.13865046 0.03433778 0.2770451
0.50488776 -0.3700565 0.32396683 0.35721466 0.289031 0.7403437 0.5099689 0.16810471
00000000: bc22 a7be 2ee1 17bf 9b29 153f fd00 47bd
00000010: a53a ccbd 63fa 0dbe c6a5 0c3d dbd8 8d3e
00000020: 5340 013f 0c78 bdbe fbde a53e d7e4 b63e
00000030: dffb 933e 2a87 3d3f 528d 023f a423 2c3e

rhs.power.2.weight f4 [16, 16]
-0.06831181 -0.13368742 0.17993283 -0.2369114 -0.28823596 -0.1472252 -0.35542196 0.13277525
0.073348664 -1.3068992 0.06257431 0.19110414 0.32801855 0.10912918 0.1238598 -0.10928134
0.25693735 0.10115758 -0.18805894 -0.04543146 -0.19153512 0.006240536 0.035042323 -0.23477505
0.15595692 -0.36112705 -0.00056616485 -0.062362477 0.34406388 0.10523671 0.026581537 -0.00027386134
0.05757582 -0.10738237 0.14291659 -0.28939635 -0.18066764 0.27668348 0.1046007 0.08926201
0.1192403 -0.33570898 0.118606076 -0.21152914 0.018208517 -0.14619744 -0.014790966 -0.17731202
0.034556724 -0.031227343 -0.047965292 -0.24720873 -0.19757359 -0.007701547 -0.37245974 -0.30257818
-0.0042950935 -0.44747177 -0.16247827 -0.08817261 0.6028961 -0.07471605 0.005151952 0.029240869
0.13381836 0.20603111 -0.17221664 -0.29083145 0.0009407935 0.22799106 -0.12273105 0.03369638
-0.051548664 -0.38375285 0.112398915 0.20188342 0.118034534 -0.0036468906 -0.029554125 0.04001754
-0.036370184 0.250351 -0.0066838297 -0.21515842 -0.20431152 -0.11877096 0.0560342 -0.17902663
-0.0014183242 0.21011713 -0.16407317 -0.088374935 -0.29097474 -0.051364817 0.17170332 -0.060510103
-0.24718983 -0.019960742 0.22667849 0.30705276 0.49148926 -0.03230174 0.47017676 0.13040216
0.17779346 0.7046761 0.29916456 0.0073766587 -1.0603373 0.156886 -0.10629326 0.13964228
-0.1257207 0.069970764 -0.1679318 0.17705221 0.3781711 -0.030401794 0.36822757 0.30155447
0.26958558 0.611819 0.29062715 0.10924433 -1.298843 0.35019234 0.23119132 -0.115715496
-0.2469349 -0.15753235 0.26687598 0.47058254 0.2948298 -0.07019761 0.054713804 0.21731043
-0.012855208 1.0087335 0.14738792 0.122982524 -1.1707985 0.3327527 -0.028782556 0.3075742
0.16217889 -0.04139798 -0.0013518775 0.09128988 -0.21063139 0.2329005 -0.3118018 0.112827
-0.100852005 -0.8508317 0.15672293 0.17451224 0.27561918 -0.15039434 -0.097362615 0.042822488
0.055582535 -0.3549771 -0.09243487 0.17651445 0.43939045 -0.14143617 0.44706208 0.34287462
0.13429964 0.7526278 0.025090158 -0.020333262 -1.0673794 0.37189418 -0.050661836 0.28855854
0.09479562 0.1745322 0.014188427 -0.31884718 -0.5411466 0.12978503 -0.4739537 -0.24740334
-0.19319408 -0.75302327 0.06435398 -0.2949473 0.5340694 0.02897205 -0.2774901 0.1287411
-0.0013823195 0.100981496 0.24779083 -0.17451875 -0.45139623 0.071951374 -0.41501763 -0.21032476
-0.0799182 -2.41363 0.26914123 0.01713254 0.81519413 0.06177635 0.21195178 0.5770768
-0.046810128 -0.074910566 0.27436262 0.5025828 0.2975206 -0.090177305 0.3034291 0.31145936
0.01954675 0.9002376 0.15477718 0.07581803 -1.4991983 0.2802191 -0.1464253 0.006735495
-0.33585906 -0.042565938 0.032252066 0.4990722 0.5651551 0.075521104 0.19226277 0.19862986
-5.5488432e-05 1.0372094 0.17954546 0.18932104 -0.8136501 0.34270865 0.033592634 0.24123421
-0.0012412973 0.15608831 -0.23416089 -0.1324065 -0.18644333 -0.11782011 -0.3047738 -0.056480702
-0.07990352 -0.6131967 -0.25353608 -0.24026099 0.24885434 -0.2113948 -0.049813543 -0.02631717
00000000: 10e7 8bbd 5be5 08be 5040 383e e798 72be
00000010: aa93 93be 34c2 16be def9 b5be 3cf6 073e
00000020: d337 963d 7948 a7bf f626 803d ceb0 433e
00000030: 0cf2 a73e 1f7f df3d 35aa fd3d e5ce dfbd
00000040: 4b8d 833e b52b cf3d 8692 40be 5716 3abd
00000050: c821 44be 697d cc3b 8a88 0f3d df68 70be
00000060: 2cb3 1f3e a5e5 b8be ae6a 14ba cc6f 7fbd
00000070: 2429 b03e 5886 d73d 86c1 d93c 0c95 8fb9
00000080: 9fd4 6b3d 4aeb dbbd ba58 123e c22b 94be
00000090: f000 39be 75a9 8d3e e438 d63d 00cf b63d
000000a0: 4234 f43d 0ce2 abbe bee7 f23d 189b 58be
000000b0: 072a 953c c8b4 15be cf55 72bc 4891 35be
000000c0: 5a8b 0d3d 7cd0 ffbc 4177 44bd 4924 7dbe
000000d0: bb50 4abe 425d fcbb 0bb3 bebe 87eb 9abe
000000e0: dbbd 8cbb 051b e5be b460 26be d793 b4bd
000000f0: 6657 1a3f ba04 99bd b5d1 a83b 8c8a ef3c
00000100: ae07 093e d2f9 523e 8f59 30be dce7 94be
00000110: 959f 763a 7d76 693e 6b5a fbbd 3705 0a3d
00000120: b124 53bd 417b c4be 6731 e63d 87ba 4e3e
00000130: 17bc f13d ac00 6fbb 7e1b f2bc 6fe9 233d
00000140: e7f8 14bd 022e 803e 0704 dbbb 7d52 5cbe
00000150: 0a37 51be 303e f3bd 1e84 653d c252 37be
00000160: 10e7 b9ba f228 573e cc02 28be ebfd b4bd
00000170: a4fa 94be ea63 52bd ffd2 2f3e 71d9 77bd
00000180: 551f 7dbe b684 a3bc 681e 683e 0536 9d3e
00000190: 7ba4 fb3e d44e 04bd 02bb f03e 2588 053e
000001a0: 7d0f 363e a765 343f 192c 993e e6b7 f13b
000001b0: 22b9 87bf b9a6 203e 48b0 d9bd 63fe 0e3e
000001c0: edbc 00be d54c 8f3d 50f6 2bbe 2d4d 353e
000001d0: a49f c13e 2f0d f9bc 5388 bc3e 5965 9a3e
000001e0: 1f07 8a3e 2ca0 1c3f 15cd 943e 7ebb df3d
000001f0: 7d40 a6bf 694c b33e 6bbd 6c3e 3ffc ecbd
00000200: 81dc 7cbe 2950 21be f8a3 883e 32f0 f03e
00000210: eef3 963e c4c3 8fbd 951b 603d a086 5e3e
00000220: a69e 52bc 2e1e 813f dcec 163e 43de fb3d
00000230: badc 95bf 905e aa3e 65c9 ebbc 5e7a 9d3e
00000240: 3912 263e ee90 29bd 7b31 b1ba 30f6 ba3d
00000250: c1af 57be 787d 6e3e 7ca4 9fbe d811 e73d
00000260: 7f8b cebd 1bd0 59bf fa7b 203e 56b3 323e
00000270: f51d 8d3e f900 1abe 0d66 c7bd a266 2f3d
00000280: 83aa 633d 8fbf b5be 7e4e bdbd 34c0 343e
00000290: c9f7 e03e a5d4 10be 52e5 e43e 438d af3e
000002a0: d885 093e 37ac 403f e089 cd3c f191 a6bc
000002b0: e39f 88bf ea68 be3e c982 4fbd f2bd 933e
000002c0: 3524 c23d 92b8 323e 9376 683c f03f a3be
000002d0: 9588 0abf 5ee6 043e 0faa f2be 4d57 7dbe
000002e0: abd4 45be 22c6 40bf 05cc 833d 5503 97be
000002f0: c6b8 083f cb56 ed3c 2f13 8ebe b5d4 033e
00000300: f22e b5ba 63cf ce3d e1bc 7d3e 0bb5 32be
00000310: 681d e7be 3e5b 933d 317d d4be 605f 57be
00000320: 27ac a3bd ea78 1ac0 e1cc 893e 8a59 8c3c
00000330: 90b0 503f 3309 7d3d e309 593e 4ebb 133f
00000340: fabb 3fbd b66a 99bd 4279 8c3e 44a9 003f
00000350: 9f54 983e e1ae b8bd 0f5b 9b3e 9a77 9f3e
00000360: 8120 a03c f975 663f e97d 1e3e 7c46 9b3d
00000370: bbe5 bfbf e178 8f3e 84f0 15be 6db5 dc3b
00000380: b8f5 abbe 9f59 2ebd be1a 043d 6486 ff3e
00000390: 01ae 103f cfaa 9a3d 88e0 443e a065 4b3e
000003a0: 40bc 68b8 47c3 843f c4da 373e 60dd 413e
000003b0: 5f4b 50bf 8277 af3e 6e98 093d 1a06 773e
000003c0: 07b3 a2ba 9dd5 1f3e dfc7 6fbe 9295 07be
000003d0: 00eb 3ebe ab4b f1bd 500b 9cbe 4f58 67bd
000003e0: 75a4 a3bd 75fa 1cbf 7bcf 81be fa06 76be
000003f0: acd3 7e3e e177 58be 4909 4cbd 1b97 d7bc

rhs.power.2.bias f4 [16]
-0.022045491 -0.00429581 0.04537233 -0.07687915 -0.034748394 -0.081930265 0.006453981 -0.017616445
-0.049543522 -0.12187662 -0.10174398 -0.12520157 0.27437133 -0.084042095 0.15071225 -0.26925322
00000000: bf98 b4bc dec3 8cbb 56d8 393d d172 9dbd
00000010: 5554 0ebd 0ecb a7bd eb7b d33b 5d50 90bc
00000020: 26ee 4abd 739a f9bd 265f d0bd d734 00be
00000030: 667a 8c3e 431e acbd 5054 1a3e 8fdb 89be

rhs.power.4.weight f4 [2, 16]
-0.15913497 -0.17025965 0.016545689 -0.23716107 -0.052820347 0.08441269 0.13045458 0.09949266
0.12971559 -0.41688052 0.28185895 -0.34506607 -0.6088941 0.502729 0.3033036 -0.3107693
0.26590276 0.16588329 0.18830259 0.1668251 0.098928735 0.02742998 -0.45146805 -0.31930476
-0.44595584 0.12640445 -0.5513074 0.33005884 0.7087628 -0.098928414 -0.2989999 0.13533692
00000000: 47f4 22be 8c58 2ebe d38a 873c 5ada 72be
00000010: 265a 58bd 8fe0 ac3d e395 053e cfc2 cb3d
00000020: 2ad4 043e 5d71 d5be d14f 903e 80ac b0be
00000030: 7ce0 1bbf d9b2 003f 9c4a 9b3e 271d 9fbe
00000040: 6824 883e 4fdd 293e 65d2 403e 33d4 2a3e
00000050: 269b ca3d d6b4 e03c d226 e7be ea7b a3be
00000060: 5354 e4be 2b70 013e 7b22 0dbf 79fd a83e
00000070: 7b71 353f fb9a cabd 8416 99be c395 0a3e

rhs.power.4.bias f4 [2]
0.24550135 -0.23835276
00000000: b564 7b3e bf12 74be
