onnx_models/roast_stepper.onnx (onnx, 11312 bytes, 6 tensors)

rhs.htx.0.weight f4 [3, 1]
0	0x3f82af14	1.020968
1	0x3f6387db	0.88879174
2	0x3f83d03f	1.0297927

rhs.htx.0.bias f4 [3]
0	0xbe650b15	-0.22367509
1	0xbee3a622	-0.44462687
2	0xbe63eaa7	-0.22257482

rhs.htx.2.weight f4 [3, 3]
0	0x3f1dbee6	0.6161941
1	0x3f2bf818	0.67175436
2	0x3f1fb0ff	0.6237945
3	0x3ee7621d	0.45192042
4	0x3e6cf2d1	0.23139502
5	0x3ee57ddc	0.44822586
6	0x3f2fe5b2	0.6870986
7	0x3f32ce55	0.6984609
8	0x3f2f1c3c	0.6840246

rhs.htx.2.bias f4 [3]
0	0xbf2daac8	-0.67838717
1	0xbb33046f	-0.0027315875
2	0xbe56a732	-0.20962217

rhs.htx.4.weight f4 [4, 3]
0	0xbef9b5da	-0.48771554
1	0xbddb5ed6	-0.10711448
2	0x3ee9aaa9	0.45638016
3	0x41061f0f	8.382583
4	0x406b64f9	3.678038
5	0xc0a72c70	-5.2241745
6	0xbee5787e	-0.4481849
7	0x3e222765	0.1583534
8	0x3e556728	0.20840132
9	0xbf91e3a6	-1.1397598
10	0xbe4304f6	-0.19044861
11	0x3f178c79	0.5919872

rhs.htx.4.bias f4 [4]
0	0xbf33fa18	-0.7030349
1	0xc035e58a	-2.842135
2	0xbfc36d21	-1.5267678
3	0xc0377554	-2.8665361
