onnx_models/state_estimator.onnx (onnx, 12362 bytes, 8 tensors)

net.0.weight f4 [32, 13]
00000000: ce47 cdbd eb26 b3be dc06 823f 945e c6bc
00000010: bce8 c8be e10e dd3f f490 ca3d f39a 33be
00000020: 0f0a f43f 00a2 66bd 9383 37be 1fa3 0640
00000030: d84f afbf 126e 393e 67f6 dcbd f9c1 ba3e
00000040: d3c4 f0bd 8dab 11be 8b56 783e f033 e23a
00000050: 343c 33be 43d8 8abe 5244 1bbd 4fbf 3cbe
00000060: a832 4fbf 98fc c43e ddd5 86bd a57d 563d
00000070: 66ba fe3e 2522 4d3e 8166 23be 2ebb cc3f
00000080: d48f 15bc 7e4a 05be c8cf 8c3d be9f 3ebe
00000090: 4bbe 873d a24f b6bf c3c2 a7be feb7 003e
000000a0: 7a07 123e d2ea 05bc a2f7 a93d 9b8f 82bd
000000b0: c1ec 29be b9ba 6a3e c94c 2d3d a492 c1bc
000000c0: 5429 78bd 2a53 32bd 3191 fe3e 272f 0f3e
000000d0: f160 083e cbc4 58be 3bd3 953f 6678 02be
000000e0: 0b58 73bd 9f6f a83d fa30 bebd fb9e 72bd
000000f0: 0d3a c7be f2ed 8cbe 77f3 f6bd 16f4 e3be
00000100: 0692 d83e c17b d3be 4dd0 b2be 3bad cbbd
00000110: 8fff 0fbe b75d 91be f607 bcbe d3fb 67be
00000120: ff04 be3d 12a0 d3be 93a0 91bd ca69 ff3d
00000130: c802 21bf ff19 d13c e558 b0be f015 84be
00000140: 2f5b ab3d 5a45 06bd 2bc6 99be 63a9 d8bd
00000150: 1228 02be a1f5 453d 8283 743d 28dd ba3d
00000160: f45c a7bd 241c 0e3e ddeb b73e 67e7 9fbd
00000170: 173f 48be 3de6 0e3f 1051 dcbc 5211 8b3c
00000180: 7ecf 8cbd 2cf0 4ebe 4119 ac3d 1d59 d1bd
00000190: 4c76 eb3d d1a4 973c 88b1 ccbd 56b5 143e
000001a0: f52e a0bd 5e1a ef3d 6377 a3bf beea d2bc
000001b0: 1539 543e 779f 27bf 4e48 c13d 7575 18be
000001c0: d9bd 8e3e acee 90bd 0935 7fbe 1919 823f
000001d0: f44b 5abe d988 f3be 5423 b0be ba7f dbbe
000001e0: ddd7 893b 359c efbd 2414 0a3f f9c4 5fbc
000001f0: f1f1 2fbe 8997 353e d5f1 673e c4df 8f3e
00000200: c80b 74be 448b 6cbe ef69 93be 42ad a8bd
00000210: ff24 07c0 9412 72bc d0df 693c 8e1d 16bf
00000220: 134b 813e 9290 a53e d083 343f e5c6 473e
00000230: a2e7 b83d c068 c63f 86b3 aabd ffd1 7f3d
00000240: 3875 84be 8703 cd3f 5eef 99be 2146 84be
00000250: d935 aebf 48fa c5bd 5bdf 3c3e edf0 62bf
00000260: 8f75 683e f645 27bd 7892 2e3f f3ed 043d
00000270: 67c0 1d3e 0414 72bc 5a96 8d3f 96fa 0bbe
00000280: de4b 3ebd 209b 8ebe 09d5 3cbd 9d10 2abe
00000290: 773a bdbe a74b 4abc 3f51 283e 83ab 80bd
000002a0: 4ab7 033c 9b22 33be eeac 34be c362 b83f
000002b0: 080b c0be 366e b8be af0b 50bf 5b78 edbc
000002c0: f3a9 91bd 5a90 14bf fc31 f43d 38a4 423d
000002d0: dbf2 b83e d8cc 093f 8225 043f 2c58 ee3e
000002e0: 58e5 7c3e e0b5 6c3e 65ba 903e ad7a 3a3d
000002f0: 7eb7 d3bc 4ea1 d5bd fe6d 9ebd de21 08bf
00000300: 2921 79be b2e8 3dbf 0022 75bd 4e1b f03e
00000310: 0a18 283e 20fa f73f 254c 9e3d fb55 4a3e
00000320: 495c 403f a9d8 59be 748a 98bd 336c 1fbf
00000330: a9cd 99be ebb6 c9bd 3f31 c9bf aacb f93e
00000340: 11af 933e cd25 5d3d 2492 8f3f f88d 2dbe
00000350: 50d1 2ebe 58c1 3ebf ac5c 61be de20 d7bd
00000360: 06da f1be 940e 0fbe 9121 04be a5f5 c63d
00000370: 2984 de3e 13c7 88be a059 b9be 2d92 4f3d
00000380: 3de9 62be abc8 9fbd 7b27 74bf 3672 ddbc
00000390: 8008 513d 5e56 3dbe c977 b83e 113d 84bc
000003a0: efd3 1f3f 8bca 33be 215e 9bbd 1bdd b6be
000003b0: 4197 2e3f b180 b5bd d6c0 eabd bd7f 84bf
000003c0: 0aa5 5fbe f006 9dbd d281 b7be 2339 233e
000003d0: 18d2 8ebb 58ec 393f 5dea 1f3d 2a93 093e
000003e0: 49c4 bbbd 347a 3e3f b4be babc b390 df3d
000003f0: 194b 493e 8df0 04be 20d2 ad3c f67b 17bf
-0.10023461 -0.3499063 1.0158343 -0.02421502 -0.39240062 1.7270166 0.09890929 -0.17539577
1.906557 -0.05630684 -0.17921285 2.1037061 -1.3696241 0.18108395 -0.10789185 0.36476114
-0.11756291 -0.14225598 0.24251764 0.001725791 -0.17503434 -0.2711812 -0.037906952 -0.18432353
-0.8093667 0.38473964 -0.0658376 0.052365918 0.49751586 0.20032556 -0.15957071 1.5994623
-0.00912853 -0.13016698 0.06875569 -0.18615624 0.066280924 -1.4243052 -0.3276578 0.12570187
0.14260665 -0.008173661 0.08299185 -0.06375047 -0.1659422 0.22922792 0.042309556 -0.023629494
-0.06058629 -0.043536343 0.49720147 0.13982831 0.1331823 -0.2116882 1.1705087 -0.12741241
-0.059410136 0.08224415 -0.09286685 -0.059233647 -0.38911477 -0.27525288 -0.12058156 -0.4452216
0.42298907 -0.41305354 -0.34924546 -0.099451505 -0.14062332 -0.2839181 -0.36724824 -0.22654657
0.09278297 -0.4133306 -0.07110705 0.124713495 -0.6289487 0.025525091 -0.3444282 -0.25797987
0.08367001 -0.032780983 -0.30034003 -0.10579183 -0.12710598 0.048329953 0.059695728 0.091242135
-0.08172026 0.13877922 0.35922137 -0.07807808 -0.19555317 0.55820066 -0.026894122 0.016976032
-0.068755135 -0.20208806 0.08403254 -0.10222075 0.11497173 0.018511208 -0.09994799 0.14522299
-0.07821456 0.11674951 -1.2770809 -0.0257467 0.207249 -0.654777 0.09437619 -0.14888556
0.27879217 -0.07076773 -0.24922575 1.0163909 -0.21318036 -0.47565344 -0.34401953 -0.42870885
0.004206641 -0.11699716 0.5393698 -0.013657802 -0.17182137 0.17733587 0.22650845 0.28100407
-0.23832619 -0.231 -0.28791758 -0.08236171 -2.111633 -0.014774937 0.014274552 -0.58638847
0.2525259 0.3233686 0.7051363 0.19509466 0.090285555 1.5500717 -0.08335023 0.062456127
-0.2587068 1.6016701 -0.30065435 -0.25834754 -1.3610183 -0.09666878 0.18444578 -0.88648874
0.22701095 -0.040838204 0.68192244 0.03245349 0.15405427 -0.01477528 1.1061509 -0.1366981
-0.04645907 -0.27852726 -0.046101604 -0.166079 -0.36958668 -0.0123471385 0.16437243 -0.06282713
0.008039305 -0.1749367 -0.17644092 1.440514 -0.37508416 -0.36021584 -0.8126783 -0.028988054
-0.07112493 -0.58032763 0.11923596 0.047519892 0.36122784 0.5382819 0.5161973 0.46551645
0.24696863 0.23116255 0.28267208 0.04552715 -0.025844332 -0.10431157 -0.07735823 -0.5317668
-0.24329056 -0.7418319 -0.059846878 0.46895832 0.1641542 1.9373207 0.07729367 0.19759361
0.75140816 -0.21274056 -0.07448283 -0.62274474 -0.3003972 -0.09849342 -1.5718154 0.48788196
0.28844503 0.053991128 1.1216474 -0.16948688 -0.17072034 -0.7451377 -0.22008008 -0.10504316
-0.4723665 -0.13970405 -0.1290343 0.09714822 0.43460205 -0.26714382 -0.3620119 0.050676513
-0.22159286 -0.07801946 -0.9537274 -0.027032 0.051033497 -0.18489978 0.3602889 -0.0161424
0.6243276 -0.17557733 -0.07586313 -0.35715565 0.68199545 -0.088624366 -0.11462562 -1.0351483
-0.21840301 -0.07667339 -0.35841233 0.15939765 -0.004358541 0.72626257 0.039041866 0.13435045
-0.09168298 0.7440522 -0.022796012 0.10916271 0.19657554 -0.12982388 0.02121836 -0.59173524

net.0.bias f4 [32]
00000000: 9dec 533f fbb7 7bbd ed89 60bd 0763 dcbe
00000010: 80c5 193f e170 dc3e 2d34 353f cfcf 2dbe
00000020: 87fc b9be 2d57 6b3e a428 1bbf c32b df3e
00000030: bb52 aebe 2775 1c3f ec5c 1bbf df5f 10bf
00000040: 692e 12bb 498f bf3e 62ad 483f dbfd 1fbf
00000050: ef65 30bf 96c6 0d3f 5df6 7abe 38be d53e
00000060: 193a 8cbe 7298 b73e 71a6 0fbe 2b1f d3be
00000070: 4e03 b4be b5e7 a2be 3a3b f0be 84ba 96be
0.8278292 -0.061454754 -0.054819036 -0.43044302 0.60066986 0.4305487 0.7078274 -0.16973804
-0.36325476 0.22982474 -0.6060889 0.43588075 -0.34047493 0.6111626 -0.6068866 -0.5639629
-0.0022305495 0.37414005 0.7838956 -0.6249673 -0.6890554 0.55381143 -0.24508043 0.41746688
-0.27388075 0.35858494 -0.14028336 -0.41234717 -0.3515877 -0.31817403 -0.46920186 -0.29439175

net.2.weight f4 [32, 32]
00000000: 505e 69be 7a8e 46bd 23ce 30be 1354 d03d
00000010: 458e abbd 76a1 b5be f9c0 c3bd 3f3d 5a3e
00000020: 6e4c 993d a804 f8bd 00ab 943e 7dc3 22be
00000030: 7ee3 e4bd 432b 36be cd40 713e ae6c a03d
00000040: 7d2e 373d ea56 d6bb 69d3 e8bc ef27 f5bb
00000050: 027f aa3e c54d 9bbd e256 2a3d 2753 4f3c
00000060: e3d1 7a3e 304a 0cbe 1b43 963c aad4 c1bc
00000070: 7523 d03e f5cb 8f3d d618 ce3e 5f24 36be
00000080: da8b bdbf 037b 2ebe 23b9 febc a6b1 563d
00000090: 6075 32bd 4e10 b2be dddd 0abe ec17 26bd
000000a0: e7ad 90bc b428 44be d240 9b3b f90f a5bd
000000b0: 44b4 c93d 9493 2dbe fab6 14bc 0597 8d3d
000000c0: c0e3 9f3d 5ac9 46be c32c 9abd b2bc 613d
000000d0: 3d31 873e 27a1 dcbd f414 9abd 7c40 05be
000000e0: ef83 2ebd 3a83 ccbe b75c 5b3c 6e64 a43d
000000f0: 9739 35bd 5efc a33e 73bf 3e3d f8d0 2e3e
00000100: 9c45 833f 2d50 51be 9891 e4be 0133 633e
00000110: 77c9 99be 391a 98bc 278f 803e 98f9 f4bc
00000120: 8e21 4fbe bcac 8f3e fe3b 883f abeb 8f3e
00000130: 5ae4 153e 3293 8f3e c1ce 5fbf 5b0d 8fbf
00000140: 5127 743d 843a cc3e 3e55 a13d 1da4 57bd
00000150: 4543 2bbe 0678 833e 0f84 58be 8def 33be
00000160: d4a4 353e e6da 0540 0300 35bf 9643 d5bd
00000170: b500 c4be c6cd f9bd c75e 5ebf da72 8b3c
00000180: 63f7 47bd 8762 62bd 2be1 c63e a1c6 233e
00000190: 3d78 763e 0a2f febd fa2a ba3e 5cd4 edbb
000001a0: fb19 24bf bf4c 6e3e 434c 96be eaa0 be3e
000001b0: 43b0 ea3d 80aa ac3d d9f1 63be 7a64 edbc
000001c0: cc88 4bbe e556 ec3b cfb8 0c3f 70c3 7b3d
000001d0: 1014 0d3e 2b7b 693e 8b71 a5bd 40d3 893e
000001e0: 9854 8dbf 16d8 bb3f d7e0 a13e d6ca b53d
000001f0: f0f6 cbbe 548c 373e c6ea 41be c1a0 e53e
00000200: 4c9e 193f 6e17 99bd c968 f2be 260c b4bd
00000210: aef8 5a3e 4d56 1fbe 26f0 1d3f 8394 17be
00000220: e466 913e 194c 2dbe 07a1 d93e 0ccd 9ebd
00000230: b5d0 dbbe 3134 d73d 9891 1ebf 2b7c 92bf
00000240: 4be3 d73d 5c63 ad3e 2662 8b3e 9fb0 f8be
00000250: 9746 a5be a389 883e 979b 89be cac8 623d
00000260: d282 923b 8830 5c3f 770b 0abf 4ea7 0bbf
00000270: d2f6 e2bc a66a 10be 7b12 113f d691 28be
00000280: 2c20 e0be d245 9cbd 39d7 823e 8717 b6bd
00000290: 9fee 32be b765 3bbd 7c66 acbe 2d70 9a3c
000002a0: db00 773d 2508 13be 31b6 8e3e b597 3fbe
000002b0: dac4 443e 5902 08bf 1525 313f d027 19bf
000002c0: 10a9 073d 5649 883d a7e7 aabe f934 d33e
000002d0: b9d1 5c3e ca7e abbe 44d3 483e afa8 1fbc
000002e0: 0937 aa3d 5bbe b93e 12d8 df3e 4811 0a3e
000002f0: 1518 e43d 6fd7 17bd b097 813f e956 b53d
00000300: 4b8e 8dbe 3bc1 563e 4760 a1bd 6b91 6dbf
00000310: 3c06 8b3e 139b 9a3f 02b9 083f 6f2c a7bd
00000320: 8d92 203f 68ee abbd b17a 5e3e 17ea b1bd
00000330: d761 8abe bfd1 4abd 259c f83d 89cd f63f
00000340: fb16 5d3e 963d d63e 9a23 f43d d309 9ebd
00000350: f30b 99bf 1a09 2d3c b801 153e d1e6 8bbd
00000360: 93e8 8e3e d5c7 90bd e80f e6bd e8fe 3dbc
00000370: a9b0 4d3d e4bd cdbf 0cd3 0a3e 10cc 62be
00000380: bb91 763d 5d71 d73d ef37 04ba f01c 0a3e
00000390: 2b2f 3cbe 2484 b1be 7b23 6bbe 5824 403d
000003a0: 656b 00bd de42 27bb eb2b 5b3e b3dd 833c
000003b0: 0700 bc3d 9305 8fbe d14d 9f3d dd7e 20be
000003c0: 301b 81be 6042 6ebc ce9a b6bd 2b5a 303e
000003d0: 3723 c93e b4f8 593d 0679 7b3d d5af adbd
000003e0: d8e7 febd 0fe9 c33e 3520 a63d 0a2d b83d
000003f0: 3041 9e3d 4f92 6e3e 7612 6f3e 8c5a 00be
-0.22789884 -0.04847572 -0.17266135 0.10172286 -0.08376745 -0.35474747 -0.09558291 0.21312426
0.07485281 -0.12110263 0.29036713 -0.15894885 -0.11176203 -0.1778994 0.23559876 0.07833229
0.04472207 -0.0065411227 -0.02842112 -0.007481567 0.33300024 -0.07583193 0.041586764 0.012654102
0.24494128 -0.13700175 0.018342545 -0.023660976 0.40652052 0.070213236 0.40253323 -0.17787312
-1.4808304 -0.17039113 -0.03109414 0.052415513 -0.04356897 -0.34778064 -0.13561197 -0.040550157
-0.017661048 -0.19156152 0.004737952 -0.08059687 0.09848836 -0.16950828 -0.009076828 0.0691357
0.07807112 -0.19412747 -0.07528069 0.055111594 0.26404753 -0.10772925 -0.07523528 -0.1301288
-0.04260629 -0.39943868 0.013388804 0.08026968 -0.044244375 0.32028478 0.0465693 0.17071903
1.0255618 -0.20440741 -0.4464233 0.22187425 -0.30036518 -0.018567191 0.25109217 -0.029904172
-0.20227644 0.28061473 1.0643308 0.28109488 0.1463789 0.2804199 -0.87424856 -1.1175951
0.059607808 0.39888394 0.07877587 -0.052646745 -0.1672488 0.25677508 -0.21144126 -0.1757185
0.17738658 2.0914855 -0.7070314 -0.104132816 -0.3828179 -0.12197451 -0.8686337 0.017022539
-0.04881991 -0.055269744 0.38843665 0.1599374 0.24069305 -0.12411316 0.36360914 -0.007257981
-0.64102143 0.23271464 -0.29355058 0.37232143 0.114594005 0.08430958 -0.22260226 -0.028978575
-0.19876403 0.007212507 0.54969496 0.06146568 0.13777184 0.22800891 -0.08078297 0.26918983
-1.1041441 1.4675319 0.31616852 0.088765785 -0.39836836 0.17924625 -0.18937215 0.44849208
0.60007167 -0.07475172 -0.4734557 -0.0879138 0.21383926 -0.15560265 0.6169456 -0.14802746
0.28398812 -0.1692356 0.42505667 -0.07753953 -0.42932668 0.105080016 -0.6194091 -1.1444143
0.105413996 0.33864868 0.2722332 -0.4857225 -0.32280418 0.26667508 -0.26876518 0.05536727
0.0044711614 0.8601155 -0.53923744 -0.5455216 -0.027705584 -0.14103183 0.56668824 -0.16461882
-0.43774545 -0.07630505 0.25554827 -0.08891206 -0.17473839 -0.0457513 -0.3367194 0.018852318
0.06030355 -0.14358576 0.27873376 -0.18710215 0.19215718 -0.5312858 0.6919721 -0.59826374
0.033120215 0.06654613 -0.33379862 0.41251352 0.21564378 -0.3349517 0.19611841 -0.009744807
0.083112784 0.36278042 0.43719536 0.13483155 0.11137406 -0.037070688 1.0124416 0.088544674
-0.27647623 0.20972149 -0.078796916 -0.92800015 0.27153194 1.2078575 0.534073 -0.08162772
0.6272362 -0.08395082 0.2172649 -0.08687227 -0.2702777 -0.049516436 0.12139157 1.9281474
0.21590798 0.4184386 0.11920853 -0.077167176 -1.1956772 0.010561252 0.14551437 -0.06831134
0.27911815 -0.07069365 -0.112335026 -0.011596419 0.050217304 -1.6073575 0.1355707 -0.22148156
0.060197573 0.10519669 -0.0005043735 0.13487601 -0.18377368 -0.34671128 -0.22962753 0.04690966
-0.03135242 -0.0025522034 0.21403472 0.016096925 0.09179693 -0.2793394 0.07778514 -0.15673395
-0.25216055 -0.014542192 -0.089162454 0.17221896 0.3928468 0.053215697 0.061394714 -0.08480803
-0.124465644 0.38263747 0.08111612 0.089929655 0.07727277 0.23298 0.23346886 -0.12534541

net.2.bias f4 [32]
00000000: b0ae ab3d 018b 97bc 0cb2 b63e 22c2 183f
00000010: 53fb 0c3f ec1b fabe 4661 6a3e c393 dfbd
00000020: 1854 2dbe 3221 d6bd d5f2 8e3f 25ca 01be
00000030: 2774 c43e a41e 16bf c486 80be e894 b8bd
00000040: c2b5 99bd ff92 873e b5a8 79be 8fb8 ccbc
00000050: fbdd 97be 0378 d23e 9073 733f e768 ad3f
00000060: 08d4 81be 1975 e6bd de56 8d3e 2b9c d4bd
00000070: b631 efbc c7d2 c73e 2f02 4abe 29d3 4abe
0.08382928 -0.0184989 0.35682714 0.59671223 0.5507099 -0.48849428 0.2288867 -0.10916855
-0.1692661 -0.1045555 1.1167856 -0.12674768 0.38369867 -0.58640504 -0.25102818 -0.090127766
-0.07505371 0.26479337 -0.24380763 -0.024990348 -0.29661545 0.41107187 0.9509821 1.3547639
-0.2535708 -0.11252803 0.27605337 -0.10381349 -0.029198509 0.39027998 -0.19727395 -0.19807114

net.4.weight f4 [32, 32]
00000000: a6b8 01be 42b4 fa3b 9920 903e 1c1e 853f
00000010: 9897 503c e788 fc3e a218 aabf cf8d 78bf
00000020: 786c 0d3f 7cd2 a03e b6b7 6a3e 01f1 623e
00000030: e82d 513e ecaa dcbf d077 1fbf 6fd4 28be
00000040: 90ee 023f e052 a3bf d062 883e b79d 1dbe
00000050: c73f 2abf a173 51bd accd 3e3e b771 093f
00000060: d34e 103f 4dfb 6f3e fb0d c1bd 5c9c f73e
00000070: 83d6 f1be 400f a0bf 18ef 8e3c 3f0a 0a3d
00000080: 5969 cf3e 8a79 abbd 0b5d ad3e 6fa3 50be
00000090: 9872 8e3f 0e3d 20be 7312 3dbe 260c e7bd
000000a0: 50ad d3bc 57cf 97bd 85fd 91bd ff48 553e
000000b0: fa36 6d3e 9981 0ebf 5a91 71bf dadb 03bd
000000c0: 5e3b d23d e235 b5be 758f 623d 08be 19be
000000d0: c24c 863d 9fe9 b83b 3cf6 84bd c286 e2bf
000000e0: 3517 f2bd e61c d0bd cd74 423f 1592 a53e
000000f0: 9ef0 893b 201f 203b fda6 03bd 4e2d 2f3d
00000100: 37d9 3f3d 5365 c53d df16 90c0 8c3c c93e
00000110: e741 f9be 97a3 273e 7dc8 a0bc 6cb2 543d
00000120: 4008 cebd eba1 75bd 1da6 093f cc20 85bc
00000130: be67 dbbd 32b3 a63f e095 20bf c24f 683e
00000140: 9728 a6bd a726 f6bf f2d7 093d 4c1a 833e
00000150: 9137 17be baa8 7b3b 7ef5 1fbd b698 94bf
00000160: 9fbf e6be f0f6 433d 4a3a 2fbf 4f51 d83d
00000170: 9538 713e ee05 9d3e d2e0 a8be 3325 823d
00000180: 2dd9 fabe d452 66bf 00c2 d83f 81a2 1dbe
00000190: 93a8 53be 8e28 84bf d652 d73f 2138 babf
000001a0: f2fc 03bf 0bd4 c63e 451c 243e 2523 873e
000001b0: bb16 6cbd 6c22 bebd 187c 38bf 2ee0 4cbf
000001c0: 101e 2b3f b45f 45be 6116 f63e ae8b 31bf
000001d0: 3f6f a2bf 4106 1a3e 3c06 053e 2507 1d3f
000001e0: a81b 0dbd a0c8 883e aa12 b83e 4c5b d0be
000001f0: aa47 fcbe 8ac3 cdbd 3625 bf3e 0d49 a83d
00000200: 707b 9c3e 49d0 b4be 8405 d73d 576e 633e
00000210: 2a88 febe 3781 85bf 88ae bebe 093c 02bf
00000220: bc2c ff3e 6046 b6bd 9d63 f9be f919 be3d
00000230: a08c 733d 8b31 68bf 981a 273e 0dd2 1e3d
00000240: 0d0e 213e a7a3 3cbf af04 3f3d 5817 f33d
00000250: 42b2 a93d 6c0f c23e a92e 2e3d eeb5 003f
00000260: 15af 0f3e 481e b23e e68e c73e 9211 283f
00000270: aa2a 65be 83bc e73e 7b51 62bf 0074 7dbd
00000280: 195a 9fbe 6a49 d13e cf1c 53be d872 f6bf
00000290: 65c0 d03e 9050 fe3e b506 29bd 74c6 933d
000002a0: 06b8 5a3f 0fa2 093d c59a e6bf 54a7 4fbe
000002b0: 8cfd f9ba d605 a33d 8016 75be 1486 77bc
000002c0: 4006 98be ae7f 6c3f c3e7 753e ee8f 073e
000002d0: 53ed b73d 98ed fdbe a40f 9ebf 37b6 88be
000002e0: 52c7 cfbe e5aa 46bd 4b12 60bf cce5 9cbe
000002f0: cb16 323e 3a2e 8bbd e095 fb3e 139d 0ebe
00000300: fabf e23e c5bc 1b3f baf4 45c0 83f3 d13e
00000310: d32c a63c c799 6cba aabb e5be 009d 883e
00000320: 70ed 6a3e 6ab7 1abe 65f8 db3e 10c0 f4bd
00000330: 4044 383e 6c92 973f ef9a d4c0 d940 053f
00000340: ff29 7cbe e194 993d 7790 cebd 69be 123f
00000350: 229f 183e 3638 50be 6485 453e 48e8 4cbb
00000360: 9362 c6be b2ca aabd 172f 873f 1b2c e9ba
00000370: 3460 7f3e 249e 71be 593b 5b3e e77e 0dbe
00000380: 2a89 7d3e f496 c73d c0dc d0bd d4bc 523f
00000390: 16bb 29be 6ef8 253f 7c36 213f af18 4f3e
000003a0: bb9d 00bf eb28 a5be 50ad 96bf 5bae 803e
000003b0: fe71 733e d185 6e3d c11c 19bf a024 d93d
000003c0: 52f9 d33d 7c66 903e f1b2 4a3e 2db7 8d3e
000003d0: 4cf9 2f3e 2f35 9a3f 4362 0abf 7a8f d73e
000003e0: 062a 923e f192 03be de3a 033f ad99 ee3e
000003f0: f592 31bd 684d 8fbe c64b 76be 3f28 863e
-0.12668094 0.007650883 0.2814987 1.0399814 0.012731455 0.49323198 -1.3288767 -0.9709138
0.55243635 0.31410587 0.22921643 0.22162248 0.20427668 -1.7239661 -0.62292194 -0.16487287
0.5114527 -1.2759666 0.26637888 -0.15392195 -0.66503567 -0.051135663 0.18633145 0.5368914
0.56370276 0.23435707 -0.09426495 0.4836148 -0.47233972 -1.2504654 0.017447993 0.033701178
0.4051006 -0.08372791 0.3386005 -0.20374845 1.1128721 -0.1564829 -0.18464069 -0.11281614
-0.025839478 -0.07412594 -0.07128433 0.20828627 0.23165503 -0.556665 -0.94362414 -0.03219209
0.1026523 -0.35392672 0.055312593 -0.15013897 0.06557609 0.005643084 -0.06492278 -1.7697375
-0.11820833 -0.10161762 0.75959474 0.32338014 0.004209592 0.0024432614 -0.032141674 0.042767815
0.04683801 0.09638467 -4.502792 0.39304006 -0.48683092 0.16370998 -0.01962685 0.05192797
-0.10060167 -0.05996887 0.53769094 -0.01625099 -0.107131466 1.3023436 -0.6272869 0.22686675
-0.08113211 -1.9230546 0.033653207 0.25606 -0.1476729 0.003840013 -0.03905248 -1.1609104
-0.4506807 0.04784292 -0.6844832 0.105623834 0.2355674 0.30668586 -0.32984024 0.063547514
-0.48993817 -0.89970136 1.6934204 -0.15394022 -0.20669775 -1.0324876 1.6822155 -1.4548379
-0.5155784 0.3883365 0.16026409 0.26394 -0.057638865 -0.09283909 -0.7206435 -0.8002957
0.66842747 -0.19274789 0.4806395 -0.6935376 -1.26902 0.15041448 0.1299066 0.61339027
-0.034450203 0.26715565 0.3595174 -0.40694654 -0.49273425 -0.10047062 0.37333077 0.08217058
0.30562925 -0.3531516 0.10499099 0.2221006 -0.4971326 -1.0430058 -0.37242532 -0.50872856
0.49838817 -0.08900142 -0.4870881 0.09282298 0.059460282 -0.90700597 0.16318738 0.03877454
0.15728016 -0.73687214 0.046635326 0.11869687 0.08285953 0.3790239 0.042524967 0.502776
0.14031632 0.34788728 0.3897621 0.6565181 -0.22379556 0.4526101 -0.8840558 -0.061878204
-0.31123427 0.40876323 -0.20616458 -1.9253798 0.40771785 0.4967084 -0.041266162 0.07215586
0.8543705 0.033601817 -1.8015982 -0.20278674 -0.0019072755 0.079600975 -0.23934364 -0.01510765
-0.29692268 0.92382324 0.24014191 0.13238499 0.08980813 -0.49595332 -1.2348523 -0.2670152
-0.40581757 -0.04850282 -0.8752791 -0.3064407 0.17391507 -0.067959264 0.49137783 -0.13927107
0.44287091 0.60834914 -3.093062 0.41006097 0.020285046 -0.00090256 -0.4486974 0.26682281
0.22942138 -0.1510903 0.42962947 -0.119506955 0.17994785 1.184156 -6.643913 0.52052075
-0.24625395 0.074990995 -0.10086148 0.5732179 0.14904454 -0.20333943 0.19289166 -0.003126638
-0.3874708 -0.08339442 1.0561246 -0.0017789634 0.24939042 -0.23595482 0.21409358 -0.1381794
0.24759355 0.09745589 -0.10198355 0.8231938 -0.16575274 0.648322 0.6297376 0.2022426
-0.5024068 -0.3225778 -1.1771641 0.25133023 0.23773953 0.058233086 -0.598095 0.10602689
0.103502885 0.2820319 0.19794823 0.27678815 0.17184943 1.204748 -0.54056185 0.4210165
0.28547686 -0.12849022 0.512617 0.4660162 -0.04335304 -0.27988744 -0.24052343 0.2620258

net.4.bias f4 [32]
00000000: 2f1c e4be b9c3 073e ab42 a23e df95 343e
00000010: 2d16 54be bcf5 9ebe 7f4c 513d 514b 3abe
00000020: b481 58bf a200 833d 26e7 87be d9c5 4bbe
00000030: d18d 9ebd e46e 3cbe 869e 8a3d e1b0 28bf
00000040: 8969 d73e fe5e c2be 5aaa c63e 239f bcbe
00000050: 23cd 823e 18e3 993d afe2 6a3e 0d13 1dbe
00000060: f793 dc3e 9c50 febc 6277 633d 33a9 bfbd
00000070: 1265 ce3d 1b3d 153e 4b4e 17be 2556 18be
-0.44552752 0.13258256 0.3169149 0.17635296 -0.20711584 -0.31046855 0.051098343 -0.18192793
-0.8457291 0.06396605 -0.2654354 -0.19899692 -0.07741893 -0.18401676 0.06768517 -0.65894896
0.42072704 -0.37963098 0.38801843 -0.36840162 0.25547132 0.07514018 0.22938035 -0.15339299
0.43081638 -0.031044297 0.055533774 -0.09358444 0.100778714 0.14574091 -0.1477596 -0.14876612

net.6.weight f4 [6, 32]
00000000: e388 a63c 184f dd3d 13ac f93c eb1b 8e3f
00000010: bd2c 0b3c f452 3ebf ce5f 05bd df59 543e
00000020: 2157 3fbf 18ca febd 04ef 0a3b 9eaa 823c
00000030: 2e6f a5bd cdc1 01bd 1791 893e 30dc 6ebe
00000040: 4edf cbbe fa7b f1bd 4dee fa3e 9938 cabe
00000050: d806 b33e 8860 7a3e 609a 0c3e 8d47 5fbe
00000060: c260 d83e d0a4 a23c d985 2e3e 916d 0cbe
00000070: ffbe d9bd 8b50 23bf 88ed 8f3c 921d a9bc
00000080: 2147 aa3d 6c05 b03d 2fbd 873e b98c 44be
00000090: a688 dbbc 6ce6 583e 1397 213f 8ac2 9bbd
000000a0: 46f5 4c3e 3149 1fbf 9ba9 e53d dc96 ff3c
000000b0: 2f40 d53e cf58 2b3c 52b0 d3bc 0904 153e
000000c0: a07a 1abe 0b4c 983d 3d4f 24be 1f6c 383d
000000d0: 9aca 14be f5bb 22be 2059 013e 8c8b 343f
000000e0: 6ded 533e d32a 5a3c e10f 2a3a 1504 943e
000000f0: 680c 9ebd 8008 593e 3098 de3a c6ce 5cbc
00000100: 1f2c a4be 73ac 1d3f a37e 153e 20a2 43bd
00000110: 1422 443e 854a b03d 8270 8abd f049 b5bd
00000120: 67d4 a43e 92ce c4bd b12c 11be d5b5 82be
00000130: 74c2 263e d11f 113e 4b57 48bd 0690 993d
00000140: 6b3e 9bbd b4f8 a83d a893 3d3e c19f 423e
00000150: 6e3c d03e be99 26be f0fc a33e 8a2f 333f
00000160: 76f0 0abe 176c 7cbe f820 123e 7140 f03d
00000170: 4339 8a3d 864f e63e bc57 95be d156 f7bd
00000180: 6b5f f2c0 a833 0abe 4786 3b3d 5549 ddbd
00000190: a48f 46c0 61c3 4bbd e342 ef3c e41c 67bd
000001a0: f228 3b3e 4453 193e 73e4 64c0 2356 a23f
000001b0: 9472 d73e cf6a bbbf dcde df3c e5ec db3d
000001c0: f0b2 a5bd c5a4 93bf 16ff b6bc 661b 583f
000001d0: 4f7d 133f 3acb 50bd 33cc 11be 084b 783d
000001e0: 9288 c9bd 0377 77bd fe42 823c 5b10 5cbb
000001f0: 5af4 413b 6575 f9bc 917a 0e3e 18d8 fe3d
00000200: 81be a2bc d088 bc3c e260 b83c 2a82 c43d
00000210: 0032 6440 ab6c 13be f5cf 3ebc 4961 383d
00000220: 34e2 2bbe 27cb 353d e0bc bd3f a4c1 72bf
00000230: bab4 053d df75 843f b3a9 01bd bb68 8ebc
00000240: 3f96 2fbe 570f d13e 2b4a 7f3e 2c25 0fbc
00000250: 0e79 d43e 33de 55bd 0538 903d fbcd ca3d
00000260: dd52 3b3e ff58 8dbe a4cb 5e3d dc3b afbc
00000270: 9144 6dbc 9784 173d bc2b d9bf 3b58 993d
00000280: dabd 01bf 4bdd b5be 28bd 1fbf a589 78bf
00000290: d969 113e 3d27 cabe 2d32 f83c 323c ef3e
000002a0: 467d 373f 5732 b6bd 72ce 44bf 3349 a43e
000002b0: 4e61 ddbe 7c33 43be ee69 39be 46f8 16bf
000002c0: 1983 2f3f a697 7fbe e3d1 7dbe a3fd dc3e
000002d0: f138 c33d 5e5a 413f 9782 083e e020 6b3f
000002e0: b6a3 8bbe a6b2 47be c733 8cbf f63d fc3d
000002f0: be39 f83f 36bb 443f 7feb d1bc 0a52 aeba
0.020328945 0.108061016 0.03047756 1.110227 0.008494553 -0.74345326 -0.03256207 0.20737408
-0.74742323 -0.1244089 0.0021199593 0.015950497 -0.080778465 -0.031678963 0.26868507 -0.23326182
-0.39818805 -0.11791225 0.49009934 -0.39496306 0.3496616 0.24450886 0.13730764 -0.21804638
0.4226132 0.01985398 0.17043246 -0.13713671 -0.10632133 -0.63794774 0.017569318 -0.020643983
0.08314348 0.08594784 0.26511523 -0.19194306 -0.026798557 0.21181649 0.63121146 -0.07605465
0.2001544 -0.62221056 0.1121399 0.031199865 0.4165053 0.010458185 -0.025840912 0.1455232
-0.1508584 0.07436379 -0.16045852 0.045024987 -0.14530411 -0.15892012 0.12631655 0.7052543
0.2069604 0.013315874 0.00064873515 0.28909364 -0.0771721 0.21194649 0.0016982611 -0.013477033
-0.32064912 0.6159126 0.1459909 -0.047762036 0.19153625 0.086079635 -0.067597404 -0.08851993
0.321933 -0.09609713 -0.14177205 -0.25529352 0.16285115 0.14172293 -0.048911374 0.074981734
-0.07580265 0.08250561 0.18513358 0.19006254 0.40671104 -0.16269585 0.32028913 0.69994414
-0.13568291 -0.24650608 0.14270389 0.11731041 0.06749203 0.44982547 -0.291685 -0.12077106
-7.5741477 -0.13496268 0.045782354 -0.108050026 -3.1025171 -0.049746875 0.029206699 -0.056424037
0.18277338 0.1497317 -3.5764434 1.2682537 0.42079604 -1.464197 0.027327947 0.107385434
-0.0809077 -1.1534659 -0.022338431 0.84416807 0.5761308 -0.050975062 -0.14238052 0.06061843
-0.09840502 -0.060416233 0.015901085 -0.0033579085 0.0029595108 -0.030451486 0.13913943 0.1244356
-0.01986623 0.023014456 0.022507135 0.09595139 3.5655518 -0.14396922 -0.0116462605 0.045014653
-0.16785508 0.044383194 1.4823265 -0.9482672 0.032643057 1.0348471 -0.03165598 -0.017383924
-0.17147158 0.40832016 0.24930637 -0.00873689 0.41498607 -0.05221386 0.07041935 0.09902569
0.18293329 -0.2760696 0.054393426 -0.021390848 -0.01448168 0.036991682 -1.6966472 0.07487532
-0.50680315 -0.35520396 -0.62398005 -0.9708503 0.14200534 -0.3948306 0.030297363 0.46725613
0.7167553 -0.0889632 -0.7687751 0.32087097 -0.432383 -0.19062608 -0.18106815 -0.58972585
0.68559414 -0.24960193 -0.24787097 0.4316226 0.09532345 0.75528514 0.13331066 0.9184704
-0.2727334 -0.19501743 -1.0953301 0.123165056 1.9392622 0.7684816 -0.025624989 -0.0013299596

net.6.bias f4 [6]
00000000: 5776 ee3e b723 13be f58e f83e f2a4 dd3e
00000010: 080e 293e ccb3 b53d
0.4657466 -0.14369093 0.48546568 0.43289906 0.16509259 0.08872184
