onnx_models/state_estimator.onnx (onnx, 40096 bytes, 6 tensors)

net.0.weight f4 [128, 41]
00000000: 21c2 ee3c d2d5 bdba 73c0 1a3e 7800 77bc
00000010: 65da 2d3c 95b5 0bbe 1f10 30bd c6ba c5bc
00000020: 44e7 28be 168a 67bd 4317 d1bc d44e 14be
00000030: 9697 9bbd ceda 43bd 2137 76be be91 db3a
00000040: 3b83 50be 6258 6ebe b8f5 f8bd 9db1 babf
00000050: 7190 0fbe 2e27 39be 3b04 2cbe c59a ffbd
00000060: 3b14 a4c0 fc94 42be e1e3 37be 883c f6bd
00000070: 3b33 eabd b974 ccc0 7d81 59be af5b 55be
00000080: 20bc cbbd 6f6c f7bd f2e9 c3c0 6a21 febd
00000090: ae71 21be e7bc 01be af84 11be 3975 b4c0
000000a0: ebfd 7dbd d9d0 28bd 3eeb 98bd 8f33 933e
000000b0: 17bc b0bd eab0 aebd 6058 3abd 0efc cdbd
000000c0: b4fd dcbd 83c0 18be ae14 edbd bcd8 cbbd
000000d0: 82bc 4abe a81b 0ebe 8954 f3bd af57 a4be
000000e0: 64b6 edbd 2603 a1ba b684 8dbe f692 87be
000000f0: 0fd8 04c0 9dd1 78be 75a2 cc3c f7bf 5cbe
00000100: cb95 88be 0988 c3c0 eb0d 7cbe 1a64 a73c
00000110: 1761 27be 968e 7bbe 78c9 eec0 6607 fbbd
00000120: 5cca 61bc 78f4 2bbe eafa 83be 1e8c dec0
00000130: 76cb 00be 944a f2bc 321f 51be 3de9 84be
00000140: f931 cfc0 84aa a13c cbd3 993d c619 83bc
00000150: f661 413f 6bef 123c 6c52 21bd d222 873e
00000160: 3ddf 6bbd 7188 32bd 8477 00bd c712 b1bd
00000170: 091c a7bd 8ce6 6cbe 9285 1bbe cd97 b8bd
00000180: c0ad 1abf a519 9abd f5a0 89bc 8301 75be
00000190: 6108 80be 3049 1ac0 833d e1bd 7c88 e23a
000001a0: d4e0 55be 1c24 86be b3e9 b9c0 6e40 aebd
000001b0: b02e 76bd 0e93 ecbd 4950 6dbe 05ed e5c0
000001c0: fe83 a3bd d434 d0bd 83ee bdbd 8f50 80be
000001d0: eafc e3c0 e38a fb3c 2fd1 d8bd 08ea f8bd
000001e0: f16f 7fbe 9847 e6c0 51ab 0a3e 18cc 1abe
000001f0: 3f19 9fbc 62b2 49bf 8627 0dbe 58af 61b9
00000200: 163e 44bf 4ad2 87bd 5410 5fba 4aab a7be
00000210: 8be5 9a3c 3474 c0bc 48ab 8b3e b6be ba3d
00000220: c2cf f1bc f6ad 433f 9604 ae3f 4642 d53e
00000230: 5daa 99be 2226 1bbf e69f 2dc0 3c88 7e3f
00000240: 7af5 853e 1bed 82be fa53 17bf 4dee 9ac0
00000250: ecfb 513f 270e cf3d 70aa 80be 523a 1dbf
00000260: 410a aac0 cb0c 513f 834c ba3c 9344 74be
00000270: 7abd 1cbf e4d1 58c0 b371 403f 0925 1dbd
00000280: 0c90 82be 8a50 1abf 0918 bebf 039f 163e
00000290: 9c3c c9be b325 ddbd 3635 dfbe 8e1d c4be
000002a0: e1ab 03be cf33 1dbf e113 babe 842a 31be
000002b0: 17e3 2ebf c6b4 babe 9eab 2fbe cdfb 35bf
000002c0: 9168 b3be 937f 5cbe 8dfa 52bf 324b 393d
000002d0: 6725 31bd 5f1a 313c c50e 30be c37f 0abf
000002e0: 0ffa fdbd 501b d7bc b8d5 1b3d b0ea 35be
000002f0: be6c 1b3f 7b61 64be 5971 96bd fb4f cf3c
00000300: ebb4 32be 0005 373f 110e 93be 1fd2 07be
00000310: d9b5 143d 930a 35be fda7 f93e 3499 d0be
00000320: 1eaf 51be a8de 1a3d 4bee 27be 086e b23e
00000330: b501 843e 25d6 a93e 9128 de3d 8400 c03f
00000340: 9121 403e f8db a43d 52e4 4f3f de12 553d
00000350: 7bd7 293d b880 b43d 9861 14bd 2005 ca3c
00000360: 95c9 07bf 33a0 38be e4b9 ccbb d2e0 a7bf
00000370: 7e10 e6bd 235f 91be b1ab 31bd c1d2 b23e
00000380: e06a 33c0 4452 ad3d 3b81 9fbe 9d32 1fbd
00000390: b976 b23e 8093 d7bf a5d0 453e 319a cabe
000003a0: ede7 ddbc af59 c13e 27e5 27c0 9518 6cbc
000003b0: 8c2a 02bf 9290 ffbc 8b0b c53e c52b 7ac0
000003c0: e16e 043e 89af 10bf cabc 81bc eda3 c03e
000003d0: a62d 66c0 fcc0 863e 026b 983b d71b 41bd
000003e0: 322a b13e 5633 3cbd 7536 5bbd ab8c 6dbc
000003f0: 5ac5 1abd f0a0 7dbd 13c2 53be d6cf 96bd
0.029145302 -0.0014483279 0.15112476 -0.015075795 0.010611151 -0.13643487 -0.042984124 -0.024136912
-0.16494471 -0.056528173 -0.025523787 -0.14483196 -0.07597272 -0.04781609 -0.24044468 0.0016751809
-0.2036256 -0.23275903 -0.12156242 -1.4585453 -0.14019944 -0.18081352 -0.16798489 -0.12480692
-5.1274695 -0.19002146 -0.17958023 -0.12023264 -0.11435553 -6.3892484 -0.21240802 -0.20835756
-0.09947991 -0.12081229 -6.122308 -0.12408717 -0.15766022 -0.12669717 -0.14210771 -5.6393094
-0.062009733 -0.041214798 -0.07466744 0.28750274 -0.08629625 -0.085298374 -0.045494437 -0.10057841
-0.107905775 -0.14917187 -0.1157621 -0.09953448 -0.19798473 -0.13877738 -0.11881358 -0.32098147
-0.11607054 -0.0012284264 -0.27640313 -0.2647931 -2.0756872 -0.24298711 0.02497981 -0.21557604
-0.26676783 -6.110356 -0.24614684 0.020433474 -0.1634563 -0.24566111 -7.4620934 -0.122572705
-0.013781156 -0.16792476 -0.2577737 -6.954604 -0.12577614 -0.029576577 -0.20422056 -0.25959197
-6.47485 0.019734628 0.075110994 -0.0160035 0.755401 0.0089682145 -0.039385244 0.26393753
-0.057585943 -0.043587152 -0.03136398 -0.086461596 -0.08159644 -0.23134822 -0.15187672 -0.09013329
-0.6042137 -0.075244226 -0.016800383 -0.23926358 -0.25006393 -2.410717 -0.109980606 0.0017283107
-0.20886546 -0.26199424 -5.8097777 -0.08508383 -0.06010312 -0.11551486 -0.23175158 -7.185183
-0.0798416 -0.10166326 -0.09274008 -0.2506146 -7.1246233 0.030705875 -0.105867736 -0.12154013
-0.24945046 -7.1962395 0.13541915 -0.15116918 -0.019421218 -0.78787816 -0.13784608 -0.00021522993
-0.76657236 -0.06631906 -0.0008509208 -0.3274787 0.018908283 -0.02349291 0.27279115 0.091184065
-0.029518012 0.7643732 1.359515 0.41652125 -0.3001279 -0.6060506 -2.7128844 0.9942663
0.26163846 -0.25571522 -0.59112513 -4.8415895 0.8202503 0.10110121 -0.25130033 -0.61417115
-5.3137517 0.81660146 0.022741562 -0.23854284 -0.6122662 -3.3878107 0.7517349 -0.038365398
-0.25500524 -0.6027914 -1.4851085 0.14709096 -0.39304054 -0.10798206 -0.43595284 -0.38303798
-0.12858535 -0.6140718 -0.3634329 -0.17301375 -0.6831526 -0.36466044 -0.1715531 -0.7108734
-0.35040715 -0.2153304 -0.8241356 0.045237727 -0.04324856 0.01080951 -0.17193134 -0.541012
-0.124012105 -0.02625814 0.038045615 -0.17765307 0.607128 -0.22302811 -0.07345838 0.025306692
-0.17451827 0.71492004 -0.2872167 -0.13263749 0.036306236 -0.17679815 0.48760977 -0.40741885
-0.20476958 0.037809998 -0.16399495 0.34849572 0.25782552 0.33171192 0.10847581 1.5000157
0.18762805 0.08049768 0.81207764 0.052019946 0.041465264 0.08813614 -0.036225885 0.024660647
-0.53041965 -0.18029861 -0.006247746 -1.3115485 -0.112336144 -0.28392896 -0.04337663 0.34926417
-2.8033981 0.084629565 -0.31153283 -0.038866628 0.34856203 -1.6841888 0.19317873 -0.39570764
-0.02708813 0.37763736 -2.6233613 -0.014410158 -0.5084617 -0.031196866 0.3848537 -3.9089215
0.12932922 -0.56517845 -0.015837092 0.37625065 -3.5965362 0.2631911 0.004651428 -0.04714569
0.34602505 -0.045947395 -0.05351873 -0.01449887 -0.037785865 -0.06192106 -0.20679502 -0.0736386

net.0.bias f4 [128]
00000000: b5ad 86be a4c3 b6be a755 b5be 8592 adbe
00000010: 869e b1bc e9c5 19be 311d 23be e85e fdbd
00000020: c244 6ebe c02b 95be 224a 75be a0d1 8dbe
00000030: 5cfa 84bd 790f 90be 0928 84be 9c5b e0be
00000040: 618b 1fbd 1192 92be 86b9 85be a731 b5be
00000050: 3461 65be 2964 6dbe 2e61 37be 5f61 62be
00000060: c6ef 5abe 6a70 53be 0ac0 88be 74b4 03bf
00000070: e4ed 84be 8432 19be 5712 61be 3c39 18bf
00000080: 1bfe 8fbe 0331 8bbe a030 b8be 81c9 7abe
00000090: 7d63 adbd 4852 13be 6b98 febe 23c3 35be
000000a0: b296 8abe e3b8 1cbe b9fa cabe 45cb 91be
000000b0: d73c 64be 9772 55be 9b43 633e 5022 b7be
000000c0: c69d e8be 806d debe 6423 62be b039 9fbe
000000d0: 9630 6ebe b7b7 b2bd 7acc 16be cb54 6cbe
000000e0: 29f6 8ebe 50dc 4bbe 8f65 0abf ff8c 03bf
000000f0: bd96 93be 1275 1bbe 6907 74be fd5e bfbe
00000100: ad9a 83be 40f9 abbe 07e0 99be dc7c 0fbe
00000110: a14b 72be 02c9 fdbd 58ea b6be d574 f3bd
00000120: 53f6 aebe 622f afbe 7897 eabd f651 4abe
00000130: a45f 83be 114b 41be 33ec 6cbe 5595 b0be
00000140: e8c8 b3be 6969 b6be 5fa3 c5be 9bd0 97be
00000150: 944a 58be b6fc a5be f047 41be ab86 71be
00000160: e048 d23c fd45 40be 8357 a9be da91 f1bd
00000170: 5176 cfbe 0833 a0be 4ac5 34be e0bf f3be
00000180: fe8b 54be db4e 42be 84b5 9bbe 78af 6bbe
00000190: aa07 49be 6712 9ebe 08a9 58bf 270e c2be
000001a0: bcab 93be 8791 b6be fe4b aabe b4c6 ebbd
000001b0: 255e 56be 6ccd 01be 3289 e9bd 99a9 2cbe
000001c0: 42f5 02be cb2d 96be 97e6 49be 8caa 90be
000001d0: 4309 9cbe a8a4 83be 64f1 d9be 0f68 afbe
000001e0: fedb 84be 1981 0fbe a9b2 c3bd 4ad2 16be
000001f0: 5771 04bf abd3 9fbe 9c2f bcbe a119 8fbe
-0.26304403 -0.35696137 -0.3541691 -0.33900848 -0.021682035 -0.15016903 -0.15929104 -0.123716176
-0.23268417 -0.2913494 -0.2395406 -0.27698994 -0.06493065 -0.28136805 -0.25811794 -0.43819892
-0.03895128 -0.28627065 -0.26118106 -0.35389444 -0.22400361 -0.2318274 -0.17908165 -0.22107457
-0.21380529 -0.20648351 -0.26709014 -0.51447225 -0.25962746 -0.14960676 -0.21979652 -0.5946233
-0.28123555 -0.2718583 -0.35974598 -0.2449093 -0.084662415 -0.14386857 -0.4972566 -0.1775022
-0.27068096 -0.15304904 -0.3964441 -0.28475395 -0.22288834 -0.20844494 0.22193758 -0.35768366
-0.45432872 -0.43442917 -0.22083813 -0.310987 -0.23260722 -0.08726447 -0.14726439 -0.23079221
-0.2792218 -0.19908261 -0.54061216 -0.5138702 -0.28825942 -0.15181378 -0.23830952 -0.37377158
-0.25703946 -0.335886 -0.30053732 -0.14012474 -0.23661663 -0.12391855 -0.35725665 -0.11887518
-0.34172305 -0.34215838 -0.114546716 -0.19757828 -0.25658906 -0.18876292 -0.23136978 -0.3448893
-0.35114217 -0.35627297 -0.38601205 -0.2965134 -0.211222 -0.32419366 -0.18875098 -0.23586528
0.025669515 -0.18776698 -0.3307458 -0.11795397 -0.40519956 -0.31288934 -0.17653385 -0.47607327
-0.20756528 -0.18975393 -0.30411923 -0.23016155 -0.1963183 -0.30873415 -0.8463292 -0.37901422
-0.2884196 -0.35657904 -0.33261102 -0.11512509 -0.20934351 -0.12676018 -0.11403121 -0.16861571
-0.12788871 -0.29331812 -0.1971687 -0.28255117 -0.30475816 -0.2571156 -0.4256698 -0.34259078
-0.2594909 -0.1401409 -0.09555561 -0.14728656 -0.5173544 -0.31216177 -0.36755073 -0.2794924

net.2.weight f4 [32, 128]
00000000: 9006 afbd 33e6 dfbd c7fd d23d 4198 c2bd
00000010: a5c2 08be 7b19 0f3e 235b 8c3d 2245 ef3c
00000020: 50d2 8b3d 1493 89bd ba77 a43d ce68 50bd
00000030: 1ccf bb3d 8a5c 75bd 9280 f23d 917d 6cbd
00000040: eae5 eebc 8726 1dbc 5338 2ebd ad89 803d
00000050: 590c bf3c d5dc 1abd 9d29 da3b 1930 793e
00000060: 2b79 fcbd 1ebc 8bbd 1848 393e 50fb 143d
00000070: b5de af3c 4421 a0bb 0129 91bd a559 4e3d
00000080: 035c 7f3d 0045 d93d a402 ddbb 7be6 1f3d
00000090: d928 703d 95b7 b4bd 7d12 25bd 83b9 843e
000000a0: 5aa1 3f3e 4007 bebc 58c1 493d 9468 8ebc
000000b0: 935b 02bd 8939 263e aee4 dd3d f101 8ebe
000000c0: 9df1 f8bc d3dc 133d 96d0 c2bd 786f 8e3d
000000d0: 3e3e 313e beb8 febc e11c 093e 6dfb 863d
000000e0: 6d42 d53d d733 e6ba 9a8b d93e dbf5 b33e
000000f0: 4ca0 bebd e2e8 3c3d ed2a 02bd 8313 e63b
00000100: 570e efbc 6a3e 803d 3e26 c83b 2c9b 013c
00000110: 2bc2 47bd d529 0abd 3816 99be d4af 713d
00000120: 89d6 91bd 3a24 c3bd e0ce cfbd 8469 bc3c
00000130: 7858 68be f554 143d e116 143e fe15 5a3e
00000140: 8b7b 103e 5b16 72bc 6694 65bd b11c c8bc
00000150: bb4e 323d 85fa e0bd 8e01 473c 8b95 123d
00000160: b8b9 9b3e 9963 01bd e948 7a3c 7798 9a3d
00000170: ad40 5dbc 9a2e 33bb 2a22 1d3d f158 433e
00000180: 448a 153c 64a0 853d bb80 83bb 970b a2bc
00000190: 69c4 863e c04e 8f3d 663a 6a3e 1b26 a1bd
000001a0: 5fca 773d ca3d 19bd faeb f73c 53c7 a43d
000001b0: e29e 8f3d d873 073d 5f4e 29be 53a7 3b3c
000001c0: 0a0d 343c 24c5 563c 8a39 743c a977 edbc
000001d0: 3625 37be 1ab3 b33b 3608 1a3d d39b 7d3d
000001e0: 093b 4d3d ba49 6abe 3f89 ab3d 66fb 1b3c
000001f0: 2946 d23d ab38 8d3d 70d4 a73c 4cf9 debb
00000200: ea2a 97be ad8c 813d bf38 5e3e d92c 573e
00000210: c6af 91be c2d6 efbe b55e 4f3d 2d60 fb3e
00000220: c556 9d3e 7277 71be c012 3a3d 1acf ae3c
00000230: b834 cf3e cb67 7bbe d17e 833e 2fc6 9a3d
00000240: 34e1 a1be d93e 4abe 12ff d3bd 9372 89be
00000250: 32e2 143d f1cd aebd d9d5 f43d c165 0e3c
00000260: 3e49 00be 2b97 c5bd 266d 5a3e bf33 883e
00000270: ca7b bd3d 1eff 5fbe 9e3d a6bd 3dcf 4fbe
00000280: 54e1 9a3d 7df2 3cbe 926b d73c d2b8 2f3e
00000290: abaf 133e ed56 a53b 2d62 01bf 20e6 1b3e
000002a0: 2c41 0ebe baf3 653e 847b 2b3e 53b8 b8bc
000002b0: a714 83bb 97a0 993e 2631 733e 37dc 42bf
000002c0: 6ab6 203d 8f85 b0bd 74f2 983d 0186 21bc
000002d0: f734 67be 2c60 93bc 1dcf 343e bec6 a13d
000002e0: 29ce 7bbe 7020 15bd 7f87 133f 0ad2 f2bc
000002f0: 0c06 b7be cb4e 2cbe 4925 54bd c427 c53d
00000300: b1ad 56bb 1054 473e 9ff4 74bc 1ae5 6c3d
00000310: f467 8c3d c262 c53d e03a 9dbf b328 883e
00000320: 254c 2b3e f3b9 09bf 007e 95bd 6f27 d6bc
00000330: d075 6cbf 4be3 d1bc 7f51 103e ad8e 6fbe
00000340: 8667 05be d666 05be ace3 82be 903e 3f3e
00000350: 9d25 093f 9e6a 02be defe af3b 3468 e13c
00000360: 63e9 c8bf 1d82 8c3d 30e8 923e 2ca6 d23d
00000370: b2db 7fbe 793f 513d 9151 aa3d e6e8 493e
00000380: ef0b 9b3e 1868 ab3d d937 2e3e 1963 e63d
00000390: b7d6 8e3d d540 2ebe d061 3f3f 1618 75be
000003a0: d67c b6be dcc9 69bc ae46 523d bc23 8ebc
000003b0: 61c7 c6bd bc6f d53d a7f0 063d f4a1 99bc
000003c0: 82c4 32bc b896 193d 9900 c13d 89e2 44bc
000003d0: c429 27bf 4374 1a3e 0510 8f3e 827a ca3d
000003e0: e4f3 2f3e 58b9 30be dee0 96be 4740 dbbc
000003f0: 19d2 22bf 0c31 2fbe 2aa8 0dbe 668f f6bd
-0.085461736 -0.10932579 0.103023104 -0.095016964 -0.13355501 0.13974564 0.068533204 0.02920777
0.06827223 -0.06717506 0.080306485 -0.0508812 0.09170362 -0.059902705 0.11840929 -0.057736937
-0.029162366 -0.009591705 -0.042534184 0.062762596 0.023321318 -0.037808258 0.0066577927 0.24334754
-0.123277985 -0.0682299 0.18093908 0.036372483 0.0214685 -0.004886778 -0.07087899 0.05037846
0.06234361 0.10608864 -0.0067446996 0.039038163 0.058632705 -0.08824078 -0.040300835 0.25922784
0.18713894 -0.023196816 0.049256653 -0.017383851 -0.031825613 0.16232885 0.10834633 -0.27735856
-0.030388648 0.036099266 -0.09512441 0.06954855 0.173089 -0.031093951 0.13389923 0.065909244
0.1041306 -0.0017563057 0.4248932 0.3514851 -0.09307918 0.04612053 -0.03177922 0.007021369
-0.029181642 0.062619045 0.0061080744 0.007910531 -0.048769157 -0.0337313 -0.29899764 0.059005573
-0.071209975 -0.09528394 -0.1014688 0.022999533 -0.22689998 0.036213834 0.14461853 0.21297452
0.14109628 -0.014775838 -0.056049727 -0.024427744 0.043532114 -0.10985283 0.012146367 0.035787147
0.3041513 -0.031589124 0.015276172 0.075486116 -0.013504189 -0.002734101 0.03836266 0.19076897
0.009127203 0.06524733 -0.0040131486 -0.019780917 0.26321724 0.06997442 0.2287384 -0.07868596
0.06049573 -0.037412442 0.03026389 0.080458306 0.07012726 0.03306946 -0.16533802 0.011453467
0.010989437 0.013108525 0.0149062965 -0.028987722 -0.17885289 0.005483997 0.037605487 0.061916184
0.05010513 -0.22879687 0.08375787 0.009520387 0.10267288 0.06895574 0.02048704 -0.006804621
-0.29524928 0.0632566 0.21701334 0.21013202 -0.28454417 -0.46843535 0.05062743 0.49096814
0.30730262 -0.23580721 0.045428038 0.021338988 0.4046991 -0.24551313 0.2568269 0.07557332
-0.3161713 -0.19750537 -0.10351385 -0.26845226 0.03634853 -0.08535374 0.11954851 0.008691252
-0.1252794 -0.096479736 0.213307 0.2660198 0.092521265 -0.21874663 -0.08117221 -0.20293899
0.07562509 -0.18451877 0.02629641 0.17160347 0.14422481 0.0050457628 -0.5054043 0.15224504
-0.13892049 0.22456256 0.16746336 -0.02254883 -0.0040002647 0.30005333 0.23749217 -0.7611727
0.039236464 -0.08619224 0.07468119 -0.009858609 -0.22578798 -0.017990194 0.17657132 0.07899235
-0.24590363 -0.036407888 0.57628626 -0.02964117 -0.357468 -0.16826932 -0.05179337 0.09626725
-0.0032757337 0.19465661 -0.0149509 0.057835676 0.06855765 0.09637977 -1.2283592 0.2659355
0.16728266 -0.5379936 -0.07299423 -0.02614185 -0.9236727 -0.025621077 0.14093588 -0.2339427
-0.13027772 -0.1302751 -0.25564325 0.1867621 0.5357302 -0.12735984 0.0053709587 0.027515508
-1.5696224 0.06860755 0.2869277 0.10285601 -0.24986151 0.051085923 0.08316339 0.1971775
0.30282542 0.08369464 0.17013492 0.1124937 0.06974547 -0.17016919 0.74758625 -0.2393497
-0.35642117 -0.014269318 0.051336937 -0.017351024 -0.09705997 0.10421702 0.032944348 -0.018753983
-0.010911109 0.037497252 0.09423942 -0.012016901 -0.65298104 0.15083413 0.2794191 0.09886648
0.1718288 -0.17258203 -0.29468435 -0.026764048 -0.63601834 -0.17108554 -0.13833681 -0.1203907

net.2.bias f4 [32]
00000000: d16a e1bd 7696 7abd 100f adbe a613 d9be
00000010: eb94 36bd 385a 383d 0dd7 94bc b621 16be
00000020: cca8 5e3e 6749 0cbf e23f 7ebe 21b2 bdbc
00000030: fe0e ca3d ccc6 153e 2dc8 813e f7df d63e
00000040: cb4c f83e c736 01bf b05e 213e 9198 bd3e
00000050: c786 893e 63ec e33e 0a35 16be b9b7 2dbe
00000060: 9028 713e 72c9 dbbe 9a75 52be 72b8 9ebe
00000070: 75f8 30bf 6db9 243e cf0e 3bbf 39a9 253f
-0.11006702 -0.061178647 -0.33800554 -0.42397803 -0.044575613 0.045007914 -0.01816895 -0.14661297
0.21744078 -0.54799503 -0.24829057 -0.023156228 0.09866141 0.14626616 0.25348035 0.41967747
0.48496088 -0.5047421 0.15758777 0.3703046 0.2686064 0.44516286 -0.1466867 -0.16964616
0.2355063 -0.42927128 -0.20552674 -0.31000096 -0.69129115 0.1608636 -0.7306947 0.6471134

net.4.weight f4 [8, 32]
00000000: d5f0 89bc 5ee3 973d e734 e8bd 4e5f 493c
00000010: 146b 23be 3a3b dbbc 4be1 163d a33f 00bc
00000020: a63c 45be d7c9 9fbd fd29 b0bc afcd ae3c
00000030: 8842 723d 10fb e73d be78 0dbd 1344 473d
00000040: a8bb 963e 1bb1 c83d cdbe 1c3e 0099 553d
00000050: 407b 483e 865c 73be 07ab cdbb f7bb 543e
00000060: e51f b33d 6a2f 1cbe 9e68 bb3c 29a8 773d
00000070: a9e3 dabd f6f3 52bd e949 8cbd 2ba4 0c3e
00000080: bc78 453e 30ce 92bc 9e61 30be 18b9 333d
00000090: 7c47 82be effd 9a3d 1ac1 0a3e df70 eb3c
000000a0: ff5a d73c 37ec 303c 882e 033c 8bc4 b7b8
000000b0: 942d 5bbd 1ebe dcbd cdb9 42bf 105d 31bb
000000c0: c8c3 133e aae9 203e c1fd d63d 344f 6bbe
000000d0: 8e53 1b3d cd58 69bd d133 dd3b 6dd3 c1bc
000000e0: be01 34be e007 c23c 2eba a53d 9e19 59bc
000000f0: f503 17bb 760a 8dbd 9c2c ef3d 913b 22be
00000100: a088 d43d 6b61 81bd d5d1 bbbe 122a 3b3e
00000110: 264d debd 09a4 8abf 4dd5 05be 05a1 35be
00000120: 36f7 8e3c 4eb5 e73c 308c 36be a135 9cbe
00000130: cc51 1ebf 55c4 77bf 2186 6ebd 1711 74bb
00000140: d0d9 513e 350d 0b3e 27ee 2a3d 8c88 09bf
00000150: ce09 8d3e a83b 4abd 452a 6cbd 2992 a4bd
00000160: 4c27 f6bd 24aa b3be 95eb 903d 7945 0ebd
00000170: 8a88 fe3d 02cc 12bf 7812 0abd 8b0d 3bbc
00000180: 79a1 903d ca28 cc3f 0e7f a53b 3ca6 80bd
00000190: 6599 663e c6e9 47bf 83a1 2fbe 43f8 6fbe
000001a0: dd58 24be b55d 203f ea75 efbe fbc3 0abc
000001b0: f5b2 c63e d9e3 303f 0574 7d3f 39e3 d2bf
000001c0: 9f78 8c3d 3aaf 28c0 74e5 f9bd 297e ed3f
000001d0: 80ad 12be 6fcd e93e 2fe2 ffbd baa7 a73d
000001e0: 6a7c 2fbe e5de c43e 8eba 123a ee6c 243f
000001f0: 208f a03f f047 9d3e c7e4 913f 2a8d 1a3f
00000200: 2aaf 133c 1497 79bb 5172 2c3c 44c3 e73b
00000210: 4b4d 88bc 7a11 613c 000e 903c 5ac1 ed3b
00000220: aeef c13c e897 d03a 8292 c93b 00b6 3238
00000230: dad1 5a3c 18a5 bebb aa29 c73b 2d1d 1b3c
00000240: 6a68 923c 6bb6 f13b 9b4f f83c 34c0 a23c
00000250: 8c78 283c 464f e03b 28b8 d03b ec9e 4dbc
00000260: 88c2 baba a851 883c b6dd 963c d1bd 2a3c
00000270: 06b9 593c 4cdf f53b e0e1 6ebb 32d7 163d
00000280: 048f 2abb c538 fa3c 2b01 513c 17c7 1a3c
00000290: ba25 243b 6a71 17bc d7a4 323c d625 7a3c
000002a0: 20ff 82ba 3052 b6ba f864 df3b 66d7 683c
000002b0: 6803 84ba 151e 883c c4bc ff3b d012 663a
000002c0: c036 c13b 9a08 e43c a4d6 fe3b 6848 553c
000002d0: 0d4d a33b e8b8 453c 559f b33b 74b7 453c
000002e0: b2da 043d e89d 003d bde8 273c 4e83 133c
000002f0: ea71 743c 0e5d da3b ad15 6f3c 95ce 9f3c
00000300: a2f7 9b3b 46ac 003c 7989 9c3b 3d12 5a3c
00000310: 321c 7f3b ae9d 9f3c fc8d 073b d4a5 763c
00000320: 68da 173c ecde 0d3b 5cc3 85bc 1e63 843c
00000330: f0a1 9e3b fa20 b03c 3923 083c e00e 863b
00000340: 50a0 303c a442 dc3c 7e9c 193c d8d2 e53a
00000350: f7ea 583c b45a 59bb 119d c03c 1e23 e73c
00000360: 526a 2f3c 7848 033c a4f7 fd3b 7413 373c
00000370: 4b5f 8e3c 1aaf 373c 424e fd3c 2811 a4bb
00000380: 1c00 8f3b 76e1 823c 215c a63c 28b1 0ebb
00000390: 4dda 5d3c 8a72 923b 34c5 f83b 7272 a53c
000003a0: aa86 3c3c ca37 f83b b4e9 1bbb 9e3c 3e3c
000003b0: 407f acba f655 113b 5cad 733c b87e cc3a
000003c0: 8051 e4bb 205b 7a3c c397 703c 3666 09bc
000003d0: c84c 203b 0b18 143c 76fd 1e3b 364b a93c
000003e0: 1c63 5d3c d4fb a03c ac2b 59bb 6bdd 943b
000003f0: 5f22 e23b f064 a73b 204d f3bb b0b4 5d3c
-0.01683847 0.07416414 -0.11338215 0.012290789 -0.15958816 -0.02676164 0.03683595 -0.007827672
-0.19261417 -0.0780217 -0.021504397 0.021338312 0.05914548 0.11327183 -0.034538977 0.048648905
0.29440045 0.09799405 0.1530716 0.052147865 0.19578266 -0.23765764 -0.0062764916 0.20774828
0.08746318 -0.15252462 0.022877034 0.060463104 -0.10687954 -0.05150219 -0.06850035 0.137345
0.19284338 -0.017920583 -0.17224738 0.04387769 -0.25445163 0.07567965 0.13550225 0.028740345
0.026288508 0.0107985055 0.008006699 -8.762729e-05 -0.053510264 -0.107784495 -0.7606476 -0.0027063526
0.14430153 0.15714136 0.104976185 -0.22979432 0.03792148 -0.056969453 0.0067505618 -0.023660386
-0.1757879 0.023685396 0.080921516 -0.0132507365 -0.002304313 -0.06886761 0.116784304 -0.15843035
0.10377622 -0.06317409 -0.36683527 0.18277767 -0.10854559 -1.083131 -0.13069649 -0.17737205
0.017451864 0.028284695 -0.17826915 -0.30509666 -0.6184356 -0.96783954 -0.058233384 -0.0037241632
0.20493245 0.13579257 0.041731026 -0.5372398 0.27546543 -0.0493733 -0.0576575 -0.0803569
-0.12019214 -0.35090744 0.07076184 -0.034734223 0.124283865 -0.5734254 -0.03370902 -0.011416803
0.070620485 1.5949948 0.0050505465 -0.06281707 0.22519453 -0.78091085 -0.17151456 -0.23434548
-0.16049524 0.62642986 -0.4676965 -0.008469577 0.38808408 0.6909767 0.99005157 -1.6475593
0.06858944 -2.635695 -0.12201968 1.8554126 -0.14323997 0.45664546 -0.12494313 0.08186288
-0.17137304 0.38451305 0.0005597257 0.64228714 1.2543678 0.30718946 1.1397942 0.6037165
0.00901393 -0.0038084434 0.010525302 0.007072838 -0.016638419 0.013737077 0.0175848 0.0072557153
0.023673858 0.0015914412 0.0061514983 4.2608008e-05 0.013355697 -0.0058180206 0.006077965 0.009467405
0.017872054 0.0073764822 0.030311396 0.01986704 0.010282647 0.0068453876 0.0063696094 -0.012550097
-0.0014248649 0.0166405 0.018416267 0.010421232 0.013288742 0.0075034257 -0.003645055 0.03682632
-0.0026025185 0.030544648 0.012756626 0.009446881 0.00250469 -0.009243349 0.010903559 0.01526781
-0.0009994246 -0.0013909992 0.0068174563 0.014211511 -0.0010071816 0.016615907 0.007804485 0.0008776607
0.0058964193 0.027836133 0.007777052 0.013017751 0.0049835504 0.012068011 0.0054816403 0.012067664
0.032435127 0.03140059 0.01024836 0.009003473 0.014919737 0.006663925 0.01459257 0.019507686
0.0047597447 0.007853573 0.00477713 0.013310012 0.0038926718 0.019484367 0.0020683995 0.015054185
0.009268381 0.0021647764 -0.016328506 0.016160544 0.004841082 0.0215001 0.008309179 0.0040911287
0.010780409 0.026887245 0.00937569 0.001753415 0.013239614 -0.0033165636 0.023512395 0.028214987
0.010706501 0.008012883 0.0077504683 0.011174072 0.017379424 0.011211181 0.030921105 -0.005006928
0.0043640267 0.015976649 0.020307602 -0.0021773074 0.0135408165 0.0044692205 0.007591868 0.020196173
0.011506716 0.00757501 -0.002379042 0.011611132 -0.0013160482 0.002217648 0.014872875 0.001560173
-0.0069677234 0.015280515 0.01468462 -0.008386185 0.0024459828 0.009038935 0.0024259961 0.020665746
0.013512399 0.019651331 -0.0033137603 0.0045429966 0.00690107 0.0051084682 -0.0074249655 0.013531849

net.4.bias f4 [8]
00000000: be93 583f ea23 0dbd d172 163e 00c4 04bf
00000010: c72e 7e3a 8582 69bb 9c12 903c ff3b 4e3c
0.84600437 -0.03445808 0.14692236 -0.5186157 0.00096963014 -0.0035630774 0.017586999 0.012587546
