onnx_models/state_estimator.onnx (onnx, 23055 bytes, 6 tensors)

net.0.weight f4 [64, 15]
000000 eb 80 a0 bc 0f 10 52 bc 4c f2 45 bd 9f 46 67 bd
       -0.019592723 -0.0128212115 -0.048326775 -0.056463834
000010 cd 0e 21 be 8c cb 82 3d 8d 32 c4 bd a4 36 ab bd
       -0.15728302 0.0638648 -0.09579954 -0.08360031
000020 15 d3 1a 3d 25 42 17 3e fc 08 85 be 38 35 e9 3b
       0.03779896 0.14771326 -0.25983417 0.00711694
000030 59 b0 bf 3e 1c 5c bb be 8d 7e 03 3e e8 a3 c1 be
       0.3743923 -0.3659371 0.12841244 -0.37820363
000040 05 a5 12 be bc 91 6c bf 50 a8 0a be fe e7 16 bc
       -0.14320762 -0.92409873 -0.13540769 -0.009210585
000050 94 0f 14 be 54 11 db 3e 78 8f 07 3e 6d e3 90 3f
       -0.14459068 0.42786658 0.13238323 1.1319405
000060 0f 81 c4 bd 66 97 7c bd 18 3c 25 be 0e 7d 97 3e
       -0.095949285 -0.061667822 -0.16136205 0.29587597
000070 21 8d cf c0 5c ff 26 3e 87 48 03 3e 56 da 12 3e
       -6.4859776 0.1630835 0.12820636 0.14341101
000080 e7 e8 11 3e fa 7c 0e 3e 77 db f3 3d 8a 3b a0 3e
       0.14249001 0.13914862 0.11907094 0.31295425
000090 c0 d9 29 3d 04 22 c4 3c d7 c3 8e bd 6f c3 37 be
       0.04146743 0.023942001 -0.06970947 -0.17945646
0000a0 f7 fd b7 3d d8 d6 bf be 5e d9 12 bf bf 4a f8 bf
       0.08983987 -0.374686 -0.57362926 -1.9397811
0000b0 3a 08 2a 3e c6 a9 98 bd b9 78 73 be 4e 02 db 3e
       0.166047 -0.07454257 -0.23776521 0.42775196
0000c0 1d b6 54 bd eb eb 71 be 20 55 b0 3e c5 66 f9 bc
       -0.05193149 -0.23625152 0.34439945 -0.030444512
0000d0 19 66 36 be 9e 0a 3b 3f c9 3e f7 be 6d 0c a9 bf
       -0.17812385 0.73063076 -0.4829009 -1.3206917
0000e0 b7 b7 ff 3d 4c 9b 7d 3e bb 6c d4 3f 48 df e7 be
       0.12486213 0.24766272 1.6595682 -0.45287538
0000f0 53 96 54 be 86 99 01 be 51 78 24 3a 62 40 80 be
       -0.20760469 -0.12656221 0.0006274032 -0.2504912
000100 bc 75 56 be 12 e4 81 be 74 0e 07 be 7d cd 48 bd
       -0.2094335 -0.25369316 -0.13189107 -0.049024094
000110 43 55 36 3d f8 ae a7 bd 66 ff 80 3e 47 fa 79 3d
       0.044514906 -0.081876695 0.25194854 0.0610297
000120 4c 90 29 3f 5f 31 b2 3f 05 98 21 bb 69 1b f7 be
       0.66235805 1.3921317 -0.002465726 -0.482631
000130 6c 51 03 be b3 65 81 be 00 02 a7 be 5b af 73 be
       -0.12824029 -0.25272903 -0.32618713 -0.23797362
000140 a9 59 58 be 54 c0 75 be d9 f9 47 bc 08 c9 c6 3d
       -0.21127953 -0.23999149 -0.012205564 0.097063124
000150 b7 e1 2b bd 20 fa b5 3d 63 06 43 3e e2 0d 13 3f
       -0.041963305 0.08885598 0.19045405 0.5744306
000160 be 57 c2 3e bc f5 95 3e 05 27 9e bd 45 4d 97 bd
       0.37957567 0.29289043 -0.07722286 -0.07387785
000170 4d aa 3b be 64 d1 3f 3d 04 a5 4b 3d 8d 81 08 3d
       -0.18326683 0.04683055 0.049717918 0.033326674
000180 5d b2 03 be 96 f5 0c be 85 df 8e 3e 50 da 87 bd
       -0.12861009 -0.13765559 0.27904907 -0.06633437
000190 16 e2 d0 be 35 69 27 3e 91 d7 da 3d 89 8a 78 be
       -0.4079749 0.16348727 0.10685647 -0.24271597
0001a0 e4 54 e4 3d a4 ae 4d bd 74 f1 68 be 24 c4 b6 3e
       0.11149004 -0.05021538 -0.22748357 0.35696518
0001b0 31 90 ac 3d 1a 26 7f be 83 99 eb 3f 15 b0 41 3e
       0.0842594 -0.24916878 1.8406223 0.18914826
0001c0 99 1c e8 bd 33 8d 0f 40 8b ed d8 be 79 db 20 c0
       -0.113335796 2.242993 -0.4236873 -2.5133955
0001d0 f5 50 ee 3e b7 c0 cf 3e 2b 6a 50 40 a2 29 19 be
       0.4654614 0.40576717 3.25648 -0.14957288
0001e0 5f 4f ac bd 12 b5 5b be ac bf 0a 3e 86 b7 76 be
       -0.08413576 -0.21455792 0.1354968 -0.24093446
0001f0 b8 f5 7c be fb 56 20 3e ae 2a 79 be 92 02 10 be
       -0.2470311 0.1565818 -0.24332687 -0.1406348
000200 94 5a 03 bf 0b 1b 57 3e a5 87 2e 3e 0a ed bb 3d
       -0.51310086 0.2100641 0.17043932 0.09176071
000210 d9 04 50 be bd 28 5a 3e a6 c8 80 3e 3c b4 10 3e
       -0.20314349 0.21304603 0.25153083 0.14131254
000220 13 73 9d bd 6a 29 f1 3e e5 b9 43 be 73 60 3b be
       -0.07687964 0.4710191 -0.19113882 -0.18298511
000230 93 7d 18 3a 85 a5 35 be 86 f7 0e bd 78 2b 93 be
       0.0005817052 -0.17738922 -0.034904025 -0.28744102
000240 b2 9c 95 be 07 78 6b bf c3 25 9d 3e a1 51 f2 3e
       -0.29221112 -0.9198002 0.30692872 0.47327903
000250 51 d9 ff be 6a eb b7 3e 51 27 3e bc 4a b5 05 bd
       -0.49970487 0.35921794 -0.011606053 -0.032643594
000260 38 2c 9b 3d ab ff 99 bd c9 e4 80 3d 08 b7 8c 3d
       0.075767934 -0.07519468 0.06293637 0.06870848
000270 1c 98 cb bc 98 3d 08 be 98 cf 1d be 28 69 98 bd
       -0.024852805 -0.13304746 -0.15411222 -0.07441932
000280 66 fa 42 be e5 06 af 3b 37 ca 13 3e b2 d3 06 3e
       -0.19040832 0.005341398 0.14432608 0.13166693
000290 a7 eb 80 be c4 75 80 be eb 28 69 be 71 7e f5 be
       -0.25179788 -0.25089848 -0.22769515 -0.4794803
0002a0 2d 6b 45 be b9 22 c5 bd 3e ae 33 be 92 b1 33 be
       -0.19279166 -0.096257634 -0.17546937 -0.17548206
0002b0 07 f1 b6 bd 6e c3 8d bd df 7d ae 3b 15 7d 96 3e
       -0.08932691 -0.06922041 0.0053250636 0.29392305
0002c0 80 85 6e 3d db 87 80 3d 83 f5 fa 3d 91 c2 96 be
       0.058232784 0.062759124 0.12253859 -0.29445317
0002d0 6c 9c b4 be 32 f4 47 3c ff 21 a5 bf 1c 4d e5 bd
       -0.3527559 0.012204217 -1.2901 -0.11196348
0002e0 f0 1b b5 be 12 0c e0 3c b4 da 5a 3d 24 be 8b be
       -0.35372877 0.027349506 0.053431228 -0.27293503
0002f0 1c cb 85 3f bf 4b e2 be 9d 18 05 be a4 2f 84 bd
       1.0452609 -0.44198415 -0.1299767 -0.06454399
000300 ea cd 01 3e 88 aa 56 3f 6d b4 6d 3e 1b f5 50 be
       0.12676206 0.8385396 0.23213358 -0.20406
000310 07 43 c1 3b 94 55 cb be 9f 3e af bd 79 43 31 be
       0.005897883 -0.39713728 -0.08556866 -0.17310895
000320 03 d9 a8 be 59 c2 c5 bd 4a 49 ed bd 0f ad a3 be
       -0.32978067 -0.096562095 -0.115862444 -0.3196797
000330 aa 75 c6 be 85 91 0a 3e 49 ad 7a 3d 9d 05 d0 3c
       -0.38761646 0.13532074 0.061200414 0.025393302
000340 44 5f c7 3e d7 28 6e be 3b 41 b3 3a 17 ed 1e bd
       0.3893987 -0.23257767 0.0013676056 -0.038800325
000350 28 8d 68 bb a8 3c c4 bd ff 98 da 3c 29 9a 9f bd
       -0.0035484526 -0.09581882 0.026684282 -0.077930756
000360 0d a4 cb bc ef 60 7a bd 48 9e 19 3e d4 25 bd 3e
       -0.024858499 -0.0611276 0.15001786 0.36942923
000370 8b 89 41 3d e7 e6 2e bd 11 5c f1 bd 02 51 40 be
       0.04725031 -0.042700674 -0.117851384 -0.18780902
000380 a4 67 9e 3c 9c 6f a3 3e 03 11 af 3e ca cd ff 3d
       0.01933653 0.3192109 0.34192666 0.12490423
000390 31 1a 94 3c 2f d5 2e 3e 54 a5 e7 bd c5 74 31 be
       0.018078895 0.1707351 -0.11310831 -0.173297
0003a0 7f 4f 17 be 5a f3 16 bf 7e 77 02 3e 99 34 9b 3e
       -0.14776419 -0.58965075 0.12740895 0.30313566
0003b0 49 b3 23 bf 94 70 2b bf 46 32 47 c0 6d 1a 09 3e
       -0.6394544 -0.66968656 -3.1124434 0.13388987
0003c0 aa da df bd db 1f 8d be ed 66 9f bc ba 04 5d bd
       -0.10930379 -0.27563366 -0.019458259 -0.053959586
0003d0 02 c5 22 be e4 ed 0b bd f5 e3 cf bd 42 91 7e bd
       -0.15895465 -0.034162417 -0.10150901 -0.062150247
0003e0 bc f6 f4 3d f9 79 bd be de 2c 02 3e 00 de 9e 3e
       0.11961123 -0.3700712 0.12712428 0.31028748
0003f0 26 40 df 3e fa c6 4c 3f 0c 3e f8 3d c6 2c 85 bc
       0.4360363 0.79991114 0.121212095 -0.016256701

net.0.bias f4 [64]
000000 1f 23 87 3e d1 a3 79 3d 52 b7 4f be 9a 7c 69 3e
       0.26393983 0.060947243 -0.20284775 0.22801438
000010 fd d3 cc 3e 85 8e 9c 3e 20 60 60 3e 91 86 f2 3e
       0.40005484 0.30577484 0.21911669 0.4736829
000020 9e b3 86 3d 2b d2 b4 3e f1 7d e1 3d cb 2a 70 3d
       0.06577228 0.35316595 0.110103495 0.05863456
000030 ef 6d 1d 3e 8c 45 0e 3e 75 af 34 ba 55 85 8a be
       0.15373968 0.13893718 -0.00068926 -0.2705485
000040 ca 7d ab 3e 0d 56 8d 3d 8f d3 16 3e 42 86 48 3e
       0.33494407 0.069011785 0.1472914 0.19582465
000050 98 39 ab bc 3f 0e 93 bd 5e 6b 89 3c 63 d2 2b 3e
       -0.020901486 -0.071804516 0.01677483 0.16779475
000060 cc 25 94 bd 95 63 0c 3e b9 eb a3 3b d6 fc 84 3e
       -0.07233772 0.13709863 0.0050024656 0.2597415
000070 2d c7 84 3c b9 77 0c 3e c0 ab 17 be f9 01 04 3e
       0.016208256 0.13717546 -0.14811611 0.12891378
000080 5c 07 90 3d 6f c3 52 3e fd 5e 10 be 6f e6 51 3e
       0.07032654 0.20582364 -0.14098735 0.2049806
000090 a2 d6 8a 3e b7 3e a9 3d da 91 bd 3e 40 93 80 3e
       0.27116877 0.08263915 0.37025338 0.25112343
0000a0 be 7f da bd 78 68 0a be 72 d3 9b 3d 01 97 37 be
       -0.10668896 -0.13516414 0.07608689 -0.17928697
0000b0 2a b2 35 be 05 86 78 be cd 61 c5 bd 51 2e 45 be
       -0.17743745 -0.24269874 -0.09637795 -0.1925595
0000c0 09 b4 b2 3e 6d 2f 32 3e db e7 80 bd a6 19 3a 3d
       0.3490298 0.17400904 -0.06294223 0.045434617
0000d0 31 0e 40 3e f1 da 84 be 08 55 ea 3e 3c 05 dc 3e
       0.18755414 -0.2594829 0.45768 0.42972744
0000e0 02 a9 02 3e 30 ca 33 3d 73 e4 57 3e 7f 6e bb bd
       0.12759784 0.043893993 0.2108324 -0.09151935
0000f0 e2 49 c0 3d 61 03 1f 3e 61 e4 17 3e 0f 39 a4 3e
       0.09389092 0.15528633 0.14833213 0.32074782

net.2.weight f4 [64, 64]
000000 64 e4 83 be 3f b9 4d bf 8f c4 18 3d 90 99 e9 bd
       -0.25760186 -0.8036079 0.037296828 -0.11406243
000010 37 30 9e 3e 6e 58 94 3e 73 1b 09 bf f3 91 8b be
       0.3089616 0.28973716 -0.5355751 -0.27259788
000020 8e a2 53 3e ff 4e 50 be 64 f1 2a be ca 6f bc be
       0.20667478 -0.20342635 -0.16693646 -0.36804038
000030 4c 3b 80 bd a3 f1 89 be 3e 6b bb bd 58 92 82 be
       -0.0626131 -0.26942167 -0.09151314 -0.25502276
000040 ce 3b e2 3d 1d 43 0d be 14 41 9c 3e 47 63 87 3c
       0.11046563 -0.13795133 0.305184 0.016526831
000050 e8 0b b4 bd 5e 5f 74 bd 15 5b 52 3e 12 14 68 be
       -0.087913334 -0.05966126 0.20542558 -0.22663906
000060 8a a5 1b be 7d 7c 39 be 9b 34 df bc 77 7c 1f 3d
       -0.15199867 -0.18113895 -0.027246764 0.03893706
000070 fa 2c 17 be 49 67 99 be 93 5c 91 be 65 e1 aa bd
       -0.14763251 -0.29961613 -0.2839094 -0.08343772
000080 aa e4 c0 3d 45 3a 0e 3e 15 bc 4f be 12 43 d4 3d
       0.09418614 0.13889416 -0.20286591 0.10364355
000090 3b e4 d3 3c b6 49 ed b9 31 17 8b 3e 65 46 8c 3e
       0.025865665 -0.00045259082 0.2716613 0.27397457
0000a0 cb ce 0b be 58 83 6e 3e 0c 40 ea 3b 5b 9b 66 bd
       -0.13653104 0.23292291 0.0071487483 -0.056300502
0000b0 15 fa 6a bd fc 35 4d bd a6 2d 7e 3e 80 be b1 be
       -0.057367403 -0.05010031 0.24822101 -0.34715652
0000c0 8e 8d a7 3e bc 05 44 3e 89 0d 2e be 43 fc 97 bd
       0.32725185 0.19142812 -0.16997351 -0.07421162
0000d0 16 bd 87 3e 13 d7 19 be ee 91 96 3b 0f 65 7a 3e
       0.2651145 -0.1502345 0.004595033 0.24452613
0000e0 fb f6 c9 bd a7 69 d8 bc 9b 69 dd 3e 79 17 4b 3e
       -0.09861561 -0.026417566 0.43244633 0.19833173
0000f0 5b ae a8 bd b5 92 7b bb 77 65 2b bc 9e 55 05 3e
       -0.08236381 -0.0038387005 -0.010461203 0.13020942
000100 bf bb 57 bd a9 70 d7 3d d1 4d 99 3d e3 f1 b1 be
       -0.052669283 0.10519535 0.074855454 -0.34754857
000110 4a 84 89 be 94 ba e7 be eb 50 f8 3c 26 20 88 3d
       -0.2685874 -0.45259535 0.030312022 0.06646757
000120 3a ec 85 3e 0d 20 8e be e6 8f f3 bd e5 89 ea 3d
       0.2615679 -0.27758828 -0.11892681 0.114520825
000130 27 bc 62 be d2 e8 a0 bd 2e 16 16 3e bd 03 af 3e
       -0.22142087 -0.07856907 0.14656898 0.3418254
000140 e7 cf 74 be e3 4d 4c 3e 88 3d c3 3d 1b d6 47 be
       -0.23907433 0.19951586 0.095332205 -0.19515269
000150 7e 65 42 3d 78 09 28 3e 76 e0 92 3c b2 09 ef 3a
       0.04746007 0.16409862 0.017929297 0.0018237142
000160 e1 27 92 bc ec 33 ab be 78 53 66 bc 4d b6 2c 3d
       -0.017841281 -0.3343805 -0.014057986 0.042166043
000170 d0 0a ff 3c 83 3f 3b be c9 0d 3b 3e 71 2b 73 be
       0.031133085 -0.18285947 0.18266977 -0.2374704
000180 7e dc 8c 3e 2e d0 02 bf d9 f6 34 3d 57 cf 24 bc
       0.27511972 -0.51098907 0.044180725 -0.010059199
000190 c5 93 66 3e d4 ae a5 be 13 c4 4c be 4a 53 2b be
       0.22517307 -0.32359946 -0.19996671 -0.16730991
0001a0 ff f4 d5 3d 65 8c 71 be 4c 45 e6 bd a1 36 0e 3e
       0.1044712 -0.23588713 -0.11243686 0.13888027
0001b0 d8 e7 98 3e b0 fd c0 3e 73 b0 cc 3d 62 f0 dc 3d
       0.29864383 0.37693548 0.099945925 0.10788037
0001c0 3c 2c 00 bf c4 1d 2c be 4a bb 72 3e d1 b0 be 3c
       -0.50067496 -0.1680823 0.23704258 0.023277672
0001d0 79 9f 9f be 14 08 02 3e 98 1e 3d bf 89 9a 41 bf
       -0.31176355 0.12698394 -0.7387481 -0.75626427
0001e0 68 e1 f6 bd 1c a2 d7 bd 4d 20 38 be 3c 9d f2 3d
       -0.120547116 -0.10528967 -0.17981072 0.11846396
0001f0 d6 41 35 3e e1 fe c5 bc 49 6e a3 bd 14 08 1d 3c
       0.17700896 -0.024169387 -0.079800196 0.0095844455
000200 3e 7b 8f be c8 6f 47 be d0 40 bc bd 23 b0 7e be
       -0.28023714 -0.19476235 -0.091920495 -0.24871878
000210 11 7b 0a 3e 91 b0 d9 3e fa 8a b3 bd aa ab 55 3e
       0.13523509 0.42517522 -0.08766742 0.20866266
000220 12 00 5e 3e e0 ba 7c 3d 1e e1 93 be 1e 6e 19 3d
       0.21679714 0.061701655 -0.28882688 0.03745853
000230 7c 06 35 be 92 dd 4c bd 01 5d b0 bc f0 ab 28 3d
       -0.17678255 -0.050015993 -0.021528723 0.041179597
000240 af 89 5b 3e 69 6f f7 bd 30 2d 08 be 96 a8 ed 3d
       0.21439241 -0.12081797 -0.13298488 0.11604421
000250 f8 e4 5f bb 60 66 c2 bd cd f6 fa 3d bf 62 89 bd
       -0.0034163576 -0.09492183 0.12254105 -0.067082874
000260 fa 98 23 be af 0d 4d be 92 3e 6a 3e 7a fc 53 3e
       -0.15976325 -0.20024751 0.22875431 0.20701781
000270 37 05 11 3e 59 56 f3 3c b4 f8 eb bd 25 5d 56 3e
       0.14162146 0.02970426 -0.11522046 0.2093397
000280 7c ab 17 3e 9d df 0f 3f f0 c1 26 be 8d dd 18 3e
       0.1481151 0.5620058 -0.16284919 0.14928265
000290 82 13 91 bd d8 63 b6 3d 9f 62 1d 3e 54 3b d6 3e
       -0.07083799 0.089057624 0.15369652 0.4184214
0002a0 00 a9 3c be e3 61 28 3d d5 34 0a be f2 80 92 3c
       -0.18423843 0.041108977 -0.13496716 0.017883752
0002b0 92 e4 34 be 62 6c 77 be 92 46 9e 3c 6c 35 2a be
       -0.17665318 -0.24162439 0.01932076 -0.16621941
0002c0 74 82 ab 3e ff a8 c3 3d 7e 57 90 be e2 f2 9d bd
       0.33497965 0.09553718 -0.2819175 -0.07712342
0002d0 4f b7 c9 bd 67 9d cb bd 31 88 89 bd aa 85 96 be
       -0.098494165 -0.099421315 -0.067154296 -0.29398853
0002e0 52 b1 90 3d 7d fc 5c 3e 47 9a 9d 3e 83 5c 21 be
       0.07065071 0.21580692 0.30781767 -0.15757947
0002f0 88 60 31 be 78 63 54 3d 26 d7 93 bd de 31 21 3e
       -0.1732198 0.051852673 -0.07218771 0.15741679
000300 42 d6 3c bc 30 16 07 3e a5 70 e5 3a dd d2 0e be
       -0.011525692 0.13192058 0.0017504884 -0.13947625
000310 2e 7d 5b 3e 98 1e da 3e 76 a6 45 3d 75 fc 71 3e
       0.21434471 0.42601466 0.048254453 0.23631461
000320 f3 42 2c 3d 7b 24 00 3d b0 7f be bd 84 79 a4 3d
       0.042056035 0.03128479 -0.09301698 0.0803099
000330 12 ac 9e 3f aa 7b 10 3e bb 6b 38 3d c7 1a c2 bd
       1.2396262 0.14109674 0.045024615 -0.094777636
000340 18 a7 66 3e 27 4c e8 bd fc c3 da 3c 22 e6 3c 3e
       0.22524679 -0.1134265 0.02670478 0.18447164
000350 5c eb 6c bc 83 de a7 be a1 6d 59 3d e0 41 b9 3c
       -0.014460411 -0.3278695 0.053083066 0.02261442
000360 48 fe 41 3d 19 52 1d be d8 48 bf bd 8e fc 9d bc
       0.047361642 -0.15363349 -0.09340066 -0.019285467
000370 ad 84 8a 3c 46 54 db 3d 41 ec d8 3c 9a 5d dc bc
       0.016908968 0.10709433 0.026479842 -0.026900101
000380 90 ec 48 3e 1a 73 dd 3e 01 6d dd bd 39 39 c6 3d
       0.19621491 0.43251878 -0.108118065 0.09678883
000390 93 31 b4 be f2 63 93 be de 83 1e 3e 07 b8 df 3e
       -0.35194072 -0.2878719 0.15479991 0.4369509
0003a0 16 d2 d6 be 78 92 63 bd 97 6b 39 3e e0 0f 28 be
       -0.41957158 -0.055559605 0.18107449 -0.16412306
0003b0 e2 a0 2d be f3 c0 54 be 6c b4 33 3e 57 57 3e be
       -0.16955903 -0.2077673 0.17549294 -0.18588005
0003c0 fc 11 eb 3e 5a f6 21 3e 07 ab a0 be 52 e1 27 be
       0.45912158 0.15816632 -0.31380484 -0.16394547
0003d0 00 21 3c 3e 8f ce 04 be a2 7b 34 3e 18 46 40 3e
       0.18371964 -0.12969421 0.17625287 0.18776739
0003e0 32 1a 0f 3d 46 e1 eb bc 28 55 38 3e 5f 32 53 be
       0.03493709 -0.028793942 0.18001235 -0.20624684
0003f0 e6 ad 32 bc d6 cf 0f 3e 17 f9 fb bd 55 38 89 3e
       -0.010905718 0.14044127 -0.123033695 0.2680079

net.2.bias f4 [64]
000000 b6 20 4c 3d 82 de ca bd 21 75 a0 3b a3 75 eb 3d
       0.049835883 -0.09905721 0.0048967754 0.11497047
000010 89 ee cd bd e9 6b e6 be 36 9e 66 bc 28 af 58 3e
       -0.100552626 -0.45004204 -0.014075806 0.21160567
000020 5d e8 e5 3d db d5 00 3e 01 fe 28 be b8 77 a1 3e
       0.112259604 0.1258158 -0.16503145 0.3153665
000030 ce 72 99 be 14 84 80 3c a2 83 18 bc ae 0c 1a 3d
       -0.29970402 0.01568798 -0.009308727 0.03760975
000040 76 00 78 3e 50 97 16 3e d4 85 41 3d 5b 6d fe 3d
       0.24218926 0.14706159 0.04724677 0.12423202
000050 89 c4 6e 3e 94 89 10 3e eb 34 d2 bd e1 fd 92 3e
       0.2331716 0.14114982 -0.102639996 0.2870932
000060 c3 0f a9 3e 79 a4 6c be 0c b9 eb 3d 78 9d 45 be
       0.33019838 -0.23109616 0.11509904 -0.19298351
000070 5b 2d c8 3e 5d ba d8 3c 7e 2a 49 3d 73 69 06 be
       0.39097103 0.026456052 0.04911279 -0.13126163
000080 6d b4 6e 3e 67 ff cc 3e 7c 40 a2 3d 2d 83 f0 3e
       0.23311014 0.40038607 0.07922456 0.4697508
000090 f2 f8 5a bd 4f 1b d1 3e 17 88 06 3d 40 fe db bd
       -0.05346007 0.40841147 0.03284463 -0.10741854
0000a0 bd c1 e4 3e a5 d7 f7 3e bc 22 23 3f 31 a4 a8 bc
       0.4467906 0.4840671 0.63724875 -0.020586105
0000b0 0a 0c 75 3c 78 c6 6a bd ed 39 07 bf 52 37 ba 3e
       0.014956484 -0.05731818 -0.5282276 0.3637033
0000c0 eb d4 54 be ce 00 0c 3e bd 9f 2d 3d 97 c0 3a 3c
       -0.20784347 0.13672182 0.042388666 0.011398456
0000d0 34 04 d8 3e 0b 29 ea 3c 84 cc 78 3e 24 52 80 3e
       0.42190707 0.028584024 0.24296767 0.25062668
0000e0 1d a8 52 bc 01 cb 05 bc 74 a1 5d bd 34 e4 18 3f
       -0.012857464 -0.008166076 -0.05410905 0.5972321
0000f0 d3 42 42 bd 59 b6 71 bd 6e 09 5f 3e 6b 4e b7 3d
       -0.04742701 -0.05901179 0.21780941 0.08950504

net.4.weight f4 [5, 64]
000000 3a ce 0e be e9 4b 13 3d 5e 32 90 bd 65 ab ac bd
       -0.13945857 0.035961065 -0.07040857 -0.084311284
000010 0a e1 23 3d 81 23 79 be b6 60 84 bd d2 98 ed 3c
       0.040009536 -0.2432995 -0.06463759 0.029003534
000020 8a 95 8f be 31 43 5a 3b a3 30 bc be 04 f1 34 3e
       -0.28043777 0.003330421 -0.36755857 0.17670065
000030 d2 28 b0 bd 72 6b 88 be 02 67 72 be b9 a0 09 be
       -0.08601536 -0.26644474 -0.23672107 -0.13440217
000040 53 3d 24 3d 1a 80 29 3e c9 b9 89 3c 61 ae ec 3d
       0.040097546 0.16552773 0.016812222 0.11556698
000050 39 15 0b bf e6 2b 6a 3e d5 de 00 bc ee 97 cd bb
       -0.5432926 0.22868308 -0.007865627 -0.006274215
000060 3e 5d ec 3d 68 35 2d be 2d d9 0b be 39 1a 75 bd
       0.11541222 -0.16914904 -0.13657065 -0.05983946
000070 eb 4b 5f 3e 5b ee c7 bd aa 6f c4 bd 8c 42 05 3d
       0.21806304 -0.097622596 -0.09591611 0.032534167
000080 46 f5 a6 bd f0 85 8f 3d f6 f0 45 3e df 69 94 3e
       -0.08152251 0.070079684 0.193302 0.28987023
000090 9b a5 0a be 31 f2 28 3d b5 fc 51 be f2 9f 3e bb
       -0.13539736 0.041246597 -0.20506556 -0.0029087034
0000a0 d1 84 bc 3e f2 3f f7 3e 24 bc 08 3e f2 55 6f be
       0.3682008 0.48290974 0.1335302 -0.2337263
0000b0 20 72 f6 3b a4 d2 ea bd 24 9b b4 be cb cf 86 bd
       0.007520929 -0.11465958 -0.35274613 -0.06582602
0000c0 97 fb 16 be 51 3d 56 bd 32 ca 32 be d6 9e 01 3e
       -0.14744411 -0.05230457 -0.17459944 0.12658247
0000d0 48 b6 95 3d de 01 0d be 9d 03 01 3d 68 bb 57 3e
       0.07310158 -0.13770244 0.031497587 0.21067584
0000e0 c8 59 2a be ac ed 1d 3e 6b eb 1c 3e 1e 29 1e 3c
       -0.16635811 0.15422696 0.1532418 0.009653358
0000f0 e8 7e f0 3d 68 7d d4 bd 9d 04 c2 bb a4 f0 ab bc
       0.117429554 -0.10375482 -0.00592096 -0.02098877
000100 35 7d 6a 3d 4a 2d 04 be 3c fc c6 ba 8a 13 26 3d
       0.057248313 -0.12907901 -0.0015181373 0.040545978
000110 d3 e5 a4 bc df ce 2c 3f 83 e8 87 3d 98 cb 64 3d
       -0.02012912 0.6750316 0.06636145 0.055858225
000120 16 56 95 be 95 3f c7 3e e9 d9 8e bd 76 f9 cf 3e
       -0.2916724 0.38915697 -0.06975157 0.4062001
000130 80 1b ef 3d e1 1c 1f 3f f6 0d 0e 3b 5e f4 26 bc
       0.11675167 0.6215344 0.0021675802 -0.010190098
000140 d0 42 23 be f6 45 3c 3c c2 d2 22 bc 87 34 33 3f
       -0.15943456 0.011491289 -0.009937944 0.70002025
000150 da 22 cc 3c 59 1f 9d be 24 08 d7 3d d4 22 65 be
       0.024918962 -0.3068798 0.104995996 -0.22376567
000160 09 c7 e4 3d d8 ce 1e 3d c1 1a ad 3d 4d bd b1 3d
       0.111707754 0.03877148 0.084523685 0.086786844
000170 39 fa 66 bc 44 92 06 bd 6a 65 77 bd 1e 51 a4 bc
       -0.014097744 -0.032854334 -0.06039945 -0.020058211
000180 a4 77 e8 3d 81 8e fe bb d6 41 cb be 40 6f 9d be
       0.11350945 -0.0077684526 -0.39698666 -0.3074894
000190 a9 99 ba 3d 86 e9 f0 bd fe 32 3e bd 34 46 c5 bd
       0.091113396 -0.11763291 -0.04643535 -0.09632531
0001a0 77 e1 81 bd 8d 7f c9 bc b4 1f fc be 6d 15 bc 3d
       -0.06341832 -0.024596954 -0.49242938 0.09183774
0001b0 8c 47 3a 3e 48 f8 fa ba 09 df 23 3f 58 e3 8c 3e
       0.18191355 -0.001914748 0.640122 0.275172
0001c0 68 05 5a bd bd d8 16 be d9 e1 03 3d ce 53 85 3e
       -0.053227812 -0.14731117 0.032197807 0.260405
0001d0 77 93 95 3b 36 5d 16 3c b2 b7 7d 3e ce e9 63 bc
       0.0045646983 0.009177497 0.24777105 -0.013910724
0001e0 b6 15 11 3d 52 d0 66 bd 5f 11 9e 3d ad 53 38 bf
       0.035421096 -0.056351013 0.07718157 -0.7200268
0001f0 b2 62 b5 ba 7a 32 5d 3d 3c 22 18 3e f3 82 c3 be
       -0.0013838618 0.054003216 0.1485681 -0.38185844
000200 b1 ae 7a be 9b 69 77 3e ff a1 a3 3c 54 82 f1 bb
       -0.24480702 0.24161379 0.019974707 -0.0073702727
000210 a5 08 fd bd b1 51 00 bf a2 c8 f2 3e 0e 71 69 3f
       -0.123551644 -0.5012465 0.47418696 0.9118813
000220 b6 a0 54 be 06 c5 fb bd d5 8c f3 be d4 d9 4f 3c
       -0.20764431 -0.122934386 -0.47568384 0.012686212
000230 1b 3b 64 be ba c1 64 be 90 29 94 be 24 4a 62 be
       -0.22288172 -0.22339526 -0.2893796 -0.22098595
000240 59 ea d2 3d 5f 02 66 3e be 4e a2 bb 1e 9c d0 3d
       0.102986045 0.22461842 -0.0049532345 0.10186027
000250 bd 4f f3 bd b5 94 03 3e 2b 99 ae 3d 9f 39 3a 3e
       -0.11880443 0.12849696 0.08525308 0.18186043
000260 78 45 31 3d a4 5d 5f bd 31 c3 e7 bb 42 18 62 be
       0.04327914 -0.054532662 -0.007072829 -0.22079566
000270 c4 ac 5e 3f ee 95 c9 3a c9 63 32 bd 33 a0 05 3e
       0.8698237 0.0015379766 -0.043552194 0.13049392
000280 6b 92 f7 3d 1a 71 a7 be 0e b7 92 3d e8 e8 76 3d
       0.12088474 -0.32703477 0.07163821 0.06028071
000290 35 ce 25 be d1 a9 1f bc 8a e6 f9 bd e5 40 68 bf
       -0.16191943 -0.009745077 -0.12202175 -0.9072402
0002a0 eb 32 ce 3d 6b a8 8d 3e c3 71 d7 3e b9 06 9a be
       0.100683056 0.27667555 0.4207898 -0.30083254
0002b0 4b 3b 1b 3e e6 5c c2 bd 2d 95 04 be 59 9f 87 3d
       0.15159337 -0.09490375 -0.12947531 0.0662219
0002c0 b1 bc 31 be c9 a9 e4 3c e7 ab e0 bd 30 d0 1d bd
       -0.17357136 0.027912991 -0.10970288 -0.03852862
0002d0 32 a6 ba bc 4c c8 b7 3d 34 1b b0 bd 2b 5f 15 3e
       -0.022784326 0.089737505 -0.085989386 0.14587085
0002e0 48 a1 27 3e c9 bf 40 3d b2 09 ce 3d 52 ae 90 bd
       0.16370118 0.0470579 0.10060443 -0.07064499
0002f0 21 8b 0f 3d 4a b2 cd 3d f8 bc 05 3e 42 b2 22 3e
       0.035044793 0.100437716 0.13060367 0.15888312
000300 d1 f3 a4 bd 47 d8 e0 3e c2 65 c4 bd cd da d4 be
       -0.08054317 0.43915007 -0.09589721 -0.41573182
000310 22 27 bb 3e 1b 87 01 3f ba 64 55 3c 4f 03 11 3f
       0.36553293 0.5059678 0.013024503 0.56645674
000320 81 a9 ee be 91 43 6d be 36 07 b4 3d d4 89 26 bf
       -0.46613696 -0.23170306 0.08790438 -0.6505406
000330 8c 8b ad 3e fe ae 87 be f2 86 d8 3d 8a f1 a7 bd
       0.33895528 -0.26500696 0.10572614 -0.08200367
000340 77 ac 2c be 1f 83 47 be c1 8f ef bd 10 92 43 3f
       -0.16862665 -0.19483612 -0.11697341 0.7639475
000350 42 6b 20 bf d4 3f 6b bf 9b 1d 1e 3e f9 ee 8c be
       -0.6266366 -0.9189427 0.15440981 -0.27526072
000360 b6 c9 e1 be 29 a5 61 3e 29 fa da bc 93 c5 14 3e
       -0.44099206 0.2203566 -0.026730614 0.14528494
000370 3b 16 67 be 2d 74 10 be 68 42 cc bd 65 9b 0a 3e
       -0.22567074 -0.14106818 -0.099736035 0.13535841
000380 e4 1d c1 be 98 1c d8 be 04 5f b4 bd 52 11 b0 be
       -0.37718117 -0.42209315 -0.08807185 -0.34388214
000390 49 5d 89 3b 56 d2 a4 3e e6 d6 28 be cc 61 89 3d
       0.0041920287 0.32191724 -0.16488227 0.067081064
0003a0 bd 7d 0b be 91 7a b7 be d9 47 8e be 95 95 ac 3d
       -0.13622184 -0.35835698 -0.2778919 0.08426968
0003b0 d4 bd 3c bd 55 7b 0a 3c b3 4d b7 3e 3e f5 d2 be
       -0.04607947 0.008452256 0.35801467 -0.4120273
0003c0 7a e4 15 be c7 c9 be be be 48 5d 3d 9c 41 25 3e
       -0.14637938 -0.3726332 0.05402445 0.16138309
0003d0 da 34 d1 be f6 0e 3e be eb 83 b9 be ca c7 99 be
       -0.40860635 -0.18560395 -0.36233458 -0.3003524
0003e0 6a 4b f5 3d 4b 1e b4 3e 77 1c 5c 3e e7 02 1f 3d
       0.11977275 0.35179362 0.21495233 0.038821127
0003f0 f7 10 5a 3d 5e 9d 2d 3f 84 84 99 be 63 71 cf 3d
       0.053238835 0.6781825 -0.29983914 0.10129049

net.4.bias f4 [5]
000000 69 d2 b8 3e 89 7d ab 3d cc f7 0f 3f 19 0f bd be
       0.3609803 0.08373553 0.56237483 -0.3692558
000010 cd cc cc 3d
       0.1
