onnx_models/state_estimator.onnx (onnx, 39759 bytes, 8 tensors)

net.0.weight f4 [64, 13]
00000000: fa14 8d3d 5ff6 8b3e 4f47 90b9 7529 8f3e
00000010: ee14 bb3d b8da 13b9 3f80 033e a645 aa3c
00000020: f264 0a38 f49d d43d 4b12 2d3e 544a df38
00000030: d5fa f93d 9f31 d63d 2d57 a63d 276b 2cb9
00000040: 1b61 04bd bcbf 103e 0ff7 1eb8 f76e fb3d
00000050: 04aa 483e f66e 1838 3cb2 3f3e 19d3 993c
00000060: f4d2 e03b 2e8f 8a3c 70c0 43b6 a96d e8b7
00000070: 4492 6737 e132 9d37 8704 f237 6d65 ddb6
00000080: 082a 7837 410a c4b7 02b6 26b8 2ef4 fdb6
00000090: 7acf 77b8 62b2 9837 4d9a 4837 625c 9fbe
000000a0: 852c 843e eec9 bfbf 5449 663e 8d39 413d
000000b0: c48a 9ebd a978 7d3d 1d8a ff3d 4d57 44ba
000000c0: da4c 233d 8475 0f3e e360 123e e4dc fdbe
000000d0: 4210 dc37 df9f 313a 2369 8ebe 3d63 d23d
000000e0: b4d1 f13d 0cee 11be 9015 5935 68c0 883e
000000f0: 13d4 d1b9 692b fd3d 140b c137 44e8 8eb9
00000100: 3386 2fbc 0488 8c3e 8915 333d e4cf 233f
00000110: 5c87 743d d076 0d3e 57ba e1b7 76f3 a5bd
00000120: dcbd 853d fa93 cfbe cb25 04be 3070 3e3d
00000130: ca6b 5cbf 778c 6d3d abad 1938 e25e b8b7
00000140: c6f5 6eb7 7007 2eb6 ac0a 84b7 1aac 96b6
00000150: 9cf0 e937 dbf2 17b8 5b3d 64b8 06f6 4ab7
00000160: 463a c7b7 261e e1b7 d2eb b0b7 392f 7eb7
00000170: 0027 c033 6057 e9b5 d0cb cbb6 0f8a 28b7
00000180: 0ada 1f37 f8b8 1e37 d422 24b6 bef2 aeb8
00000190: 50f9 e6b7 5706 2c38 08d7 d4b6 5633 46b8
000001a0: 9e89 99b6 d0b9 8e37 9879 ae35 6f5c fb37
000001b0: 86b4 c4b7 17be 14b8 eca2 2ab8 7807 b837
000001c0: 08b3 01b7 a30d 8a37 4a0b 3eb8 de95 56b7
000001d0: 6e2f c737 d189 e537 f25c d1b6 31c4 1238
000001e0: 7a05 8b36 a0fe 4f35 c70d d7b7 a62f 06b7
000001f0: 061d 1438 b4fd 5337 b279 9238 901f a8b6
00000200: ce2a 0c37 5eb3 5e37 3a77 f1bb 633d 60bc
00000210: ea54 3abf b2ec 19be d491 b93c d6d9 dcbe
00000220: ba50 20be a35a 4b3c 86c0 8dbd 2822 6d3d
00000230: f9ae 893d 33da e8bb bd81 b03e d0bc c137
00000240: 34aa 67b7 b861 6037 1f35 1a37 60c8 bb35
00000250: e40f 0bb8 a863 8437 f4c8 5c37 46ee 45b7
00000260: be14 8d37 265d 16b8 ee99 e3b7 54b0 d7b5
00000270: be57 8d36 00a1 9a37 c6b8 01b8 9750 19b8
00000280: ca96 28b8 1d95 41b7 bc64 44b7 4d7a 80b7
00000290: 365a 15b7 fae3 5737 0063 3634 089d 0138
000002a0: 3cb2 9f36 dcbe 123e e255 4b3d 7d4b c13e
000002b0: 5065 9138 000f 0835 667a 4d39 31ce 9dbd
000002c0: e34d 2cb8 17d9 2e39 cd62 3abc 9690 d2b8
000002d0: 65a1 2abf fe97 2b3d c78b edb7 3885 1136
000002e0: 8c93 7f38 fc17 d0b6 e0d1 63b6 60e1 df34
000002f0: 0d82 2eb7 2f90 1338 a850 ad36 549a a136
00000300: 8155 2137 fbe3 8cb7 00c7 8d37 dc2b b036
00000310: 3d4b 10b7 60db 6734 448c 62b5 fe0c 09b6
00000320: a0dd adb7 5856 abb6 ac50 bfb5 7e34 2b37
00000330: 8a10 4c37 58bb 1f35 5296 1e37 36c7 50b7
00000340: 909c 0f38 676c 8437 d0da 5ab7 e0bd 08b8
00000350: db8d 3d36 b7e8 de37 4c9f 8837 1285 feb7
00000360: a8df 4937 fc8c 3538 dc48 18b6 c439 1fb8
00000370: 280c 7d36 e1f6 6538 50c7 cab6 88fb 7138
00000380: d0a2 02b7 cebd 56b7 78a7 d7b5 7acb 8ab7
00000390: 8c96 3f37 a4d4 73b7 723a 98b7 4629 46b7
000003a0: 64c5 2d38 5c3d cab7 cc61 0ab8 77d8 44b8
000003b0: b8c6 1038 fa50 9c37 dc00 6036 0e63 0237
000003c0: 54cf ef37 3e1e 3538 f037 86b7 b0f3 92b6
000003d0: a096 1fb7 3b8d a6b7 2041 43b7 2eb5 8a37
000003e0: f891 bab6 cc53 92b7 387e 8d36 d834 c837
000003f0: 31b1 1fb7 9c00 9ab6 065f 1537 d36e 19b8
0.068887666 0.27336404 -0.0002751895 0.27961317 0.091348514 -0.00014100492 0.12841891 0.020785164
3.2995777e-05 0.1038169 0.1690151 0.00010647313 0.122060455 0.10458683 0.08122096 -0.00016443116
-0.03231917 0.14135641 -3.7900227e-05 0.12277024 0.19596106 3.6342964e-05 0.18720335 0.018777417
0.006861085 0.016913977 -2.9169278e-06 -2.770762e-05 1.3802728e-05 1.873955e-05 2.8850756e-05 -6.5981208e-06
1.4791738e-05 -2.3369796e-05 -3.9746992e-05 -7.568414e-06 -5.9082617e-05 1.8202878e-05 1.1956855e-05 -0.3112517
0.25815216 -1.4983499 0.2248891 0.047174025 -0.07741311 0.06188265 0.12477515 -0.00074898155
0.039868213 0.14009672 0.14294772 -0.4958259 2.6233614e-05 0.0006775837 -0.27814588 0.102728345
0.11807576 -0.14250964 8.0870177e-07 0.26709294 -0.00040021594 0.123617955 2.3012552e-05 -0.00027257402
-0.010713148 0.27447522 0.04372171 0.6398909 0.0596994 0.13814855 -2.6908861e-05 -0.08103077
0.065303534 -0.40542585 -0.12905042 0.04649371 -0.86101973 0.057995286 3.6639784e-05 -2.1978693e-05
-1.4243129e-05 -2.593235e-06 -1.5740596e-05 -4.4903836e-06 2.7887807e-05 -3.6227382e-05 -5.4416578e-05 -1.209742e-05
-2.3749784e-05 -2.683613e-05 -2.1090647e-05 -1.5150575e-05 8.947791e-08 -1.7385282e-06 -6.0735983e-06 -1.0045725e-05
9.527905e-06 9.4606e-06 -2.4458177e-06 -8.342181e-05 -2.7534232e-05 4.10139e-05 -6.3431253e-06 -4.725469e-05
-4.575776e-06 1.7014245e-05 1.2999399e-06 2.9964574e-05 -2.3449084e-05 -3.5462985e-05 -4.068289e-05 2.1937987e-05
-7.730683e-06 1.6457232e-05 -4.5310044e-05 -1.2790288e-05 2.3744735e-05 2.7363103e-05 -6.2395056e-06 3.499183e-05
4.1431604e-06 7.748404e-07 -2.5636413e-05 -7.998116e-06 3.531298e-05 1.263565e-05 6.98449e-05 -5.0104645e-06
8.3546165e-06 1.3273993e-05 -0.0073689492 -0.013686511 -0.7278582 -0.15031698 0.022652544 -0.43134946
-0.15655795 0.012411746 -0.069214866 0.057893902 0.067228265 -0.0071060895 0.34473982 2.3095316e-05
-1.3808301e-05 1.3374192e-05 9.1914835e-06 1.3990903e-06 -3.315498e-05 1.5782032e-05 1.315981e-05 -1.1797592e-05
1.6818169e-05 -3.5849538e-05 -2.7132188e-05 -1.6070067e-06 4.212342e-06 1.8433202e-05 -3.092808e-05 -3.6553098e-05
-4.0194755e-05 -1.1538415e-05 -1.1705964e-05 -1.531574e-05 -8.902096e-06 1.2868079e-05 1.6986087e-07 3.0902243e-05
4.7593185e-06 0.1433062 0.04964245 0.37752905 6.93301e-05 5.0685776e-07 0.0001959592 -0.077053435
-4.1080533e-05 0.00016674805 -0.011376095 -0.000100405116 -0.6665252 0.041892998 -2.831769e-05 2.1684227e-06
6.093415e-05 -6.201675e-06 -3.39478e-06 4.170097e-07 -1.0401488e-05 3.5181813e-05 5.1651914e-06 4.81614e-06
9.616256e-06 -1.6795462e-05 1.6901176e-05 5.2503146e-06 -8.600587e-06 2.159336e-07 -8.4395674e-07 -2.0422153e-06
-2.072641e-05 -5.106249e-06 -1.4254088e-06 1.0204616e-05 1.2163198e-05 5.9504737e-07 9.452533e-06 -1.24441485e-05
3.4239667e-05 1.5786105e-05 -1.3044759e-05 -3.260176e-05 2.8245765e-06 2.6572829e-05 1.6286642e-05 -3.0341125e-05
1.2032608e-05 4.3285065e-05 -2.2692175e-06 -3.7962353e-05 3.7707014e-06 5.482778e-05 -6.043272e-06 5.7693134e-05
-7.786512e-06 -1.2799586e-05 -1.6067488e-06 -1.6545633e-05 1.1419539e-05 -1.4533438e-05 -1.8147028e-05 -1.1811329e-05
4.143025e-05 -2.410885e-05 -3.2992844e-05 -4.693164e-05 3.4517347e-05 1.8634357e-05 3.3379101e-06 7.771667e-06
2.8587565e-05 4.3181928e-05 -1.6000093e-05 -4.379508e-06 -9.512209e-06 -1.9854508e-05 -1.1638069e-05 1.653525e-05
-5.560225e-06 -1.7443577e-05 4.2168213e-06 2.3866465e-05 -9.518394e-06 -4.5896286e-06 8.903216e-06 -3.6581256e-05

net.0.bias f4 [64]
00000000: 67bd 77be 06ab 70be 645d 30b6 5c14 abbd
00000010: 2f6b 02be d273 ffbe 3c99 3c37 568a fc36
00000020: c907 cdb7 48ce 2136 80fc dc3e 8e37 93b7
00000030: fd2e ef37 0558 c6bd a476 e1b6 80b5 82b3
00000040: 535c 8637 90e4 d3b6 9e78 4cb7 eebd 1e38
00000050: b3ab b63d b8b8 3b35 f465 acbd b095 fd37
00000060: e7a0 af38 55fd 2ab8 c128 2f37 f09f d0b6
00000070: 8fdd 9f36 54a6 cfbe fa67 9d37 90ae 4538
00000080: 5080 a8b7 1d71 8937 7cc0 cfb6 326a f9b7
00000090: ce99 923e ab6e 6db7 286f f637 132c ffbd
000000a0: 80a2 beb5 c17f e4bd d7b0 07b8 703e 3134
000000b0: a440 92b7 b69c 133e 388f 28b5 ce92 4eb8
000000c0: e038 fdb5 4ce4 9cbe c272 7437 fc2b 7fbe
000000d0: 5e9a 86bd cb2c 9bb7 84c9 90be 40be 8236
000000e0: e0db ed37 dca8 36b7 1079 1f37 12a3 6fbe
000000f0: b9e8 483d 043e ecb7 08f1 84b7 06be 53be
-0.24193345 -0.2350274 -2.6280404e-06 -0.083534926 -0.127362 -0.4989305 1.1241351e-05 7.5262897e-06
-2.444153e-05 2.411094e-06 0.43161392 -1.7549635e-05 2.85129e-05 -0.09684757 -6.719334e-06 -6.0866114e-08
1.6017037e-05 -6.314898e-06 -1.2187431e-05 3.784702e-05 0.08919468 6.993173e-07 -0.084178835 3.0229654e-05
8.374621e-05 -4.0767092e-05 1.0440302e-05 -6.2175022e-06 4.764362e-06 -0.40556586 1.8764276e-05 4.7131034e-05
-2.008691e-05 1.6384345e-05 -6.191489e-06 -2.9732564e-05 0.2863297 -1.4152068e-05 2.9377246e-05 -0.12459578
-1.4203397e-06 -0.111571796 -3.2351203e-05 1.6507124e-07 -1.7434657e-05 0.14415249 -6.279329e-07 -4.925095e-05
-1.8866522e-06 -0.30642927 1.45702525e-05 -0.24919122 -0.06572412 -1.8498298e-05 -0.28278744 3.89645e-06
2.8354989e-05 -1.0887361e-05 9.505326e-06 -0.2340205 0.049050067 -2.816227e-05 -1.5847865e-05 -0.20677957

net.2.weight f4 [64, 64]
00000000: 7e78 8837 5086 1f36 96e8 e437 427e 9cb7
00000010: 503a 7036 387d b937 de3c 0f37 a47a 5637
00000020: 20b8 8c36 8c48 ec37 bf6f fe37 c00d 5bb7
00000030: 24e7 6f37 9389 7ab8 6ca9 aa37 f02b 8e35
00000040: 5a53 a9b8 d0e2 0038 b0e5 0638 09d2 89b7
00000050: d58b 6f38 5044 ff36 390b 0d38 c01b 94b7
00000060: f56d 4db8 4d68 b3b6 6b33 37b8 2172 0738
00000070: b068 bcb7 b4fb 8bb7 af03 76b8 9dfe ceb7
00000080: f34a 9c36 ca32 a2b7 4ec9 8cb7 1e02 92b7
00000090: 7253 a237 083d 9fb7 6281 3cb8 ae09 bcb7
000000a0: e0ff f1b6 69ca 71b8 1414 0738 d0ff c8b6
000000b0: a84a 33b7 a4a1 0238 9b29 01b8 6dae 6138
000000c0: b607 4538 2ef8 dab7 8054 d237 8211 a637
000000d0: 4ccf e2b5 362e 0537 80dd 54b5 3f31 c9b7
000000e0: f087 1338 7964 a6b7 e041 4737 3ee3 7537
000000f0: 70f6 bdb5 4095 ee37 94cd 8ab8 8c54 d536
00000100: b472 e1b7 7586 02b8 9fa5 1ab8 ec36 81b7
00000110: 5ce6 ce37 bb23 b138 63ca 4936 05f5 8f37
00000120: a4ec 3637 74af 60b6 f02c 30b6 d0fc 7337
00000130: 48a7 84b6 a40b b4b7 2c1c 18b6 0020 e430
00000140: c66c 34b8 3a60 c137 e65a 6db8 182f 9bb6
00000150: 1897 36b6 128b 63b7 e63e 45b7 6bbe 0838
00000160: 80d3 2fb4 d895 02b6 1078 27b8 fc5e d0b6
00000170: 3674 bc38 a66f 0138 3efe aab7 371d 37b8
00000180: e049 1a36 1f31 6938 e615 e5b6 608c 7bb8
00000190: f9ce d6b7 8025 5b34 6fe9 f037 3ed2 01b8
000001a0: 4e0f 94b6 9498 00b7 8dd4 9637 c239 8837
000001b0: 292b 08b8 6e10 a3b7 3a81 55b7 0ddf 2438
000001c0: cf8a d337 2db1 8bb7 a6ae 7838 e078 7ab7
000001d0: 7077 eab5 6f05 9937 64ca d6b7 60cf 1d35
000001e0: 28e4 55b7 e05f 0e38 8aec 99b7 dc65 9937
000001f0: 94e4 6eb6 52ff e4b6 70bb be35 b466 72b7
00000200: 24f5 7337 f1ee 49b7 9259 8eb7 d7bf 8837
00000210: 047b ce37 6d7e e737 7864 49b8 dc12 aa37
00000220: 0a1a cb37 f47a 6838 05b5 51b8 a0ce 87b3
00000230: 8adf 0d37 3d30 e937 5ac5 c237 4e70 deb7
00000240: cd37 d937 43af 9537 6d69 d9b7 c0cd cd37
00000250: 9e2d b0b6 2061 6037 a3ed fd37 9bac 9638
00000260: 7ec2 e2b7 5479 90b6 b62b d237 f2c4 15b8
00000270: b8a6 4d36 d6b6 6c37 b08b 19b8 7809 7537
00000280: c4d8 d237 0845 1e38 bc30 0138 f49a 8c38
00000290: c913 74b7 086b 89b8 d5f3 ebb7 75b8 5a38
000002a0: f5eb e137 297e 89b7 1d4e 1338 d69e 80b7
000002b0: ebae e437 b06d 2a37 5edc c0b5 93d1 5238
000002c0: f2bb 8c37 c060 b9b3 a07d a0b7 df0f bfb7
000002d0: 2e5c 2a38 b513 3db8 b0bd 6637 42c7 09b8
000002e0: 0dc3 8a37 8fa0 9c37 90f7 78b6 40b7 ef34
000002f0: bc82 cc36 6daf c038 e678 ef37 c27b 0b38
00000300: 2485 b63c 9ca5 363d 0055 bcb6 3fe3 8bbd
00000310: 2ea6 5e38 fda2 4d3f bdd9 f4b7 eefb 4eb8
00000320: 8020 7234 b4ff 3236 0f64 66be 40bc aeb5
00000330: f46b 7335 c07b 2f3e dec9 4cb7 4723 7537
00000340: f6cb 3cb7 0649 8c37 08f0 7937 5413 5637
00000350: 98ae a6be 46e1 21b8 82d2 8839 b002 7cb7
00000360: 3601 be37 9da9 6db7 1878 d2b7 deec 7438
00000370: de5a 8b37 9533 b83d 5aba b5b7 8cdd 14b6
00000380: 80ff 80b7 5048 d9b5 d08d 78b6 5ca9 fab7
00000390: 9834 7cbe 70b9 b4b5 aa56 6cb7 802b 173e
000003a0: d0e3 39b5 baaa 593e 6f1d 1db8 1418 81b8
000003b0: d783 dbb7 8d8f eabe 81c3 5937 207a 1835
000003c0: 4ec2 0237 cf2a 0b38 8086 c637 4725 803d
000003d0: ca08 4a3d 4090 a3b8 52fd c439 f8ac 2437
000003e0: 1c53 a8b7 5311 9037 3185 6bb8 ba84 473d
000003f0: 6eba e339 b42d eb37 b0c1 b236 10b5 203a
1.6268572e-05 2.3771026e-06 2.7288024e-05 -1.8655443e-05 3.579673e-06 2.2112028e-05 8.537636e-06 1.27839485e-05
4.19376e-06 2.8167175e-05 3.0331195e-05 -1.3056619e-05 1.4299327e-05 -5.973277e-05 2.0344472e-05 1.0592612e-06
-8.0740734e-05 3.0728814e-05 3.2162003e-05 -1.6429478e-05 5.711227e-05 7.607545e-06 3.362747e-05 -1.7655897e-05
-4.8978214e-05 -5.346758e-06 -4.3678487e-05 3.22928e-05 -2.2460095e-05 -1.66873e-05 -5.86544e-05 -2.4675677e-05
4.6578875e-06 -1.9335555e-05 -1.678304e-05 -1.7405542e-05 1.9350762e-05 -1.8982697e-05 -4.494319e-05 -2.2415854e-05
-7.2121475e-06 -5.7647387e-05 3.2205207e-05 -5.990245e-06 -1.0686614e-05 3.1144955e-05 -3.0794745e-05 5.3806627e-05
4.697564e-05 -2.6103193e-05 2.50733e-05 1.9796895e-05 -1.6898643e-06 7.938177e-06 -7.929848e-07 -2.3984e-05
3.5174133e-05 -1.9835528e-05 1.1876662e-05 1.4656047e-05 -1.415332e-06 2.844131e-05 -6.618645e-05 6.357737e-06
-2.6875503e-05 -3.1119638e-05 -3.6870708e-05 -1.5403573e-05 2.4664383e-05 8.446673e-05 3.0069139e-06 1.7161025e-05
1.09031425e-05 -3.3480728e-06 -2.62522e-06 1.4542791e-05 -3.9533807e-06 -2.1463093e-05 -2.2666163e-06 1.6598278e-09
-4.3016647e-05 2.3052202e-05 -5.658986e-05 -4.6248424e-06 -2.7208062e-06 -1.3562634e-05 -1.175676e-05 3.2602267e-05
-1.6375088e-07 -1.945873e-06 -3.992772e-05 -6.2099407e-06 8.9861845e-05 3.0859977e-05 -2.038397e-05 -4.365781e-05
2.299079e-06 5.5597277e-05 -6.827281e-06 -5.9973798e-05 -2.5607167e-05 2.0409607e-07 2.871893e-05 -3.09518e-05
-4.4125254e-06 -7.664919e-06 1.798037e-05 1.6239359e-05 -3.2465123e-05 -1.9438765e-05 -1.2725877e-05 3.930838e-05
2.5217798e-05 -1.6652595e-05 5.929046e-05 -1.4929305e-05 -1.746912e-06 1.8241552e-05 -2.5605033e-05 5.878883e-07
-1.2748911e-05 3.394473e-05 -1.8349168e-05 1.8286453e-05 -3.5597814e-06 -6.8246527e-06 1.4210655e-06 -1.44482365e-05
1.4541005e-05 -1.20361665e-05 -1.6969429e-05 1.6301796e-05 2.4614397e-05 2.7596217e-05 -4.8015703e-05 2.0274361e-05
2.4211611e-05 5.542762e-05 -4.999807e-05 -6.324012e-08 8.456302e-06 2.7798227e-05 2.3218501e-05 -2.6516758e-05
2.58944e-05 1.7843797e-05 -2.5917509e-05 2.4533714e-05 -5.2505193e-06 1.3374054e-05 3.0270608e-05 7.184708e-05
-2.7031867e-05 -4.305659e-06 2.5054305e-05 -3.5707788e-05 3.0644424e-06 1.4109266e-05 -3.6608137e-05 1.4605343e-05
2.513489e-05 3.7734426e-05 3.0801384e-05 6.7045825e-05 -1.454814e-05 -6.552605e-05 -2.8127726e-05 5.214704e-05
2.6931966e-05 -1.639042e-05 3.512028e-05 -1.5332753e-05 2.726117e-05 1.0158328e-05 -1.436925e-06 5.0263083e-05
1.677682e-05 -8.6323325e-08 -1.9131985e-05 -2.2776365e-05 4.0617007e-05 -4.5079465e-05 1.3753233e-05 -3.284892e-05
1.654171e-05 1.8671415e-05 -3.709898e-06 4.465055e-07 6.0948933e-06 9.187949e-05 2.8547318e-05 3.325544e-05
0.022280283 0.04459153 -5.612732e-06 -0.06830453 5.308369e-05 0.80326825 -2.9188459e-05 -4.9348855e-05
2.254983e-07 2.6672906e-06 -0.22499107 -1.3018798e-06 9.0681647e-07 0.1713705 -1.2206348e-05 1.4611352e-05
-1.1253162e-05 1.6723305e-05 1.4897443e-05 1.2759894e-05 -0.3255508 -3.8595193e-05 0.00026096782 -1.5020996e-05
2.2650329e-05 -1.4165792e-05 -2.5089874e-05 5.8394733e-05 1.6612405e-05 0.089942135 -2.1663658e-05 -2.2182676e-06
-1.5377766e-05 -1.6188806e-06 -3.7037425e-06 -2.9881186e-05 -0.24629438 -1.3465014e-06 -1.4086874e-05 0.14762688
-6.924938e-07 0.21256533 -3.745913e-05 -6.155684e-05 -2.6168227e-05 -0.45812646 1.2979727e-05 5.680213e-07
7.793844e-06 3.318005e-05 2.366607e-05 0.0625711 0.04932479 -7.799314e-05 0.00037572772 9.815434e-06
-2.0065861e-05 1.7174205e-05 -5.615241e-05 0.048710562 0.00043435715 2.8035465e-05 5.3273616e-06 0.0006130496

net.2.bias f4 [64]
00000000: 340d 02b7 f134 de37 0b46 4637 3360 45be
00000010: caed ba37 5c29 1cb7 d923 6637 28cc d037
00000020: 5a47 15b7 78b8 34b5 0a25 a4b6 3476 92b7
00000030: 28c2 3936 d037 dcb6 479d a237 d475 b136
00000040: 00b2 3935 61f8 0db8 1647 d8b7 604f 5cb7
00000050: e886 bd36 4e00 4bbd 1fe9 6336 2143 613b
00000060: 23fc 21b8 35a8 d5bd 401b 4db4 d365 67b8
00000070: 617a b237 12e8 33bd 2e6b 9237 b9d1 2bb8
00000080: 7021 9ab7 988e cd37 2abf 9d37 0796 14b8
00000090: 2b41 4dba 7636 54be 0682 403b 4467 9c36
000000a0: 92cc da37 7d2b 1ab8 c8f5 01b8 fb86 d7b7
000000b0: 8544 4ebe 554c 3e36 bbb4 1237 f694 1abd
000000c0: cd94 febd 5335 e4b7 2a9b 3437 5e7c ba36
000000d0: 5778 8fb7 3159 183e 202b 6d37 fad7 8cb5
000000e0: 05c5 6637 073a 6ebd 9010 7cb6 1808 c4b8
000000f0: 7060 02b6 ea92 2eb8 10a4 b236 e426 a3b7
-7.751678e-06 2.6489115e-05 1.1818028e-05 -0.19274978 2.2283657e-05 -9.307954e-06 1.3717415e-05 2.48906e-05
-8.897705e-06 -6.732366e-07 -4.891893e-06 -1.7459599e-05 2.7680162e-06 -6.5630084e-06 1.9385143e-05 5.288728e-06
6.9176895e-07 -3.384834e-05 -2.5782309e-05 -1.3131503e-05 5.648344e-06 -0.049560837 3.396133e-06 0.0034372287
-3.8620212e-05 -0.104324736 -1.9102026e-07 -5.5169523e-05 2.127624e-05 -0.04392249 1.7454466e-05 -4.0964896e-05
-1.8373801e-05 2.4504305e-05 1.8804876e-05 -3.5425674e-05 -0.000782984 -0.207239 0.0029374375 4.661184e-06
2.6082886e-05 -3.6756963e-05 -3.09849e-05 -2.5692852e-05 -0.20143326 2.8356637e-06 8.744358e-06 -0.037739716
-0.12430725 -2.7204549e-05 1.0764963e-05 5.55771e-06 -1.7102966e-05 0.14877774 1.4136342e-05 -1.049367e-06
1.37549405e-05 -0.058160808 -3.7560567e-06 -9.347516e-05 -1.9427644e-06 -4.1621657e-05 5.323913e-06 -1.9449224e-05

net.4.weight f4 [64, 64]
00000000: 8ca2 c437 825c 33b7 2086 c836 3fc8 a33d
00000010: 65ec 9bb7 6085 49b5 9012 12b8 0656 8e37
00000020: 600b b737 5e7d 6c37 3237 d1b5 4ed7 00b8
00000030: 3065 5535 0a3b 69b7 ee8c 65b8 d35d c736
00000040: 42f3 0038 0554 96b7 ede1 90b7 32ca a337
00000050: d882 47b7 1cab 163e a838 2538 db57 bc3e
00000060: 1ae8 5237 a13f cf3e c081 4c37 5f6e a6b7
00000070: 64ea 00b8 89ba 0538 46be 6f37 c805 03b7
00000080: 79d0 abb7 58a4 dd36 5e5b 433e 8cf8 ea37
00000090: 228d 213e a366 e03c be7a 4737 1252 69b7
000000a0: 888c 16b8 8e28 d1b7 28ef 8e36 48ed 0eb6
000000b0: c6ce 9fb8 0a1a ab37 663f 2036 9b32 843e
000000c0: cd82 b134 c9f1 9238 861f 9d37 5287 25b7
000000d0: 0b04 aeb7 3291 56be 30ab 5db5 d24f 8eb7
000000e0: ced6 46b7 7c2d 953e 62f4 5237 4d94 7b3e
000000f0: 4e25 b4b7 b028 dd37 0076 eab4 ec62 c235
00000100: 103c e336 f498 d0b7 f054 8ab7 8008 8bb4
00000110: bed4 9fb7 a5b2 d6b7 7748 09b8 9589 fcb7
00000120: 8806 35b8 9487 3eb7 f5bf d0b6 ee89 4ab7
00000130: 843c 70b7 5d78 0db8 2988 bdb7 de79 8837
00000140: 3e5a 1d37 545f 54b6 9799 6738 f55d 1438
00000150: a216 4eb8 0cda 8d37 98dc 9837 8069 44b7
00000160: cfba e6b7 e6ef 64b7 81b9 4a37 bc9f a5b7
00000170: c27f b2b7 4214 9137 3a8e b737 e28a 02b8
00000180: c416 acb6 ea3d 09b7 88e4 27b8 8bbd 31b8
00000190: ac62 87b7 20fa b4b5 982f 8536 7e1e 0838
000001a0: 3b98 b737 9f05 1837 ca44 fbb7 f5c0 edb7
000001b0: b0c8 3e38 6fb4 51b8 93b9 2938 cee6 1338
000001c0: 9c7a 41b8 9591 f136 d48b da37 90ca 7837
000001d0: b013 64b6 c808 d5b6 06b0 ba37 d034 5db7
000001e0: bb3b 9eb7 76fc 6b37 c0c8 4db5 ffa1 13b8
000001f0: 0080 26b5 c49d 8138 00e7 81b7 74bf fa37
00000200: 129f 1238 82f2 5a38 6ac3 aa37 38ff 0fb6
00000210: 2116 1f37 b10a e037 57f8 8d37 404f ea34
00000220: 105d 9a35 7053 22b8 9082 8a38 3a2e 8e37
00000230: 6c47 b237 775f 9437 d398 acb8 a8af 6d37
00000240: a4e3 0338 f4df 80b6 c453 c5b6 32e3 9b37
00000250: 4c37 9836 d573 1538 a4fc ee36 59fb cdb7
00000260: c8f9 bfb5 6d08 be37 7660 ac37 506d 12b6
00000270: 968b f536 9491 d7b7 4ab7 d237 d8ae 3bb6
00000280: 44f8 a337 c6c0 2738 7f4c 5437 30c6 1eb7
00000290: 2942 0db8 48e6 e2b6 2b5f d4b7 9e4e f437
000002a0: b4e1 16b7 b0c1 a0b7 3ede 4538 dbe6 44b8
000002b0: ac00 ddb7 8f89 ecb6 19ff 3e37 6360 ad37
000002c0: 78f7 00b5 6a56 3c38 5354 f437 a335 7a37
000002d0: 00c9 a233 87de be37 1a8a 1338 1799 0ab8
000002e0: 0c54 6f37 0c60 f135 51bb 3a38 4513 c337
000002f0: ea37 b738 47e0 1238 a361 0a38 865d 7037
00000300: cb29 3a38 5679 6138 d40e acb8 68f1 c8b6
00000310: 88a0 b7b7 be45 c737 48b3 95b7 3843 1e37
00000320: 5087 9bb7 803f 0638 c8d9 9b35 b93b 4f38
00000330: 7a6f c136 b669 5138 a0d0 16b8 6225 6b37
00000340: f5d0 4a37 d2e8 c5b7 dc99 a8b7 3c1a e7b7
00000350: 001f 7e37 3302 6038 9283 0ab7 2595 36b7
00000360: 58ca 2237 5e17 3536 005f dbb7 a225 1cb8
00000370: 777e adb7 a545 6538 4480 2d37 50d2 6336
00000380: 521b 25b8 027c ee37 8009 e535 9325 50b7
00000390: e4d5 7db7 d31e 8e37 0930 6db8 578b 0a38
000003a0: 505e 25b8 28af db36 c0ff 6bb8 e2fa 8c36
000003b0: 2848 c236 90fb a4b5 20e3 a135 2996 1638
000003c0: 3854 9435 4a61 d4b7 2297 6337 6a05 b7b7
000003d0: f09a afb5 9027 32b6 40ed 9434 cdbc 9338
000003e0: 3583 0838 e43f 1137 ef57 8438 b837 2736
000003f0: 55e4 c8b7 6071 9cb6 22c8 aab7 90b3 bcb7
2.3440713e-05 -1.069077e-05 5.9760787e-06 0.07997178 -1.858752e-05 -7.507242e-07 -3.48264e-05 1.6967777e-05
2.1820597e-05 1.40958855e-05 -1.5587777e-06 -3.0718096e-05 7.949593e-07 -1.3901628e-05 -5.4729106e-05 5.9415847e-06
3.074413e-05 -1.7920518e-05 -1.7271343e-05 1.9525269e-05 -1.1891789e-05 0.1471371 3.939183e-05 0.36785778
1.2571016e-05 0.40478233 1.2189557e-05 -1.9840138e-05 -3.073587e-05 3.1883395e-05 1.4289812e-05 -7.8095545e-06
-2.0481866e-05 6.6054454e-06 0.19077823 2.8010712e-05 0.15776494 0.027392691 1.1889902e-05 -1.3906991e-05
-3.5893667e-05 -2.4933626e-05 4.2597712e-06 -2.1297765e-06 -7.6202254e-05 2.0396914e-05 2.387876e-06 0.2581986
3.306399e-07 7.0068585e-05 1.8730538e-05 -9.866273e-06 -2.0744299e-05 -0.20953825 -8.2578026e-07 -1.6964888e-05
-1.1851733e-05 0.29136264 1.2573875e-05 0.24568291 -2.1475043e-05 2.63642e-05 -4.3671753e-07 1.4482916e-06
6.7721194e-06 -2.4866757e-05 -1.6490434e-05 -2.5896952e-07 -1.9053343e-05 -2.5593976e-05 -3.2730833e-05 -3.0104808e-05
-4.3159846e-05 -1.1356449e-05 -6.22123e-06 -1.20722525e-05 -1.4319205e-05 -3.3729117e-05 -2.259396e-05 1.6269212e-05
9.37894e-06 -3.164595e-06 5.5217733e-05 3.5373454e-05 -4.9135306e-05 1.6910046e-05 1.8222534e-05 -1.1707074e-05
-2.7505126e-05 -1.3645715e-05 1.2083329e-05 -1.9743915e-05 -2.1278745e-05 1.729478e-05 2.188153e-05 -3.112376e-05
-5.1286497e-06 -8.180252e-06 -4.002874e-05 -4.2376614e-05 -1.6139202e-05 -1.3483841e-06 3.9692495e-06 3.2453325e-05
2.1886188e-05 9.061215e-06 -2.9953564e-05 -2.8342454e-05 4.5486435e-05 -4.9997525e-05 4.046557e-05 3.5262485e-05
-4.6128975e-05 7.1993077e-06 2.6052738e-05 1.4829115e-05 -3.3986107e-06 -6.348917e-06 2.2254895e-05 -1.3184923e-05
-1.8862882e-05 1.4065872e-05 -7.666058e-07 -3.51984e-05 -6.2026083e-07 6.1805855e-05 -1.5485566e-05 2.9891475e-05
3.495726e-05 5.2201103e-05 2.0356576e-05 -2.1457217e-06 9.482291e-06 2.670786e-05 1.6924152e-05 4.3643558e-07
1.1500979e-06 -3.8701517e-05 6.604672e-05 1.6949245e-05 2.1252512e-05 1.768743e-05 -8.230065e-05 1.4167199e-05
3.144484e-05 -3.840769e-06 -5.880809e-06 1.8583236e-05 4.5363904e-06 3.5632245e-05 7.122364e-06 -2.4554947e-05
-1.4303305e-06 2.2653689e-05 2.0548916e-05 -2.1819324e-06 7.317819e-06 -2.5697787e-05 2.5119301e-05 -2.7966944e-06
1.9546722e-05 3.9995437e-05 1.2653995e-05 -9.463678e-06 -3.3678636e-05 -6.762133e-06 -2.5316685e-05 2.9123676e-05
-8.993247e-06 -1.916368e-05 4.717544e-05 -4.6945042e-05 -2.6345566e-05 -7.049362e-06 1.1384277e-05 2.066809e-05
-4.804383e-07 4.4903172e-05 2.9126333e-05 1.49136495e-05 7.5802745e-08 2.2753387e-05 3.517615e-05 -3.304434e-05
1.4265079e-05 1.7983853e-06 4.4520308e-05 2.3254785e-05 8.736535e-05 3.5017987e-05 3.2992695e-05 1.432689e-05
4.438478e-05 5.3757183e-05 -8.204361e-05 -5.988568e-06 -2.1890053e-05 2.3755125e-05 -1.7845668e-05 9.4331845e-06
-1.854045e-05 3.200723e-05 1.1611783e-06 4.9408267e-05 5.764826e-06 4.9927934e-05 -3.5957084e-05 1.4015795e-05
1.208879e-05 -2.3592645e-05 -2.0098807e-05 -2.7549562e-05 1.51467975e-05 5.340781e-05 -8.256075e-06 -1.0882771e-05
9.703064e-06 2.6984703e-06 -2.6151072e-05 -3.7228347e-05 -2.0682097e-05 5.4662716e-05 1.0341468e-05 3.3948054e-06
-3.936451e-05 2.8429557e-05 1.7064594e-06 -1.24065145e-05 -1.5129775e-05 1.6942073e-05 -5.654994e-05 3.3031534e-05
-3.94269e-05 6.5470995e-06 -5.6266552e-05 4.2015317e-06 5.7900506e-06 -1.2292167e-06 1.2061537e-06 3.5902634e-05
1.105137e-06 -2.5317673e-05 1.3565443e-05 -2.1817821e-05 -1.3083609e-06 -2.6547095e-06 2.773977e-07 7.044673e-05
3.2547123e-05 8.657549e-06 6.3106294e-05 2.4917372e-06 -2.3948183e-05 -4.662361e-06 -2.0358773e-05 -2.2494962e-05

net.4.bias f4 [64]
00000000: 7533 1c3e 5007 cfb7 f21d 97b6 78c5 25b8
00000010: d342 573d 3749 d537 f615 8ab7 4754 c83c
00000020: 9a9f 0ab7 bfeb 04b9 0f2e bc37 93de ffb7
00000030: 86cd 3c3b 4a8d 1038 0886 5c35 839b b338
00000040: efeb 9fb7 1a44 2e38 6c23 d337 3c9b 6f37
00000050: bcca 4ab7 7efd b0b7 302d 2db7 881b 9b35
00000060: dccf c038 0a4a b1b7 f0b9 92b4 d632 d737
00000070: 0cb5 d437 0417 4737 6072 a038 9249 06b8
00000080: 96a4 f6b6 9c7c 053e d3a7 bdb7 b6d5 403e
00000090: d360 df37 ee00 7a38 45d7 6e3c b2f9 3837
000000a0: 1325 10b9 83e1 8a37 9d57 00b8 a571 d2bc
000000b0: e35c 2db8 3b55 4d38 85bf 3637 257d 40b7
000000c0: 6ca6 1338 11c9 983e 8af9 9537 da17 0438
000000d0: 284d 4fb7 219b 2138 05b2 a7ba b0c4 0237
000000e0: 96d8 3638 efe2 a336 2855 7a37 3086 6fb6
000000f0: b85b b436 623d e537 f91f 8e3e c6bf 5fb8
0.15254004 -2.4679728e-05 -4.503637e-06 -3.9522973e-05 0.052553963 2.5425672e-05 -1.6461108e-05 0.02445425
-8.262601e-06 -0.00012676323 2.2432794e-05 -3.0502013e-05 0.0028809025 3.446386e-05 8.215143e-07 8.5643514e-05
-1.9064142e-05 4.1548257e-05 2.5169655e-05 1.4281653e-05 -1.2087341e-05 -2.1098876e-05 -1.0322125e-05 1.1556413e-06
9.19399e-05 -2.1134521e-05 -2.7329907e-07 2.565367e-05 2.5356676e-05 1.1866683e-05 7.6506985e-05 -3.2016607e-05
-7.3505316e-06 0.13035816 -2.2608705e-05 0.18831524 2.6628759e-05 5.960551e-05 0.014577691 1.1025391e-05
-0.00013746721 1.6555894e-05 -3.0599174e-05 -0.025688956 -4.133292e-05 4.8955186e-05 1.0892637e-05 -1.1473229e-05
3.5202524e-05 0.29840901 1.7878385e-05 3.1493466e-05 -1.2356126e-05 3.8529866e-05 -0.0012794143 7.794399e-06
4.3593893e-05 4.884197e-06 1.4920988e-05 -3.5691883e-06 5.3750955e-06 2.732751e-05 0.27758768 -5.3345946e-05

net.6.weight f4 [6, 64]
00000000: a027 863e f51e 1c38 2ef9 c737 4038 a436
00000010: f40f 453e 5ef2 a636 a91c 91b7 0a8d 83bc
00000020: 9046 f636 a83b 50bd 9c9d 5337 9c58 5837
00000030: 3977 8b3e 066e 05b8 9aa9 ab36 2635 8fb7
00000040: 908c d2b6 79df 1d3e 73c3 28b8 eac3 0f38
00000050: 542b 09b8 758f 4337 6c94 be37 98da 7737
00000060: e849 0036 93d0 e236 9065 e737 50da a137
00000070: 08be 55b6 18de fdb7 0aac 593e d036 0636
00000080: 3325 b637 08d4 123e b0bf 2d3e f8cc 4f3e
00000090: 13f5 443d 1df8 e33d f315 183e c0a3 5ab6
000000a0: d649 813e 102c 1f36 32ba 8937 28e0 f73d
000000b0: 8c7c 83b8 9e68 f936 f2f0 44b7 0fed 4e3e
000000c0: ac9f fcb6 4426 c3b9 7ab9 803e 006c d836
000000d0: 0777 36b7 26e2 0b37 c8a4 483e 9f87 9fb7
000000e0: df56 483d a897 77b6 dc10 bfb7 575b 8637
000000f0: 29e6 783e ad37 9e37 143f 81bd 0e65 fcb7
00000100: 6585 783e 7d5b b5b6 80a4 89b6 bcbe ae36
00000110: 628c 8ebe d690 c835 45f7 1b38 2a60 37be
00000120: 2030 0c37 ea14 73bf f26e 1437 057d c4b6
00000130: 9408 2f3d 2a12 84b7 727d 5937 58b7 b2b5
00000140: bbab 6337 f7c7 063d fe6b 8fb7 b06d 30b8
00000150: 4a14 f9b7 9df6 96b6 10b9 2737 18c5 b8b6
00000160: f73a d0b7 00ee 8233 8ecd 69b8 8e20 75b7
00000170: 1000 8434 7d51 b7b8 bef6 6a3c c8a4 d836
00000180: 31d1 cb37 168e 293e 7f7d c0bc ce37 153e
00000190: d64d 753c 6560 f9b8 5bb8 813d d031 6038
000001a0: 8181 ff3d 1f2a f136 b4c9 ab37 ff38 7a3e
000001b0: f807 1f37 b4b4 7ab7 e0c2 f435 dce5 f2b8
000001c0: 2666 b837 3e22 7a3d b666 96b9 d6e3 2b37
000001d0: f251 b736 9e0c 2438 479d 2ebd c2bc 66b7
000001e0: ed1e 213e 3294 9db7 7a7d 2338 0812 7bb6
000001f0: ffc1 af3c da81 a537 005a e3bf ce21 8eb7
00000200: 112f 353e 9fee a3b7 f4e7 4137 0ecd 21b7
00000210: 60c7 a3bc 3a7d 7837 e64b f6b7 1080 a839
00000220: 2487 8fb6 54c7 86ba 5ce1 1bb7 b024 a336
00000230: ae7b cc39 4d2d f4b6 8a28 c1b7 d66c 6037
00000240: 3c15 01b7 4f25 9139 8035 7536 02c8 27b7
00000250: 5a2d 63b8 6cc3 1cb8 42e3 c337 0898 9cb5
00000260: 28a8 b6b8 e2b2 14b8 2666 b337 5aa2 3a38
00000270: edad dc37 c09d aab6 755f 163e 39a3 6037
00000280: 3a7d 2038 742a 983c d335 c339 cb4c 973e
00000290: 72aa 1639 e0d5 7c38 3baa 0d3d 8cf9 8236
000002a0: 455d ec3b 38cb fab6 b0f1 4db6 f61b 8539
000002b0: 1ca0 5137 541b 9736 6234 41b7 a21a 483c
000002c0: ecfd bdb7 853d d33d edbf ca3d 9cd5 60b8
000002d0: 246b 3bb8 1c55 f136 95b3 cd3d 4679 09b8
000002e0: 1eaf 8c39 22ed a1b7 58bd a735 1dde 4b38
000002f0: 8498 713e e0a4 d1b7 5d42 413e a0da e2b6
00000300: ed2b 303f 0f80 63b7 2ed8 4337 d6fd c737
00000310: 90d7 ee36 3e55 1e38 8ca7 02b7 f69b a4be
00000320: f7ca 54b7 60d2 dcb7 c2c2 c437 6bdf 37b8
00000330: 9f25 21b7 40aa f137 9fa6 4937 6383 8137
00000340: d0f7 30b5 30e9 69b6 5857 d637 4058 56b5
00000350: 986b 2038 9428 c3b7 a18e 9738 2765 7038
00000360: 7e0f 9f36 58ec 5f37 3fdf 8a37 2c86 23b8
00000370: 3078 c037 84db 15b6 4909 0db9 2bda 3db8
00000380: 00bb 25b8 19db b1b7 4cc2 8cb8 2a44 b338
00000390: e075 fa35 2375 0938 3049 d335 16a7 c7b7
000003a0: e807 bd38 b64b d8b7 1e1f 34b7 f8e9 2b39
000003b0: 48b4 3937 f5c9 0738 e61d 2ab8 0f6a 15b8
000003c0: 1d72 8ab7 cc69 a1b7 355b 5bb8 227d 6f37
000003d0: 0ccb 6eb7 40db 8eb4 d706 00bd 1876 c037
000003e0: b02c 9135 285c f0b7 48ac 7bb6 5e04 02b8
000003f0: 7fa6 5db8 db45 7438 5f03 8838 cff6 f637
0.26202106 3.722213e-05 2.3838682e-05 4.8941292e-06 0.19244367 4.9754008e-06 -1.7298693e-05 -0.016058464
7.339586e-06 -0.050838143 1.2613276e-05 1.2895234e-05 0.27239397 -3.181214e-05 5.1159413e-06 -1.7071678e-05
-6.2748513e-06 0.1541728 -4.0236348e-05 3.4276316e-05 -3.2703698e-05 1.1656307e-05 2.271888e-05 1.4773243e-05
1.9116505e-06 6.759606e-06 2.758464e-05 1.9294355e-05 -3.1850086e-06 -3.026337e-05 0.21257034 1.999946e-06
2.1713413e-05 0.14338696 0.16967654 0.20293033 0.048085283 0.11131308 0.14852123 -3.2579846e-06
0.25251645 2.3718494e-06 1.6418377e-05 0.12103301 -6.2697654e-05 7.4329573e-06 -1.173861e-05 0.20207618
-7.5287735e-06 -0.00037221808 0.25141507 6.4498745e-06 -1.0875759e-05 8.3377e-06 0.19594109 -1.901743e-05
0.04891097 -3.6894144e-06 -2.2776825e-05 1.6016578e-05 0.24306549 1.8860994e-05 -0.06310859 -3.0087798e-05
0.24269636 -5.404871e-06 -4.1020685e-06 5.2078085e-06 -0.2784148 1.4943314e-06 3.7185167e-05 -0.17907777
8.355855e-06 -0.9495379 8.847319e-06 -5.8558094e-06 0.04273279 -1.5744085e-05 1.2963415e-05 -1.3315394e-06
1.35702385e-05 0.032905545 -1.7097216e-05 -4.2063824e-05 -2.9692561e-05 -4.499058e-06 9.997064e-06 -5.506572e-06
-2.482299e-05 6.096889e-08 -5.5742967e-05 -1.4610718e-05 2.4586961e-07 -8.7412984e-05 0.0143410545 6.4564847e-06
2.4296898e-05 0.16558108 -0.023497341 0.14572069 0.014972171 -0.000118912 0.06333991 5.3452153e-05
0.12475873 7.1872632e-06 2.0478714e-05 0.24435805 9.478994e-06 -1.4943234e-05 1.8236133e-06 -0.00011582274
2.1982076e-05 0.061067812 -0.00028686755 1.0245441e-05 5.4633647e-06 3.9112398e-05 -0.04263046 -1.3753017e-05
0.15734453 -1.8784867e-05 3.8979088e-05 -3.741241e-06 0.02145481 1.973e-05 -1.7761841 -1.694346e-05
0.17693736 -1.954223e-05 1.1557702e-05 -9.644091e-06 -0.01999253 1.48111085e-05 -2.9360828e-05 0.0003213887
-4.2774645e-06 -0.0010282793 -9.2911905e-06 4.8620495e-06 0.0003900206 -7.2770404e-06 -2.302627e-05 1.3376781e-05
-7.693943e-06 0.00027684352 3.6538986e-06 -1.0000544e-05 -5.4163254e-05 -3.73753e-05 2.3351637e-05 -1.1667153e-06
-8.709758e-05 -3.5452547e-05 2.138603e-05 4.4497057e-05 2.6307034e-05 -5.0847593e-06 0.14684851 1.3389444e-05
3.82636e-05 0.01857493 0.000372334 0.29550776 0.0001436861 6.028067e-05 0.034586173 3.903353e-06
0.007213267 -7.4742384e-06 -3.068806e-06 0.0002538857 1.2494649e-05 4.503332e-06 -1.1515893e-05 0.012213381
-2.2648797e-05 0.10314468 0.09899888 -5.36047e-05 -4.4684057e-05 7.1922677e-06 0.10044018 -3.277629e-05
0.00026833353 -1.930312e-05 1.2497576e-06 4.860583e-05 0.23593336 -2.4991517e-05 0.18872972 -6.760776e-06
0.68817025 -1.356007e-05 1.1673239e-05 2.384085e-05 7.1180475e-06 3.7749523e-05 -7.787614e-06 -0.3215024
-1.2683441e-05 -2.6324007e-05 2.3455712e-05 -4.3838674e-05 -9.605107e-06 2.8808718e-05 1.2019328e-05 1.543918e-05
-6.5925724e-07 -3.4855439e-06 2.555146e-05 -7.9849633e-07 3.8247177e-05 -2.3264707e-05 7.226808e-05 5.7314664e-05
4.740373e-06 1.3346864e-05 1.6554839e-05 -3.8987186e-05 2.294415e-05 -2.2330505e-06 -0.00013450267 -4.5264296e-05
-3.9513223e-05 -2.120207e-05 -6.711911e-05 8.548082e-05 1.8660758e-06 3.2772437e-05 1.5742025e-06 -2.3800454e-05
9.013695e-05 -2.5784462e-05 -1.0736081e-05 0.00016394991 1.1068834e-05 3.2374595e-05 -4.0559004e-05 -3.5623143e-05
-1.650402e-05 -1.9241961e-05 -5.2298612e-05 1.4274645e-05 -1.4233181e-05 -2.6609086e-07 -0.031256523 2.2943175e-05
1.0816348e-06 -2.8653143e-05 -3.7502195e-06 -3.0998483e-05 -5.2845568e-05 5.823919e-05 6.485613e-05 2.9440414e-05

net.6.bias f4 [6]
00000000: 72ff 363e ffd9 8a3d 13c4 8c3e 58a4 77b7
00000010: 44a1 6ab8 9978 a5bd
0.17870882 0.06779861 0.27493343 -1.47606115e-05 -5.5940138e-05 -0.08079643
