onnx_models/state_estimator.onnx (onnx, 3848 bytes, 6 tensors)

net.0.weight f4 [16, 21]
0	0xbe3048e0	-0.172153
1	0xbeb78cae	-0.35849518
2	0x3f7d7302	0.99003613
3	0xbe53cab0	-0.20682788
4	0xbd8b6144	-0.06805661
5	0x3f435558	0.763021
6	0x3e69ff61	0.22851326
7	0xbe627645	-0.22115429
8	0x3fd10ab7	1.6331395
9	0x3d34574b	0.04402856
10	0xbe0c096d	-0.1367547
11	0x3f81f495	1.0152766
12	0x3e184d0d	0.14873143
13	0x3dfac882	0.12245275
14	0x3f1edc2e	0.6205472
15	0xbf3dbb9d	-0.741144
16	0xc04991e2	-3.149529
17	0x3f76ca9e	0.9640292
18	0x3f65e4cc	0.8980224
19	0x41290398	10.563377
20	0xbdc3897d	-0.09547708
21	0xbe9fd4dd	-0.3121709
22	0xbed7c82f	-0.42144915
23	0xbf1b9c4c	-0.60785365
24	0xbe546546	-0.20741758
25	0xbe055333	-0.13020019
26	0xbf0dc575	-0.5537942
27	0xbe316e3d	-0.17327209
28	0xbe47840a	-0.19483963
29	0xbecd1aa0	-0.40059376
30	0xbd36dc13	-0.044643473
31	0x3c4b9648	0.012425967
32	0xbca1a650	-0.019732624
33	0x3cc0da2a	0.023541529
34	0xbd60022b	-0.054689568
35	0x3e97ac34	0.29623568
36	0xbe0ce451	-0.13758971
37	0xbe7b4573	-0.24538212
38	0x3ef1a47c	0.47195804
39	0x3f6107df	0.87902635
40	0x406351c2	3.551865
41	0xbe3caf48	-0.1842624
42	0x3e8f86fc	0.28032672
43	0x3df96aa2	0.12178542
44	0x3e575eb1	0.21032216
45	0x3e72550c	0.23665255
46	0x3e4b065e	0.19826648
47	0x3f03f9a0	0.5155277
48	0x3e1a997a	0.15097609
49	0x3e379b1c	0.17930263
50	0x3d652539	0.0559437
51	0x3e1ae0c4	0.15124804
52	0x3c9b8cd2	0.018988047
53	0xbe103f62	-0.14086679
54	0xbda05c5c	-0.07830116
55	0xbd94bc35	-0.0726246
56	0xbecb797a	-0.39741117
57	0x3e6d2110	0.23157144
58	0xbc9268a7	-0.017872168
59	0xbe7ca230	-0.24671245
60	0xbf5aeb01	-0.8551484
61	0xc034fa67	-2.8277833
62	0x3d3c0287	0.045900848
63	0xbefdd60b	-0.49577364
64	0xbe658871	-0.2241533
65	0xbf2351e3	-0.63796824
66	0xbed5b8c1	-0.4174252
67	0xbdbebd71	-0.09313477
68	0xbeebe9b8	-0.4607675
69	0xbeb2ccf9	-0.34922007
70	0xbd126cf7	-0.03574845
71	0xbdca696c	-0.09883389
72	0x3bbf003f	0.0058288868
73	0xbd89c377	-0.06726735
74	0x3e9eab0e	0.3098988
75	0x3c44b51e	0.012006072
76	0xbceeec0c	-0.02916529
77	0x3eb21665	0.3478271
78	0xbed1a727	-0.4094784
79	0xbc7523c9	-0.014962145
80	0x3ee64267	0.44972536
81	0x3f7def1b	0.9919297
82	0x4045467f	3.0824277
83	0xbdb92a3f	-0.09041261
84	0x3e9c781b	0.30560383
85	0x3d9337ef	0.07188403
86	0x3f3b9973	0.7328102
87	0x3dee9ff5	0.11651603
88	0x3eb7eba6	0.35921973
89	0x3efe6992	0.4968992
90	0xbddd9fe4	-0.10821512
91	0xbbb2fb50	-0.0054620877
92	0xbecdb917	-0.40180275
93	0xbeb9484b	-0.36187968
94	0xbe4774f6	-0.19478211
95	0xbf04b52d	-0.5183895
96	0xbea38999	-0.31940916
97	0xbd2b9083	-0.041885864
98	0xbf48a9c3	-0.78384036
99	0x3e2953b1	0.16535832
100	0x3ef2903e	0.47375673
101	0x3e585397	0.21125637
102	0xbe3c868c	-0.184107
103	0xc101e049	-8.117257
104	0x3eecb3a6	0.4623081
105	0x3d2d5101	0.04231358
106	0xbddc51e9	-0.107578106
107	0x3ebf4260	0.37355328
108	0x3ba830d8	0.0051327758
109	0x3cace443	0.021104937
110	0x3e6e472f	0.23269342
111	0xbd251cab	-0.040310543
112	0x3e08a6a0	0.13344812
113	0x3d181e4f	0.03713828
114	0x3da29b8b	0.07939824
115	0x3d312de0	0.04325664
116	0xbc931f77	-0.01795934
117	0xbe7cc7f0	-0.24685645
118	0xbd80b84a	-0.0628515
119	0xbf08c611	-0.53427225
120	0x3d221dee	0.039579324
121	0xbda6d9b0	-0.08146989
122	0xbdff3f3e	-0.12463234
123	0xbdbabfc4	-0.09118608
124	0xc0052253	-2.08022
125	0x3eabc1d4	0.33546317
126	0xbed3faf3	-0.41402397
127	0xbe64c7c3	-0.22341828
128	0xbfadaf12	-1.3569052
129	0xbe7ed3fe	-0.24885556
130	0xbcd94230	-0.026520818
131	0xbe926fae	-0.2860083
132	0xbceccd73	-0.02890656
133	0x3cc3456e	0.023836818
134	0x3e47775b	0.19479124
135	0x3d7cfde2	0.06176556
136	0xbd3f0436	-0.046634875
137	0x3f060906	0.5235752
138	0x3de23d34	0.1104683
139	0x3cc67e30	0.024230093
140	0x3f6a3b67	0.9149689
141	0xbf7923c0	-0.97320175
142	0x3f5184c0	0.81843185
143	0x3e8f1095	0.2794234
144	0x3f741561	0.9534512
145	0xc07ac57a	-3.918303
146	0x3f1fe8c9	0.62464577
147	0xbdabcc6b	-0.08388599
148	0xbda838c4	-0.08213952
149	0xbec02216	-0.37526006
150	0xba8df29d	-0.0010829751
151	0xbbdcfbe6	-0.006743896
152	0x3e8e66da	0.27812845
153	0x3df8708b	0.12130841
154	0xbbd532cf	-0.006506301
155	0x3caba3ae	0.020952072
156	0x3d7a66bb	0.061133128
157	0xbdfbd074	-0.12295619
158	0xbe302e39	-0.17205133
159	0xbdb329dc	-0.087482184
160	0x3d02f935	0.031975944
161	0xbdfa76e2	-0.12229706
162	0xbeef83b6	-0.46780175
163	0xbe8edfbd	-0.27905074
164	0xbdd03b37	-0.10167544
165	0x3d878bba	0.066184476
166	0x3e7ad53c	0.24495405
167	0x3e4bf20f	0.19916557
168	0x3e923dd6	0.28562802
169	0x3d7d5592	0.061849184
170	0x3ed5e553	0.41776523
171	0x3ec6f0ae	0.388555
172	0x3ea5f575	0.3241383
173	0x3f092129	0.53566223
174	0x3ec8e806	0.3923952
175	0x3e20a89f	0.15689324
176	0x3edf7579	0.43644312
177	0x3e0b1403	0.13581853
178	0x3cee3ef6	0.029082756
179	0x3e56efa4	0.20989853
180	0xbcaf8e01	-0.021430017
181	0x3dc8354b	0.0977579
182	0xbc04b66a	-0.0081001315
183	0x3e65aa92	0.22428349
184	0x3d37cbd6	0.044872127
185	0xbeb00fcc	-0.34387052
186	0xbf4d145e	-0.801092
187	0x3fbc7f6c	1.4726386
188	0xbef0194c	-0.468943
189	0x3e74b20c	0.23896044
190	0x3de727a5	0.112868585
191	0x3fab48d3	1.3381599
192	0x3e805b51	0.2506967
193	0x3ced352a	0.028956015
194	0x3f1751e4	0.5910933
195	0x3d874f81	0.06606961
196	0x3d9465d7	0.07245987
197	0x3e4e0441	0.2011881
198	0x3cd71f94	0.026260175
199	0x3e326cc8	0.17424309
200	0xbea5008b	-0.32226977
201	0x3da51ddb	0.08062335
202	0x3e06b923	0.13156562
203	0xbf5073ea	-0.8142687
204	0xbe146ed2	-0.144954
205	0xbd53f371	-0.051745836
206	0xbeda4f4d	-0.42638627
207	0xbf1ec49c	-0.6201875
208	0xbe81ea81	-0.25374225
209	0xbe8ed7f9	-0.2789915
210	0x3d25a54f	0.040440854
211	0xbd5b2377	-0.05350062
212	0x3ddfbd39	0.10924763
213	0xbbe3543d	-0.006937532
214	0x3cc9cbd1	0.02463332
215	0x3d8a3899	0.067490764
216	0xbe4e43cc	-0.2014305
217	0x3df9b40f	0.121925466
218	0x3e2e6fe2	0.17034867
219	0xbdd8e899	-0.105912395
220	0xbd9954a1	-0.07486845
221	0x3c4ab33e	0.012371836
222	0xbda4ad9b	-0.08040925
223	0x3d027428	0.031849056
224	0xbe0dd24a	-0.1384975
225	0x3e61a6f4	0.22036344
226	0x3edbae12	0.42906243
227	0xb952db10	-0.00020108768
228	0xbe5956ae	-0.21224472
229	0xbc648317	-0.01394727
230	0xbd38bb6c	-0.045100614
231	0x3d2199a7	0.039453175
232	0x3d4169c5	0.04722001
233	0xbaaf1b09	-0.0013359498
234	0x3d064328	0.03277889
235	0x3cc63380	0.024194479
236	0x3eb464f3	0.35233268
237	0xbd860574	-0.06544009
238	0x3e1411c6	0.14459905
239	0xbe5756d9	-0.21029224
240	0x3c58e98f	0.013239278
241	0x3d9e5fb9	0.077331014
242	0xbf246296	-0.6421293
243	0xbe1bda5d	-0.15220018
244	0x3d026c6d	0.031841684
245	0xbf73f0ec	-0.9528949
246	0xbf2a9333	-0.6663086
247	0xbeb327e0	-0.3499136
248	0x3e055b3d	0.13023086
249	0x3f1bc64d	0.6084946
250	0xc01ff7e1	-2.4995043
251	0x3f07a273	0.5298225
252	0x3e92dc58	0.28683734
253	0x3ea44e31	0.32090905
254	0x3fb964e0	1.448391
255	0x3ec966dd	0.3933629

net.0.bias f4 [16]
0	0x3f5e4ecc	0.86838984
1	0x3f002c8e	0.50067985
2	0xbe783b54	-0.24241382
3	0x3ee77b88	0.45211434
4	0x3e8b1352	0.27163178
5	0xbe286d93	-0.16448049
6	0x3eca7b5a	0.39547235
7	0x3d60d51a	0.05489073
8	0xbe864617	-0.2622535
9	0xbebf0419	-0.37307814
10	0x3d690a70	0.05689472
11	0x3e82f682	0.25578696
12	0xbdedd2c1	-0.11612464
13	0xbe0195c0	-0.12654781
14	0x3ec672fa	0.38759595
15	0xbe00c568	-0.12575305

net.2.weight f4 [16, 16]
0	0xbe126733	-0.1429718
1	0x3de9444e	0.11389981
2	0xbc64d4a9	-0.013966718
3	0x3e567026	0.20941219
4	0xbe1762bd	-0.1478376
5	0xbce9cddd	-0.028540546
6	0xbdcca4d2	-0.099923745
7	0x3d87b4d6	0.066262886
8	0xbc45ca77	-0.012072197
9	0x3d85ce61	0.06533504
10	0xbd9b2c39	-0.07576794
11	0x3d819a48	0.06328255
12	0xbe0c7689	-0.13717093
13	0x3af8dcac	0.0018986664
14	0x3dbc9c77	0.09209531
15	0x3dd9fb34	0.10643616
16	0xbff43e11	-1.9081441
17	0xbe15c092	-0.14624241
18	0x3e33a8c8	0.17544854
19	0xbe941d91	-0.28928807
20	0x3e95e778	0.2927816
21	0x3c1759ab	0.009237687
22	0xbf096933	-0.53676146
23	0xbdac6dba	-0.08419366
24	0x3c7ddc06	0.015494352
25	0x3ea0622b	0.31324896
26	0xbd44557f	-0.047933098
27	0xbe12f279	-0.14350308
28	0x3e2a0f88	0.16607487
29	0x3e8d6124	0.27613175
30	0xbd256aa5	-0.040384907
31	0xbd3e076c	-0.046393797
32	0xbede2620	-0.43388462
33	0xbe2214c3	-0.15828232
34	0x3eba7ef3	0.3642498
35	0xbe7e511c	-0.24835628
36	0x3de9a8ba	0.11409135
37	0x3d413136	0.04716607
38	0x3f68f2dd	0.9099558
39	0x3e2f1a94	0.17099983
40	0x3e4762ec	0.1947133
41	0xbc1acb09	-0.009447821
42	0x3e0f3955	0.13986714
43	0x3eba7324	0.3641597
44	0xbd992b67	-0.074789815
45	0x3ee7c4c5	0.4526731
46	0x3cee0474	0.029054858
47	0xbdb986ab	-0.09058889
48	0x3f99b914	1.2009606
49	0xbdee0ae9	-0.11623175
50	0x3df71e50	0.120663285
51	0x3d817e33	0.06322899
52	0xbf11e68d	-0.5699242
53	0x3d97db17	0.07414835
54	0x3eeec415	0.46633974
55	0x3eaf6965	0.34260097
56	0xbe867b1e	-0.26265806
57	0xbc792938	-0.015207581
58	0xbe2db628	-0.16964018
59	0x3edbb6fe	0.4291305
60	0xbd7ed664	-0.062216178
61	0x3d781069	0.060562525
62	0xbd760052	-0.0600589
63	0x3e194a74	0.14969808
64	0xbe172969	-0.1476189
65	0x3e20ccee	0.15703174
66	0xbdc05158	-0.09390515
67	0x3d56f522	0.05247987
68	0xbb3fb748	-0.0029253531
69	0xbd472478	-0.048618764
70	0x3eddf4a0	0.43350697
71	0x3e0b34f8	0.13594425
72	0xbdbd934c	-0.0925661
73	0x3cc8c3b1	0.024507375
74	0x3e7ed539	0.24886025
75	0x3d137a79	0.03600547
76	0xbe394e1a	-0.180962
77	0xbe26dd17	-0.16295277
78	0x3cd007f6	0.025394421
79	0x3c83351b	0.016016534
80	0xbf4a7b7f	-0.7909469
81	0xbebc3241	-0.3675709
82	0x3dfecd4b	0.124415
83	0xbe478ede	-0.19488093
84	0x3d19459e	0.037419908
85	0x3c11d196	0.008900067
86	0x3f844ac7	1.033532
87	0x3d9cfa73	0.07664957
88	0x3df0f559	0.11765546
89	0xbebafd7f	-0.36521527
90	0xbad99784	-0.0016600941
91	0x3e51deb7	0.20495115
92	0xbd2ae37a	-0.041720845
93	0x3e81b0b1	0.25330117
94	0xbda381a9	-0.07983715
95	0x3d2646c5	0.040594835
96	0x3e674808	0.22586071
97	0xbe1c2e54	-0.15252048
98	0xb9446704	-0.00018730393
99	0x3dde6059	0.108582206
100	0xbd6509b6	-0.055917464
101	0xbd0cf52f	-0.034413513
102	0x3ed2ab11	0.41146138
103	0xbe74d6c4	-0.23910052
104	0xbe35bd4e	-0.17747995
105	0xbe529a76	-0.20566735
106	0xbe6d7f13	-0.23193006
107	0x3cd1e8e0	0.025623739
108	0xbe7d3885	-0.24728592
109	0xbe0b0ee8	-0.13579905
110	0x3eb1bb04	0.34712994
111	0xbd9be65e	-0.076122984
112	0xbfb0fc65	-1.3827025
113	0x3e4d70a5	0.20062502
114	0xbd980a46	-0.074238345
115	0x3e7d68b1	0.24746968
116	0x3e3fa9d3	0.18717127
117	0x3e132bc2	0.14372161
118	0x3ed62859	0.41827658
119	0xbd84e948	-0.06489807
120	0xbedc1783	-0.42986688
121	0x3e8dc370	0.2768817
122	0xbdc2024a	-0.09473093
123	0x3ed3dcc2	0.41379362
124	0x3d03432c	0.032046482
125	0x3dbe7906	0.09300427
126	0xbdb12fd5	-0.08651701
127	0xbd130ae3	-0.035899054
128	0x3e3643cc	0.177993
129	0x3e5bd648	0.2146846
130	0x3dc471f8	0.0959205
131	0x3d5ef79a	0.05443535
132	0xbe408168	-0.18799365
133	0xbbd6f1ce	-0.006559587
134	0xbf7cdfb8	-0.9877887
135	0x3e074b5e	0.13212344
136	0xbdab6b19	-0.08370037
137	0xbec3a4f0	-0.38211775
138	0xbdd9c6bb	-0.10633608
139	0x3d401316	0.0468932
140	0x3e92bdb0	0.28660345
141	0xbd124395	-0.035708982
142	0x3da7f27f	0.08200549
143	0xbe007e6a	-0.12548223
144	0xbf15d5b8	-0.58529234
145	0xbdd56127	-0.10418921
146	0x3e143676	0.144739
147	0xbe0dac4e	-0.1383526
148	0xbf3286dc	-0.6973703
149	0xbe4e2165	-0.20129927
150	0xbf6219c3	-0.8832056
151	0x3cd92acc	0.026509665
152	0x3eab3bf3	0.33444175
153	0xbe6659ee	-0.22495243
154	0xbe49d8fb	-0.19711678
155	0xbf038476	-0.51373994
156	0xbd23b72a	-0.0399696
157	0x3e0e4490	0.13893342
158	0x3d4a460a	0.0493832
159	0x3c9d2b66	0.019185733
160	0x3c137159	0.008999192
161	0xbe76aa83	-0.24088483
162	0x3e167d49	0.1469623
163	0xbe958036	-0.2919938
164	0x3d3583ed	0.044315267
165	0x3df248b7	0.118302755
166	0xbf16d49c	-0.58918166
167	0xbea94dc3	-0.3306714
168	0x3d8d867b	0.06910416
169	0xbd9a2d06	-0.07528119
170	0xbcc1cff4	-0.02365873
171	0x3d9114ea	0.07084067
172	0xbf30cd05	-0.69062835
173	0x3e51a7fd	0.20474239
174	0xbe28cf43	-0.16485314
175	0x3c73df08	0.014884718
176	0xc00d7935	-2.210523
177	0xbe8f4f4e	-0.27990192
178	0x3e792b1b	0.2433285
179	0xbeb1d8da	-0.34735757
180	0x3d54ebda	0.051982738
181	0xbd0c17d1	-0.0342024
182	0xbf12e0d3	-0.57374305
183	0xbdfe7ea4	-0.124264985
184	0x3e5e8485	0.2173024
185	0x3eddceb8	0.43321776
186	0xbc73494e	-0.01484902
187	0x3e57b521	0.21065189
188	0x3eb8ebc3	0.36117372
189	0xbca533a9	-0.020166235
190	0xbd55c8f1	-0.052193586
191	0xbc579edd	-0.013160435
192	0x3f81d70a	1.014375
193	0x3ea65965	0.32490078
194	0xbe5a6ed8	-0.21331346
195	0x3eb4fad3	0.35347614
196	0xbf2d5e2a	-0.6772181
197	0xbe179b2a	-0.14805284
198	0x3dad09e8	0.08449155
199	0xbcae60f2	-0.021286462
200	0x3dd8d031	0.10586584
201	0xbd19d3ba	-0.037555434
202	0xbc1a3639	-0.009412342
203	0x3e067ecc	0.13134307
204	0xbf929fd2	-1.1455023
205	0x3e0a8a09	0.13529219
206	0x3e7bf76a	0.246061
207	0xbde06de8	-0.10958463
208	0xc019a998	-2.4009762
209	0xbe84737a	-0.25869352
210	0x3e3e5b71	0.1858957
211	0xbeb8b5df	-0.36076257
212	0xbd7bd37b	-0.06148098
213	0x3defdc74	0.1171197
214	0x3f0424ee	0.5161885
215	0x3d887b91	0.066641934
216	0x3e7b20cf	0.24524234
217	0x3bdc4e35	0.00672319
218	0xbcd98963	-0.026554769
219	0x3eb33bcb	0.35006556
220	0xbdf4fd00	-0.119623184
221	0x3eb965fc	0.3621062
222	0xbe022145	-0.12708004
223	0xbdb7d3fb	-0.08975979
224	0xbe0851b7	-0.13312422
225	0xbf032a9e	-0.51236904
226	0x3d9210af	0.071320884
227	0xbeb8d587	-0.36100408
228	0xbeaa16e5	-0.33220592
229	0xbdcd1182	-0.10013105
230	0xbcd28678	-0.025698885
231	0xbba2e75f	-0.0049714292
232	0x3f1df7d6	0.6170629
233	0x3e208b04	0.1567803
234	0x3ce00fce	0.027351286
235	0xbeeba806	-0.4602663
236	0xbe9f9695	-0.31169572
237	0x3de89646	0.113567874
238	0xbefee1b4	-0.49781573
239	0x3e0db072	0.1383684
240	0x3e6f23ca	0.23353496
241	0x3ebc3a20	0.36763096
242	0xbea85895	-0.32880083
243	0x3ea93a7a	0.33052427
244	0xbec6494e	-0.38727802
245	0xbe8b648b	-0.27225146
246	0xbe958e7b	-0.29210266
247	0x3d9c83a1	0.07642294
248	0xbe8b93c1	-0.27261165
249	0xbe9b1db5	-0.30296102
250	0x3de44385	0.11145691
251	0xbeb3c367	-0.35110018
252	0x3da51c60	0.08062053
253	0xbe95e9b5	-0.29279867
254	0x3e7daea3	0.2477365
255	0xbe0a29f3	-0.13492565

net.2.bias f4 [16]
0	0x3d73fd74	0.059567884
1	0x3bdd1805	0.006747248
2	0x3ec12c4c	0.37729108
3	0xbf09ab25	-0.5377677
4	0xbc04f3f1	-0.008114801
5	0x3deca1bb	0.11554285
6	0x3d232eff	0.03983974
7	0x3f2964f8	0.6616969
8	0x3c38d1ce	0.01128049
9	0x3daa7bec	0.083244175
10	0xbe47625c	-0.19471115
11	0xbb844f04	-0.0040377397
12	0x3f4deb92	0.80437577
13	0x3ebee964	0.37287438
14	0xbe7d113e	-0.24713609
15	0xbe322082	-0.17395213

net.4.weight f4 [5, 16]
0	0x3b8db470	0.0043244883
1	0x3e710aeb	0.23539321
2	0x3eecc033	0.46240386
3	0x3c856b53	0.016286528
4	0x3adeeb06	0.0017007298
5	0xbbd3cf04	-0.006463887
6	0xbd558fcb	-0.052139085
7	0x3e84cd11	0.25937703
8	0xbcb10db5	-0.021612981
9	0x3dd8ff2f	0.105955474
10	0x3e30a7fe	0.17251584
11	0xbca35e4f	-0.01994243
12	0x3ea06191	0.31324437
13	0xbe23c615	-0.15993531
14	0x3e25efd9	0.16204776
15	0xbef42808	-0.4768679
16	0x3bc052cf	0.0058692466
17	0x3e9c3f33	0.30516967
18	0xbe29a8e9	-0.1656834
19	0x3ef64eaf	0.48106906
20	0x3cf7c687	0.030246032
21	0x3eacd871	0.33758882
22	0x3d853f22	0.06506182
23	0xbed3a093	-0.41333446
24	0x3c58fc86	0.0132438
25	0x3cd2b5b9	0.025721418
26	0xbc891425	-0.016733238
27	0x3eaaa2b9	0.33327273
28	0xbf317dd2	-0.6933261
29	0x3ed62360	0.41823864
30	0xbd89f344	-0.06735852
31	0x3e5f48b4	0.21805078
32	0x3e123d83	0.14281277
33	0x3edb675b	0.4285229
34	0x3f052000	0.52001953
35	0xbe9837dc	-0.29730117
36	0x3ee989b1	0.45612863
37	0xbda18bc6	-0.07887988
38	0x3e27cc94	0.16386634
39	0x3e058407	0.13038646
40	0xbf269c83	-0.6508257
41	0x3d68f28b	0.056871932
42	0xbd0d4d47	-0.034497526
43	0x3e72095e	0.23636386
44	0x3ef87810	0.485291
45	0xbf0ece9c	-0.5578401
46	0x3bd5c251	0.0065234085
47	0xbeb8c925	-0.3609096
48	0xbd4454a0	-0.047932267
49	0xbd284db3	-0.041089725
50	0xbc1f122e	-0.009708924
51	0xbefb02c1	-0.4902554
52	0xbd068faf	-0.03285187
53	0xbd2b73de	-0.041858546
54	0xbd47f769	-0.048819933
55	0xbf1b1927	-0.60585254
56	0xbe15c6dd	-0.14626642
57	0x3fc66042	1.5498126
58	0x3f282998	0.6568847
59	0xbe59711a	-0.21234551
60	0x3df12a93	0.117756985
61	0xbe96ca8a	-0.294514
62	0x3f41d48f	0.75714964
63	0xbd8c4c5b	-0.06850501
64	0x3db5ee97	0.08883398
65	0xbd7452b8	-0.0596492
66	0xbd31dc3a	-0.043422915
67	0xbe08201c	-0.13293499
68	0xbdd30f23	-0.103056215
69	0xbe3397cb	-0.17538373
70	0x3c9d674b	0.019214293
71	0x3d84d297	0.06485479
72	0xbe5194c8	-0.20466912
73	0x3da94524	0.08265141
74	0xbdf89d33	-0.12139358
75	0xbd8ea31b	-0.06964704
76	0x3dc1d882	0.09465124
77	0xbdd8017f	-0.1054716
78	0xbd8e4451	-0.06946624
79	0x3e4e201b	0.20129435

net.4.bias f4 [5]
0	0x3ee83351	0.4535165
1	0xbd94d134	-0.07266465
2	0x3e27e474	0.16395742
3	0xbe896adf	-0.2683935
4	0x3dcccccd	0.1
