onnx_models/state_estimator.onnx (onnx, 12362 bytes, 8 tensors)

net.0.weight f4 [32, 13]
00000000: e7d9 6ebb 645e 64be 052f cbbe a837 2e3e
00000010: 976d 07be 5a64 303f cb52 55bc 436a 173c
00000020: 98d8 933f bf35 8fbc 9cf4 e7bc cd85 233f
00000030: 0b41 2fbe df36 913e db13 173e 087f 8e3f
00000040: 5145 503e bbcf 873d 0c1a e9bc c3e0 dfba
00000050: 3949 2b3d 3f96 2dbf b6d2 69be c8a0 23be
00000060: eb94 afbf 9b72 233e 301c 873e 57ee a03e
00000070: 232c 573f 0fe6 aa3d cb48 18bd 9424 6dbd
00000080: c9c0 8fbd 2e0d 153e 2034 20bf 4d40 bebd
00000090: d631 20be a584 58bf 5212 b73d 5d90 6fbe
000000a0: 6db0 85be c7cc 95be ac63 d939 a8f9 91bd
000000b0: 9696 7fbe 0f9c 8bbd d2ea 773d 02e4 21be
000000c0: a6b5 acbd 3265 d6bd 8bea 46bc 4922 6c3b
000000d0: 3b7f 6f3e a9b0 7e3e 3f4d 87bc 1096 b0bc
000000e0: e422 9f3d 01d5 17be cf06 4ebc 2d58 a4bd
000000f0: 15ee 33be 6a2d c23d 2f29 063e 5496 89bc
00000100: 455e 3e3e 8e2c 103c fd05 0c3b d0a4 1ebf
00000110: c873 e4bd eaf1 9a3c 42e1 a8be face 42be
00000120: 65c8 74be 3727 0d3c 1a78 a33d c6bf 6c3d
00000130: 216b 7d3e 7fe5 05bf 8bf0 8f3d e41a 583e
00000140: a03c 1d3d 8b59 3f3d dde7 993d f227 9dbd
00000150: afbc e13d ff9e ba3d c434 8ebc dd21 e13d
00000160: c1d6 8cbc 7048 84bd 6f0a 053e c75c 393e
00000170: 4434 2f3e 3f99 193f abf8 87bd 2041 7c3d
00000180: edb1 37bf 72ce 35be 7066 283d 8671 07bf
00000190: e948 763d 7947 fc3d 1357 0ebf a870 663e
000001a0: 3838 b4bd 4661 61be e87f c13d 6b32 683d
000001b0: 132b b6bd 97a3 883f 637d 243e c3ec 1ebd
000001c0: d756 743f a1f3 bebc ab1e db3c 0119 373f
000001d0: f388 bcbe 8a61 68be 392c 2bbe 3779 bcbe
000001e0: 7710 57be 948c 34be 41e5 58be a902 b3bd
000001f0: 5739 1dbe 563d 02be 6441 27bb 523d 1fbd
00000200: 130d ccbb bf12 d8bd d355 a83d 4082 673e
00000210: ccb8 133f dfbf 4c3d 0e97 693b 5726 8cbe
00000220: 746c a9bd 6669 f6bc cce8 39be 37fb 933d
00000230: 424d 303d 40ed b7be dd7d de3d 5f77 c7bd
00000240: 7522 023e 9eda 92bf 2509 813c 40ef f73d
00000250: 6919 9dbe 70ae c63c e725 ad3d 102d 183e
00000260: 8307 673e a5f3 6cbe f7e2 e03e 8abf c73d
00000270: f522 8fbe a175 c13c 1122 e6bf 8a00 e03d
00000280: 71f0 663d 601a a2be 42b6 a93d 63c1 953e
00000290: e217 98be ff2b 353e 335d 313e b094 5cbd
000002a0: 98a5 fabe 56c3 c9bd 361c 50bd a94c af3e
000002b0: 6064 efbc 5e6d 973d f872 533d afaa fd3c
000002c0: 90ba 70bd 5158 45bc 0921 39bd a285 f83d
000002d0: 4f77 cebe b994 4ebe ef6b 56bd 059a d33d
000002e0: 5096 8c3d d954 80bd 1007 75bd d586 36bd
000002f0: 2e30 ebbd 46f3 01be 1844 cfbc f966 a9bd
00000300: f0e5 2a3d 7091 b03c 2bd7 9b3d fa24 283e
00000310: 644b b33d 9680 65be 5069 193e af8d 2e3e
00000320: e037 71be de51 353e 3547 883e 59b7 0dbd
00000330: 4e92 ea3d da19 16bc f10c 5fbe 199c e6bd
00000340: 60a7 253e 8d05 073e 850d 7439 65ff 1d3e
00000350: fb20 20bd 5aca 853e d2b1 133e 21cb e93c
00000360: bf86 9f3e f01a 113e 6149 df3d 5a08 a13d
00000370: 3cee 0ebe 6e93 253e def5 723d fffc cf3e
00000380: 26f6 de3d 935b 193e 2624 b9bd 6ce4 113d
00000390: 5314 c93d e6de 803c 0588 c9bd 18b1 273c
000003a0: 8725 c4bd 6c9b c7bd 3601 1a3e 3765 973d
000003b0: 9d6d 0c3f ec0d 08be 3843 703c 23e4 58bc
000003c0: aa9d 373d 6a5c 0bbe 207a 94be 9354 79bc
000003d0: 8c5f 033e 4f15 863d b22e 803e dd8d 1fbe
000003e0: 9163 31be 9b85 23bf fb74 35be 211c 98bd
000003f0: 7e11 773e 103f 373c 58aa 853d ac86 353e
-0.0036445798 -0.22301632 -0.3968431 0.17013419 -0.13225399 0.68903124 -0.013020228 0.009241643
1.1550474 -0.017481683 -0.028314881 0.6387604 -0.17114656 0.28362176 0.14753668 1.1132517
0.20338942 0.06631418 -0.028454803 -0.0017080534 0.041817877 -0.6780738 -0.22834286 -0.15979302
-1.3717321 0.15961687 0.26388693 0.3143184 0.8405172 0.083446614 -0.037178796 -0.05789621
-0.07019193 0.14555809 -0.62579536 -0.09289608 -0.15644011 -0.845774 0.08939041 -0.23394914
-0.26111165 -0.29257795 0.00041463727 -0.07127696 -0.24959788 -0.06816875 0.060526676 -0.15809634
-0.08433084 -0.1046852 -0.01214088 0.0036031178 0.23388378 0.24872078 -0.016516326 -0.02155593
0.07770327 -0.14827348 -0.0125748655 -0.08024631 -0.1757129 0.09481318 0.13101648 -0.016795315
0.18590648 0.008799685 0.0021365874 -0.61970234 -0.11154896 0.018914182 -0.32984358 -0.19024268
-0.2390457 0.008615307 0.07981892 0.057800077 0.24747898 -0.5230331 0.07028302 0.21104008
0.038387895 0.046716254 0.075149275 -0.076736346 0.11022317 0.09112357 -0.017359145 0.10992787
-0.017192246 -0.06459129 0.12992261 0.18101798 0.17109782 0.5999946 -0.066392265 0.061585546
-0.7175587 -0.17754534 0.041113317 -0.529076 0.060128126 0.1231832 -0.55601615 0.22503912
-0.087997854 -0.22009763 0.09448224 0.056688707 -0.088949345 1.0674924 0.16063456 -0.038800012
0.9544501 -0.02330953 0.026748022 0.7152253 -0.36823234 -0.22693458 -0.16716088 -0.3681123
-0.21002375 -0.17631751 -0.21181203 -0.08740742 -0.15353905 -0.1271871 -0.0025521154 -0.03887684
-0.0062271445 -0.105504505 0.08219495 0.2260828 0.5770385 0.04998767 0.0035643014 -0.27373
-0.08272639 -0.030079555 -0.18155211 0.0722565 0.04304243 -0.35923195 0.1086385 -0.09739565
0.12708457 -1.1472967 0.01575143 0.1210618 -0.3068345 0.0242531 0.08454495 0.1486094
0.22561459 -0.23139818 0.4392316 0.0975333 -0.27956358 0.02361566 -1.7979146 0.10937603
0.056381647 -0.31660748 0.08286716 0.29249105 -0.2970572 0.17692564 0.17320709 -0.053852737
-0.48954463 -0.098517105 -0.050808154 0.34238175 -0.029222667 0.07393907 0.051623315 0.030965177
-0.05877167 -0.012044982 -0.04519752 0.121348634 -0.403254 -0.2017392 -0.052349027 0.10332111
0.06864607 -0.062661834 -0.05982119 -0.04456218 -0.11483799 -0.12690458 -0.025301024 -0.082715936
0.04172319 0.021553725 0.076093994 0.16420355 0.08754614 -0.22412333 0.1498158 0.17046236
-0.23556471 0.17707011 0.26616827 -0.034598682 0.11453687 -0.009161437 -0.2178228 -0.11260242
0.1617713 0.13185711 0.0002327469 0.15429457 -0.039093953 0.26130944 0.14423302 0.028539242
0.3115749 0.14170432 0.10902668 0.07862921 -0.13958067 0.16169521 0.05931651 0.40622708
0.10886793 0.14976339 -0.09040098 0.03561823 0.0981833 0.015731286 -0.09840397 0.0102350935
-0.0957747 -0.09746441 0.15039524 0.07392352 0.54854757 -0.13286561 0.014664464 -0.013237986
0.044828095 -0.13609472 -0.28999424 -0.015217918 0.12829417 0.06547033 0.25035626 -0.1558146
-0.17323138 -0.6387574 -0.17720406 -0.0742724 0.24127766 0.011184469 0.06526631 0.17727154

net.0.bias f4 [32]
00000000: f7f5 6e3e 1be3 dfbe 805e 12bf 4701 8c3e
00000010: 65fb a4be 19a0 363e a619 67be 5670 d4be
00000020: 417e 813e 73b4 633e 9225 cebe c022 21bc
00000030: 6296 563e 50ee d03c 438a 0dbd c4cf 86be
00000040: f7cd dabe 40ca b3be 34f9 a8be 383b 2cbe
00000050: b3c1 483e d783 aebe 4efc 9bbd 0e60 87be
00000060: 7393 82be a015 d9bd 23f4 b2be f31a 9c3e
00000070: df83 46bc e88e 9ebe 0ec1 57be 096f 0c3e
0.23336016 -0.43727955 -0.57175446 0.27344725 -0.3222305 0.1783451 -0.22568378 -0.41491956
0.25291637 0.22236805 -0.4026304 -0.009834945 0.20955804 0.025504261 -0.034555685 -0.26330388
-0.42735264 -0.35115242 -0.33002627 -0.16819465 0.1960514 -0.3408496 -0.07616483 -0.2644047
-0.2550312 -0.10599828 -0.34951887 0.3048931 -0.012116401 -0.30968404 -0.21069738 0.13714232

net.2.weight f4 [32, 32]
00000000: 1138 583e 5acc a13c 95ef 753d 8f0d d53b
00000010: 1971 4ebc fcd8 bb3d b7d7 3ebc b8ad 0d3d
00000020: 349d 82bd 309f 3d3d a09e b4bd 1f0e 63bd
00000030: 91d9 b5bd 0beb 203e 9eb6 b13c 9286 2dbe
00000040: c511 973e b700 0c3e 763e ad3d 4668 163e
00000050: 8265 043e 47c1 183d b094 10bd 1788 4bbd
00000060: 3492 0ebe fdaf 303c 085d 70bd fb1b 6e3e
00000070: 0ec5 6dbe de09 ff3c 2f0a b7bd 43ee a23d
00000080: 2a2c 7e3d 80cd 1e3e 2dec 87bd 36de 2b3e
00000090: 298a a1bd ad0d 3d3e 839d 1abe 5e24 fe3c
000000a0: 1f9d 863b efd6 083d 9afc e4bd eb07 6b3e
000000b0: 732a 2a3e 293b 9f3d 3bf0 bb3c aec2 c5bd
000000c0: 1fa2 923c 67c1 9abd acfb 86be 07d3 d43d
000000d0: 12b9 6b3e a14c 6bbe ec26 66bd ce5f e1bd
000000e0: a929 c5bd f191 cf3c d204 953d de1f 3a3e
000000f0: c608 23bd dca7 a4be 28b6 6ebd e236 9f3e
00000100: ffd1 26bb 5188 4c3c d34a f33d ef5d 8ebe
00000110: 445e 363e 3b4f 38be f52f 503e e2e0 a13d
00000120: b015 e7bd c634 b9be 7ca5 fd3d a676 673d
00000130: 8497 89be 283e 1b3c 8f05 333e 3743 0f3e
00000140: 1ef7 ac3e 3c2c 273e 8d7f 333c 0972 d7bd
00000150: 8cc9 83bd 7d49 abbd e0b5 1dbe b6d7 2d3e
00000160: 2f43 533d b30d abbd 3ee7 b63e 49ba 343d
00000170: 055b 24bd 07d1 8a3d 57a8 8f3b a274 3cbe
00000180: e040 93be d7fc 8fbd 7127 43be ab2c 03be
00000190: 1742 903b dd17 84be dfff 1ebd c01f 82bd
000001a0: fbb9 1a3d 4919 19be 271b f2bd 43fa 163d
000001b0: 8ca6 74be d79b 2fbd 3060 213e caae 12be
000001c0: 376e 053d d2f0 3abe 70c1 5b3e 02a8 31be
000001d0: 0562 023e 72ae 1c3e 887f fb3d d3e1 d33d
000001e0: e056 52be 748a 53bd ea59 3cbd a793 093e
000001f0: fabb 083e c3ee edbd f8cd babd 2dac e7bd
00000200: 1e07 a4be c7e4 a23d ed07 463e a7a9 e7bd
00000210: 3864 dc3d 0570 91be 5ecf 893e a406 063f
00000220: 1764 acbf eeba fcbd 0d03 843e 30bf 483e
00000230: 4d18 55be eebc d8bc 4a4e 1b3d 9193 99bd
00000240: 1950 85bd 43de 233e 52dc 363e ab7e 3bbe
00000250: b73b fabd 7e01 143e 56de 5c3e 7cd6 34bc
00000260: a144 833d 0c4c c4bd 629d 09be e71b 2abe
00000270: 5fae b13e 77e5 9b3e 062c 503e 5625 85be
00000280: a847 893d 075d 20bd 524d 39be 28cd 503e
00000290: 15d4 72be 8f2e 2c3d 1e3f cfbd 75fc e63d
000002a0: b20a 583d 78f8 c83d c8e3 e9bc 4039 5fbd
000002b0: 55d7 46bc 0011 383e 5a55 3a3d 0268 84be
000002c0: 3413 e7be 89a7 193c e6e5 8c3c 5a07 3c3d
000002d0: d80b 293e 1c15 1abe 5c63 e03d aded 5fbe
000002e0: d923 53be 4ddb 38bd a763 a9be f19b 2b3d
000002f0: 3c90 6c3e 5aee 9c3d 6ebd b83c 88fa 243e
00000300: 6aec 193c 8e79 1c3e 8b01 233d 7a89 493e
00000310: 4c76 57ba 80df b23d 5974 c7bd 2ca7 ba3d
00000320: dc19 e7bc 0262 3d3e 92ee 59bd 5d3c ec3c
00000330: db34 1c3e 7173 d0bc 71c5 eabd b107 55be
00000340: 4e6e babd 019f 833d d048 0bbd 8af8 9f3d
00000350: 9827 1f3e e2a4 b83d cdb7 53be 6366 91be
00000360: 0e45 77bd ffff 0c3d 10cb 653d b0a1 5dbd
00000370: e9bb 243e 7f35 823d b4ce 97bd 2dd1 c93b
00000380: 3026 0ebe da9c b9bd 2097 043d 848b c53c
00000390: b532 ac3d fd88 ea3d c9a7 833d 837e ab3d
000003a0: 01cf 3cbe d0b6 ee3c 4de4 283e 6b4a af3c
000003b0: 1da5 243c 9799 9a3d 4061 26be 3f5f 6a3d
000003c0: 1e8a a73b 9403 813d 9fd0 273d 3ab7 833e
000003d0: 3344 5d3d c592 c0bc ee86 0a3c 0357 073e
000003e0: 4481 debd 7ca5 f73b ce59 7f3d ac89 f43b
000003f0: a032 0f3e 1b4d 0e3e fc6b b5bd 8a37 fa3d
0.21115138 0.019750763 0.060042936 0.0065018605 -0.012600207 0.09172246 -0.01164811 0.0345895
-0.0637764 0.04629439 -0.08819318 -0.05543339 -0.08879388 0.15714662 0.021693524 -0.16945866
0.29505745 0.13672148 0.08459179 0.14688215 0.12929347 0.0372937 -0.03529805 -0.049690332
-0.1392296 0.010784146 -0.05868247 0.23252861 -0.23219702 0.031132635 -0.08937489 0.07955601
0.062053837 0.1550808 -0.06636844 0.16783985 -0.0788768 0.18462248 -0.15099148 0.0310232
0.0041080858 0.0334081 -0.111809924 0.22952239 0.16617756 0.07774956 0.0229417 -0.09656273
0.017899571 -0.0755642 -0.26363885 0.10391813 0.23019817 -0.2297845 -0.056189463 -0.110046014
-0.09627087 0.025338145 0.0727631 0.18176219 -0.03980329 -0.32159317 -0.058279186 0.3109656
-0.0025454757 0.012483672 0.11879506 -0.2780604 0.17809397 -0.17998974 0.20330794 0.07904221
-0.112834334 -0.36173075 0.12385079 0.056509636 -0.2687341 0.009475268 0.17482589 0.13990484
0.33782285 0.16325468 0.010955703 -0.10519797 -0.064349264 -0.08363626 -0.15401411 0.16976818
0.051577743 -0.08352222 0.357233 0.044122968 -0.040125865 0.0677815 0.0043840813 -0.18403867
-0.28760433 -0.07030647 -0.19058014 -0.12810008 0.00440241 -0.25799456 -0.038818236 -0.06353712
0.03777502 -0.14951052 -0.11821585 0.036859762 -0.23891658 -0.04287323 0.15759349 -0.14324489
0.032575812 -0.18255928 0.2146051 -0.17349246 0.12732704 0.1530092 0.12280184 0.10345807
-0.20540953 -0.05164571 -0.045984186 0.13435231 0.13352957 -0.11617806 -0.09121317 -0.11312137
-0.3203668 0.07953792 0.19338961 -0.113116555 0.10761303 -0.28405777 0.2691602 0.5235388
-1.3468045 -0.123403415 0.25783578 0.19604182 -0.20810051 -0.026457276 0.03791646 -0.07498849
-0.06509418 0.16002755 0.17857483 -0.18310039 -0.12218421 0.14453694 0.2156919 -0.011037465
0.06409574 -0.09584817 -0.13438943 -0.16612206 0.34703347 0.30448505 0.20329294 -0.26005048
0.067031205 -0.039151218 -0.18095902 0.20390761 -0.23713715 0.04203659 -0.101194605 0.11278621
0.052744575 0.09813017 -0.028550997 -0.054497957 -0.0121363 0.17975235 0.045491554 -0.25860602
-0.45131838 0.009378322 0.017199468 0.04590545 0.16508424 -0.15047115 0.10956451 -0.2186801
-0.20619144 -0.045131017 -0.3308384 0.041896764 0.23101896 0.076626495 0.022551265 0.16111195
0.009394744 0.15280744 0.039796393 0.1968135 -0.0008219227 0.087340355 -0.097389884 0.09113917
-0.028210573 0.18494418 -0.053206034 0.028837377 0.15254538 -0.025445672 -0.1146344 -0.20803715
-0.0910307 0.06426812 -0.034004986 0.07811077 0.15542448 0.09015824 -0.20675583 -0.28398427
-0.06036859 0.034423824 0.05610186 -0.054109275 0.16087307 0.0635786 -0.07412472 0.006158969
-0.13881755 -0.0906312 0.032370687 0.024114378 0.08408109 0.1145191 0.06428487 0.083737396
-0.1843834 0.029139906 0.1649334 0.02139779 0.010049132 0.07548826 -0.16248035 0.05721974
0.0051129004 0.062995106 0.04097044 0.25725728 0.054020118 -0.023507485 0.008455021 0.13216786
-0.10864499 0.007557569 0.062341504 0.007462701 0.13984156 0.13896601 -0.08858487 0.122176245

net.2.bias f4 [32]
00000000: 2bcd 50bc 2f3a a3be f97a f9bd e6ed 5f3e
00000010: 4b5e 7d3e fae8 033e c4f0 ae3d e135 d7bd
00000020: 9dc6 143e 956b c83d 5323 9d3d 0871 41be
00000030: 740f 73be 21b7 0d3e 6821 483e 5a93 1ebe
00000040: 865d a8be 3d74 e13b 405d 823c 1895 d0bd
00000050: e89e 98be 4ac7 f63d ad71 3c3e 7a47 5ebe
00000060: d9b3 043d 153f 803e ea65 98be 9992 843e
00000070: 2c68 4c3e 832a 2a3e 36ca 023d bff6 01be
-0.012744228 -0.31880328 -0.12181658 0.21868095 0.24743001 0.12881842 0.08542016 -0.105083235
0.1452889 0.09786145 0.07672753 -0.18890774 -0.23736364 0.1383939 0.19543993 -0.15485898
-0.32883853 0.0068803118 0.015913606 -0.101846874 -0.29808736 0.1204973 0.18402739 -0.21706954
0.03239808 0.25048128 -0.29765254 0.25893095 0.19961613 0.1661778 0.031931125 -0.12691782

net.4.weight f4 [32, 32]
00000000: 7b73 56bd d4cc ad3d 44c5 05be fd27 ce3d
00000010: b850 8fbe a443 6b3e 106f 6abd d5bb 573d
00000020: 2c9a 613d 22ec 11be 0c81 71be 8014 203d
00000030: d3d3 08be 4ced 5dbe 85b2 76bc a72f 003e
00000040: 325f b0bd 5bef 1c3e 6418 b43c b547 6abc
00000050: a7cb 58bd 6eea 3dbe 6015 d5bc 93f3 0f3d
00000060: 4c9d 06be 33c7 4abd f364 79bc 3621 a53d
00000070: 3260 6e3e 996b dfbd 023d 1a3d d1f6 56bd
00000080: db6b 02bd f05b 72bd 165f 593e 52d4 053d
00000090: aa05 2abd 21f2 0fbe ae90 413c 387b 003e
000000a0: 755e 85bd 42f0 d5bd 7d41 28be 0605 653c
000000b0: 5a1d 1b3e 3115 d13a ccc2 a8bf 6a7d 443d
000000c0: d2d4 903e 436e 2e3d c2ab 55bd 7046 6a3e
000000d0: d6e9 7c3e cc8e 1dbe 4903 f0bd 469a 0f3b
000000e0: 9db9 7ebd 3c6f 08be d273 413c 8047 73be
000000f0: 4dee 0cbe 6f8d 22be 851c 223c 128d 253d
00000100: c3fc f23c b829 5b3d a904 c03d 0cf8 e8bd
00000110: ee89 373d 9c34 4e3e 2565 473d c18b 1fbe
00000120: 9d9a 35bc 315c 293d ab32 e8bc 7fc6 63bd
00000130: 236b 9ebe 84d1 2e3d fd12 7f3d 88bb 0d3e
00000140: f9b9 4cbd b75f e33d 542b ec3d f7b1 35bb
00000150: b1c0 59bc 3090 7a3e 7e29 103d 450e 3dbd
00000160: 6221 bc3a dd13 f93d 6e86 dbbd bd94 703e
00000170: a257 73be 6c39 043e 3e9f b03d 5291 04be
00000180: 20af 52be 5b4c 4b3d 7b75 55be 3543 e9bd
00000190: eab8 a23e 5ba9 4b3d b67c 0b3e 724a 3a3e
000001a0: 5d31 bdbc 2a21 99bc 205e bfbd 9559 313c
000001b0: c647 7c3e fc32 55be 1645 a8bf a32d ddbc
000001c0: c563 62bd 82ec 2fbe a598 cdbd ed0b cbbd
000001d0: 0bcc b73e 72a8 cabd 86be 4dbe 92d4 7f3e
000001e0: e5ce 193e 5308 113e c820 78bc a3c5 903d
000001f0: f8ac 31bd 4e1c 88bd 6dc9 7dbd 3d1c 21bc
00000200: 43db 37bd 9a0b b03d 4e98 e9bd 56d7 063e
00000210: 220e 953d f886 3d3e 38dd a03e 8d48 ae3d
00000220: 485b 243e 8d08 5e3e 16d3 8ebe c615 2ebd
00000230: 86f8 80bd 8b21 253e 5b62 863e 12e0 8b3d
00000240: ca15 67be f105 7f3e 2d28 7c3e 6109 68be
00000250: c86b d7bd 5cd2 26bd 38e4 273e 8cc9 f13b
00000260: d367 80bd f1fc 013d b5c0 40be 27bb 923d
00000270: d365 f5bc b02b 203e 586e bb3e 954f eb3c
00000280: 84e7 ecbd 6207 e53d 19b4 023e 83e5 85be
00000290: 23f6 093e bbb8 9cbd 6c49 4cbd 61b5 013e
000002a0: b68c cc3a e560 17bd 5ae3 803e 9076 65bd
000002b0: f718 483e 95f1 77bd 8886 df3e 80a2 c8bd
000002c0: 317a f83d 2b1e 8abe 45c4 adbe ae06 8b3d
000002d0: 4942 223e ed78 82be 22ec 9dbd e2e8 20bd
000002e0: 518c a33e a7df c7bd f475 f43c 00e6 c3bd
000002f0: 8603 33be de40 15bb efd3 bbbe 986f af3d
00000300: 1552 6d3d 9c39 13bb 5e49 48bd db8c 10be
00000310: 85a3 c9bc febc 4d3e d607 2f3e 62cf 763c
00000320: 4aa2 863e 7e43 6c3c 06c5 6cbe 644e 23be
00000330: d3fb 7f3d 1b99 23be c77d d03d 0318 923d
00000340: 0c9b 173d 7299 9d3e 7a4f 5c3d ad01 95bc
00000350: 08b8 7b3d e047 a0bb d5f8 a33e f18f 3bbe
00000360: 2d9d f4bd d4a5 47be f702 59be 3fe9 983d
00000370: 6005 acbd cae1 2b3e 37b4 5fbd e2bc 29bc
00000380: b49c 0a3e b142 d93e 9a84 68be a4f0 3e3d
00000390: f2fa 9a3c ecc6 7cbd 4dbc bd3d b9fa e2bd
000003a0: 8da7 133e 38df b13d c7f1 18bd e712 1bbe
000003b0: 21cb 9bbd 20c8 48be db95 c73e 21d0 4ebd
000003c0: 22e6 5bbd 1e27 4b3e ab12 623e 1f9a d2be
000003d0: 33c8 fdbd 6b76 f53d f750 fcbc 368b 1bbe
000003e0: 80ed b13c 171d 0a3e 7e19 bfbd d8fe bc3d
000003f0: e5f8 4abe 1658 2dbd 0eb5 953d 9aa6 08bb
-0.052356225 0.084863335 -0.13063532 0.10066221 -0.2799127 0.22975022 -0.057234824 0.052669365
0.05507867 -0.14250234 -0.23584384 0.03908205 -0.13362055 -0.21672553 -0.015057211 0.12518178
-0.08611907 0.15325682 0.021984287 -0.014299323 -0.052928593 -0.18546459 -0.026011169 0.0351444
-0.13145941 -0.049506377 -0.015221822 0.08062975 0.23278883 -0.109091945 0.037655838 -0.052481476
-0.03184114 -0.05916971 0.21227679 0.032673188 -0.041509308 -0.14057209 0.0118142795 0.12547004
-0.06512157 -0.10446216 -0.16431232 0.013978248 0.15147915 0.001595175 -1.3184447 0.047971167
0.2828737 0.042585623 -0.052165754 0.22878432 0.24698576 -0.15386504 -0.117193766 0.0021912022
-0.062188733 -0.13323683 0.011807399 -0.23757744 -0.1376278 -0.15874265 0.009894495 0.04041774
0.029661542 0.053506583 0.09375889 -0.11375436 0.044809274 0.20137256 0.048680443 -0.15580656
-0.011084226 0.041347686 -0.028344473 -0.055609223 -0.30941114 0.04268028 0.062273968 0.13841069
-0.049982045 0.111022405 0.11531702 -0.0027724484 -0.01329057 0.24469066 0.03519582 -0.046156187
0.001435321 0.12161992 -0.10719 0.23494239 -0.23763898 0.1291253 0.08624123 -0.1294606
-0.20574617 0.049633365 -0.20845596 -0.11389772 0.31781703 0.049722057 0.13621792 0.18192461
-0.023094827 -0.018692572 -0.09344125 0.010824581 0.24636754 -0.2082023 -1.3146083 -0.0269993
-0.05527093 -0.17180064 -0.1003888 -0.09914384 0.3589786 -0.0989541 -0.2009221 0.24983433
0.1502033 0.14163332 -0.015144534 0.07068946 -0.043377846 -0.06646024 -0.061959673 -0.009833393
-0.04488684 0.08595963 -0.11406003 0.13168082 0.07278086 0.18508518 0.31418777 0.08509932
0.16050446 0.2168295 -0.2789542 -0.042501234 -0.06297402 0.16126077 0.26246914 0.068298474
-0.22566906 0.2490461 0.24624701 -0.22659828 -0.105186045 -0.040727958 0.16395652 0.0073787626
-0.06269803 0.031735364 -0.18823512 0.07164603 -0.02995578 0.15641665 0.36607623 0.028724471
-0.115675956 0.11183049 0.12764014 -0.26151666 0.134728 -0.07652422 -0.049874708 0.12666847
0.00156059 -0.03695764 0.25173455 -0.056021273 0.19540773 -0.060533125 0.43657327 -0.097966194
0.12132681 -0.2697614 -0.33938804 0.067883834 0.15845598 -0.25482884 -0.077110544 -0.039284594
0.3194299 -0.09759455 0.0298414 -0.095653534 -0.17481813 -0.002277426 -0.3668513 0.08566207
0.057939608 -0.0022464758 -0.048898093 -0.14116232 -0.024614105 0.20091626 0.17092833 0.015064092
0.26295692 0.014420388 -0.23122033 -0.15947872 0.062496018 -0.15976374 0.1018024 0.07133486
0.0370131 0.30781132 0.053786732 -0.018189276 0.061454803 -0.0048913807 0.3202578 -0.18316628
-0.119440414 -0.19496852 -0.21192537 0.07466363 -0.08399463 0.1678535 -0.054615226 -0.010359975
0.1353634 0.42433694 -0.22706833 0.04661621 0.018918488 -0.061713144 0.09264431 -0.11082978
0.14419384 0.08685154 -0.03733995 -0.1514393 -0.07607103 -0.19607592 0.38981518 -0.050491456
-0.05368627 0.19839141 0.22077434 -0.4113321 -0.123917006 0.11985477 -0.030800326 -0.15189824
0.021719694 0.1348766 -0.09331034 0.09228295 -0.19821508 -0.042320333 0.07309924 -0.0020851255

net.4.bias f4 [32]
00000000: 1e01 f83a 1a04 b3bd 3a56 50bd 6325 d23e
00000010: ee84 b6bd 0b5e 913e fd76 023e b18e 0bbd
00000020: 066b 083e 49b7 12bd d4cf 2abe 8cc9 323c
00000030: 8ff8 973d 3e67 12bd be3d 423d 84bb 8abe
00000040: 5d2a b63d a1b6 8f3e 3baf 1abd 9711 873d
00000050: f28e b43d 0cbe 523e 65af 0fbd c75b 5fbd
00000060: 58b4 273e 6e43 453c 767b c1bd 5c85 0cbe
00000070: e79a b23d 89cf 353c e99c 423e eb0b bf3d
0.0018921231 -0.08741017 -0.050863482 0.4104415 -0.08912073 0.28392062 0.12740703 -0.034071628
0.13322076 -0.035819326 -0.16680843 0.01091231 0.07420456 -0.03574299 0.047422163 -0.27096188
0.08894799 0.28069022 -0.03776477 0.06595152 0.08816327 0.2058031 -0.03507938 -0.054530885
0.1637739 0.012040002 -0.094473764 -0.13722748 0.087209515 0.0110968435 0.19005169 0.09328445

net.6.weight f4 [6, 32]
00000000: 4ecf 3dbe 3057 a43d 1f19 443c a08f a33d
00000010: 39db 64be 1b96 df3e 7c21 c23d 9f8d babd
00000020: 26ab 593e 4e78 26bd 9e75 9fbe a6a8 bdbd
00000030: 9174 69bd 8c12 5ebe 8069 b8ba 7073 9abd
00000040: b9fe 103e 2c6f 813c 4307 163e 86c6 febd
00000050: f4bb 0e3b 677f 153e ad28 1b3e 7191 33be
00000060: 0783 f03c a2bf 3b3d 2594 143e 3175 69be
00000070: 39cb 143e bf25 043d 3e02 a63d 743d a23e
00000080: 2ef5 f6bb 3147 4f3e 44b0 a6bd 6f08 57be
00000090: 6ae7 19be 2119 73bc 6d2b 22be 04dc 96be
000000a0: d730 35be c96b 2f3d 89d0 39be df0d 26bf
000000b0: 5b16 51bf 9172 96bd e5a3 9f3d 7e02 08be
000000c0: b204 813e 8f7f 2cbd fb52 2d3e 8d5e 5bbd
000000d0: 4d3d aabd 2e6e 8ebc 6274 bd3d 005d 09bd
000000e0: 12ac f6be a2fa fdbd df50 813d b711 89bc
000000f0: b14a 0d3e ba3d 873d b894 50bc ced4 b63d
00000100: 5858 5c3d 1197 d73b c640 8dbd 733a 1b3e
00000110: 940c 01be 73e0 e23d fd12 acbc e21b e8bd
00000120: 2e40 38bc 963c 643a 53a5 53be 2d27 9c3e
00000130: 2dbf 67be f506 6bbe 21b7 c3bc d589 94be
00000140: 7f2d 483e bca2 39be 0f32 7abd 957f 813e
00000150: c90d 0e3d 223e 2b3e 6bd8 153c 1b4b 2f3d
00000160: b3f9 9a3d 119e 59be ef6b b03d 9671 8fbe
00000170: d43c 0b3d ca1f 1f3e 90b7 193d 8e82 4e3e
00000180: aa2c a3bc 4da1 5b3d 5366 553e e868 b5be
00000190: ffe7 d2bd 3875 a2bd 62d9 3ebe 8559 cabd
000001a0: 65fa 1dbe db8a 4b3d ee2e adbc ce1a 7b39
000001b0: 17ab 963e 781b cbbd cef3 91ba 4526 733d
000001c0: ef29 463e b46d 18bd 54cc b43d b57d 11be
000001d0: d68f 533d b22d c7bb 13b6 393e e3b5 a73c
000001e0: d077 14be b5f0 073e b967 783e a87b 683b
000001f0: 2586 083e c435 afbd baf4 74bd c5f2 753e
00000200: f182 20bd 5089 803b b956 acbe 4dab 863d
00000210: 0625 e9bd 8174 663e c3e7 153d 7ac9 51be
00000220: 04fd f9bc e5b2 b6be d225 33be dfa7 243c
00000230: d4dd 3dbd 21b9 a63c b5f0 bdbd 4569 a7be
00000240: 045f b83c cbc9 a3bb 309a 573d f28f 0ebe
00000250: f368 653d 43df 413d bf01 4a3e a37d 01be
00000260: 6b63 dfbb 4e8f ed3d f0ab 973d b94f 0ebe
00000270: ef40 093d 956d 7b3c b898 433d 4e54 6b3e
00000280: e16f 3f3e 7da6 963b 0890 e4bd 5372 d9be
00000290: 3235 c53b 7de1 d4bc 6855 a63d 0f3c 8bbd
000002a0: 6c79 873f a3cc 8fbd 0d90 613c 1110 aabf
000002b0: ad1b 94be 190c 51bd c628 a93d 4fc3 283d
000002c0: c0c9 6e3d 8a9b 7abe d35f 6a3e c944 593d
000002d0: 92ad a7bd ea35 41be ffcd abbd ba63 103d
000002e0: 32d8 823e f680 1bbe 098d aebd cca0 b0bd
000002f0: dcbd 1a3b b5fd 0a3d 40b8 ae3f ee33 f63d
-0.18536112 0.08024442 0.01196888 0.07986379 -0.22349252 0.4366921 0.09479043 -0.09109043
0.21256694 -0.040642075 -0.31144422 -0.09260683 -0.056995932 -0.21686763 -0.0014069527 -0.07541549
0.14159669 0.015800081 0.14651208 -0.12440209 0.002177951 0.14599381 0.15152235 -0.1753595
0.029359354 0.045837052 0.14509638 -0.22798611 0.14530648 0.03226256 0.081058964 0.3168751
-0.007536552 0.20242001 -0.08139089 -0.20999311 -0.15029684 -0.014837534 -0.15836878 -0.29464734
-0.17694412 0.0428274 -0.18145956 -0.64864916 -0.81674737 -0.073460706 0.07794932 -0.132822
0.25198895 -0.042113837 0.16926186 -0.053556968 -0.083124734 -0.017386522 0.09250714 -0.033535957
-0.48178154 -0.1240132 0.06314253 -0.01673208 0.13798024 0.0660357 -0.01273077 0.08927308
0.05379519 0.006579288 -0.0689712 0.15159015 -0.12602454 0.110779665 -0.021005148 -0.11333443
-0.01124577 0.0008706538 -0.20668535 0.3049864 -0.22631522 -0.22951873 -0.023891034 -0.29011407
0.19548605 -0.18128484 -0.061082896 0.2529265 0.034681115 0.1672292 0.009145836 0.042796236
0.075671576 -0.21251704 0.08614337 -0.28016347 0.033993557 0.1553947 0.037528574 0.2016699
-0.019918758 0.053620625 0.20839815 -0.354316 -0.10298156 -0.07932514 -0.18637612 -0.09880356
-0.15427549 0.04969297 -0.021140542 0.00023947211 0.29427406 -0.099173486 -0.0011135282 0.05936267
0.19351934 -0.037213996 0.08828035 -0.1420811 0.051650845 -0.0060784454 0.18135862 0.020472473
-0.1449883 0.13275416 0.24258317 0.0035474095 0.13332422 -0.08555177 -0.059803702 0.2401839
-0.039187375 0.003922619 -0.33659914 0.06575642 -0.11384015 0.2250538 0.03659798 -0.20487013
-0.030516155 -0.3568336 -0.17494896 0.010049789 -0.04635413 0.020351948 -0.09274427 -0.32697502
0.022506244 -0.004998421 0.05263728 -0.13922098 0.05600829 0.04733206 0.19727229 -0.12645583
-0.0068172715 0.11599599 0.07405841 -0.138976 0.03350919 0.015345951 0.047753066 0.22981378
0.18695022 0.0045974837 -0.11160284 -0.42470035 0.0060183043 -0.025986427 0.08121759 -0.06798565
1.058393 -0.07021453 0.013767255 -1.3286153 -0.28927365 -0.051036928 0.0825973 0.041201886
0.058297873 -0.24473396 0.22888117 0.053044114 -0.08187403 -0.18868223 -0.083889 0.035251357
0.2555557 -0.15185913 -0.08522994 -0.086244196 0.00236117 0.03393336 1.3649979 0.120216236

net.6.bias f4 [6]
00000000: 3e07 fd3d a4d6 443e 4541 983e 9569 2c3e
00000010: 8437 aabd b44d 9fbe
0.12354897 0.19222504 0.29737297 0.16837151 -0.0831137 -0.3111397
