onnx_models/state_estimator.onnx (onnx, 6436 bytes, 6 tensors)

net.0.weight f4 [32, 21]
000000 8a 3e 09 3f 0e b2 40 be 66 87 36 40 c0 68 37 3f
       0.5361105 -0.18817922 2.852014 0.7164421
000010 ac ae 1b be de 96 9e 40 e0 ac 01 3f b4 f0 22 be
       -0.15203351 4.9559164 0.5065441 -0.15912133
000020 2e cb 83 40 38 d7 b0 3d ac a9 15 be 5a af d7 3f
       4.118552 0.086348 -0.14615506 1.6850388
000030 5c 95 a0 be 4d cb c6 bd f7 c8 37 bf 8d ec da c0
       -0.31363952 -0.09706745 -0.71791023 -6.841376
000040 9f 56 f1 c0 c6 71 08 3f c6 d7 84 3f ea 6d 9e 41
       -7.541824 0.53298604 1.0378349 19.803669
000050 73 c5 eb bf 60 d6 b1 3f f8 26 01 3f 73 02 78 40
       -1.8419632 1.3893547 0.50450087 3.8751495
000060 e7 ba 14 3f 35 5f 89 3e 45 62 bd 3f dc ff 91 bc
       0.5809769 0.2683045 1.4795614 -0.017822199
000070 cc 59 8e 3d f0 4e 8e be 1a f9 f6 be db bf 43 be
       0.06950721 -0.277946 -0.48236924 -0.19116156
000080 7c da 91 bf 94 87 6a bf 9f 34 c6 be fa 99 f2 bf
       -1.1394801 -0.91613126 -0.38712022 -1.895324
000090 c8 d9 c4 40 c3 02 19 c0 51 6b 28 c0 a0 f8 1d c0
       6.1515846 -2.3907936 -2.63155 -2.4682999
0000a0 b8 34 ed c1 bc 48 8d 3f 32 24 bf 3e 49 20 a7 be
       -29.650742 1.1037822 0.37332302 -0.3264182
0000b0 32 0c 26 40 0c e4 0d 3f e9 02 94 be 31 f4 94 40
       2.5944943 0.55426097 -0.2890847 4.6548085
0000c0 dd de a6 3e ab 72 9c be 0d 6e 74 40 13 4e 3f bd
       0.32591906 -0.30556235 3.819217 -0.046705317
0000d0 6f f1 91 be 32 23 c7 3f db fe cf be 48 24 78 be
       -0.28504512 1.5557616 -0.40624127 -0.2423259
0000e0 f4 77 0c bf 4e 10 ba c0 f5 a0 fa c0 01 f2 d4 3e
       -0.54870534 -5.8144903 -7.832148 0.41590884
0000f0 dd 26 4f 3f b0 b8 96 41 ef 9c 11 c0 9f 7b 98 3f
       0.80918676 18.84018 -2.2752035 1.1912726
000100 ad c9 55 3f 59 65 81 3f b7 2f 1d 3f f5 e5 26 3f
       0.8351086 1.0109054 0.6140093 0.65194637
000110 bf a5 2b bf 17 8a 4e 3e c6 63 f4 3e a7 b6 cb bf
       -0.67049783 0.20169865 0.4773237 -1.5915116
000120 d2 b9 25 be 27 71 8e 3e 85 9b 0a c0 21 55 0d bf
       -0.16184166 0.27820703 -2.1657422 -0.5520802
000130 32 44 36 3e 3c b0 43 c0 d2 68 9a 3b d3 9c 36 c0
       0.17799452 -3.0576315 0.0047122026 -2.8533218
000140 95 ad 63 c0 a7 f8 1c c0 ce 2b b1 c1 1c 45 48 bf
       -3.5574696 -2.4526765 -22.146389 -0.7823045
000150 dd c7 08 3f 3b a0 ba be d9 b8 89 40 2d a8 07 3f
       0.5342997 -0.3645037 4.3038144 0.5299099
000160 4d bf a5 be 54 4e 96 40 5f 5c 90 3e 43 f1 ac be
       -0.32372513 4.6970615 0.28195474 -0.33777818
000170 fd e4 5e 40 72 9b 1c bd c4 4b 99 be 92 cc dd 3f
       3.4827263 -0.03823418 -0.29940617 1.7328055
000180 f5 85 9c be 60 49 8e be 59 9a b6 3e 2e a9 36 c0
       -0.3057095 -0.27790356 0.35664633 -2.854076
000190 7b 9d f0 c0 a2 27 69 3e 42 61 8b 3f 2b 1a bb 41
       -7.5192237 0.22769025 1.0889056 23.387777
0001a0 50 a2 aa c0 95 f9 ba 3f c5 df 48 3f 18 24 13 40
       -5.3323135 1.4607416 0.78466445 2.299078
0001b0 ea a4 57 3f 71 5e 1a 3f e7 92 0a 3f eb 12 ab 3e
       0.84236014 0.60300356 0.54130405 0.3341287
0001c0 61 5a e7 3e a4 29 40 bf b0 7c de bd 8e c1 93 3e
       0.4518614 -0.7506354 -0.10863626 0.28858608
0001d0 36 4a dc bf 04 be 0c bf 8c 0e 3f 3e 0a 15 37 c0
       -1.7210147 -0.5497744 0.18657893 -2.8606591
0001e0 29 ba 50 3d a7 86 e5 be e9 ea 44 c0 e3 53 d7 bf
       0.050958786 -0.44829294 -3.0768378 -1.6822475
0001f0 c0 23 e6 c1 a6 6d 0b bf 40 cb ba 3f 4c 04 31 3f
       -28.767456 -0.54464185 1.4593277 0.6914718
000200 2d c4 24 40 6c 59 51 3f 06 b7 0a 3f 06 34 31 3f
       2.5744736 0.8177707 0.5418552 0.69220006
000210 d0 cb aa 3e b9 cf d6 3e 6e b2 09 bf 6a 5a 79 bd
       0.33358622 0.41955355 -0.5378789 -0.06087724
000220 13 45 97 3e dc 41 9b bf f8 39 e4 be 28 41 61 3e
       0.29544887 -1.2129474 -0.44575477 0.21997511
000230 c7 14 0b c0 d8 23 5b bf d2 7d 17 3f c6 8c 5a c0
       -2.1731431 -0.8560157 0.5917636 -3.4148421
000240 19 af f4 bf 68 61 e3 c1 5b 99 32 bf 2c bc c4 3f
       -1.9115936 -28.422562 -0.6976525 1.5369925
000250 39 e9 31 3f 9b be 67 40 5c 64 4f 3f f9 a5 f2 3e
       0.69496495 3.6210086 0.8101251 0.47392252
000260 4c c8 bc 3f 35 72 7a 3e 2b 13 9a 3e eb 07 89 be
       1.4748626 0.24457629 0.3009275 -0.26763853
000270 09 10 56 be 5f f4 b1 3d 9f f4 8a bf 82 d2 10 bf
       -0.20904554 0.08689188 -1.0855902 -0.5657121
000280 98 f8 8b bd 2a cc cd bf 3a 8c 47 40 31 d9 d2 bf
       -0.06834525 -1.6077931 3.1179338 -1.6472532
000290 26 b1 35 c0 04 0b 01 c0 7b 60 e6 c1 5a 43 37 bf
       -2.8389373 -2.0162973 -28.79711 -0.71587145
0002a0 f1 f2 71 3e 7c 15 9a be 3d f4 ad 3f ab b2 dd 3e
       0.23627831 -0.30094516 1.3590161 0.43300375
0002b0 77 1c 8e be 3a e9 6d 40 a1 c8 f6 3e 42 d0 9f be
       -0.27756092 3.71736 0.48199943 -0.31213576
0002c0 f9 3a b5 40 8c 66 5a 3f 64 cd b3 be d9 79 19 41
       5.663449 0.85312724 -0.35117638 9.592248
0002d0 cb a6 0f 3f e3 91 b6 be b6 e5 01 41 b5 12 a8 c0
       0.5611388 -0.35658178 8.118582 -5.2522836
0002e0 de bf f0 c0 00 98 90 bf 06 88 66 bf 80 fb 15 41
       -7.5234213 -1.1296387 -0.90051305 9.373901
0002f0 7c ba 77 bf 48 5f 06 3f 6c 57 24 3d b0 fd a4 bf
       -0.9676893 0.5248914 0.040122434 -1.2889919
000300 f4 8f 30 3f e1 20 aa 3d 39 29 26 40 38 f8 6a 3f
       0.68969655 0.083070524 2.596266 0.91785
000310 2f 85 df 3d ef 54 0d 41 b9 55 e5 3e 18 97 3f 3e
       0.10914075 8.833236 0.44791964 0.18709981
000320 f7 2f 76 40 1a 5b 23 bf ac 18 58 3e f3 44 f0 c0
       3.8466775 -0.63810885 0.21103162 -7.5084167
000330 58 8f ea bf a9 3f 84 3d ff ca d9 bf e3 46 a6 bf
       -1.8324995 0.06457455 -1.7015074 -1.2990383
000340 1e eb 84 40 27 e1 75 bf 64 20 09 3f b2 59 7e be
       4.153701 -0.9604668 0.5356505 -0.24838904
000350 51 07 57 40 fe 91 28 3f 93 31 69 be 21 a0 9e 40
       3.3598216 0.65847766 -0.22772817 4.957047
000360 c6 4e ba 3e be 93 79 be 5d b4 6c 40 a5 20 3a bd
       0.36388224 -0.24372765 3.6985085 -0.04544129
000370 fb 13 54 be f7 20 8f 3f 3e 9e d0 be d1 e1 35 be
       -0.20710747 1.1181935 -0.4074573 -0.17761923
000380 3f 6b 8a bf d1 85 b8 c0 d2 b6 ec c0 b5 c4 38 3f
       -1.0813979 -5.766335 -7.397317 0.7217515
000390 7a a9 8a 3f 0e 97 a1 41 24 f0 06 c0 f2 67 05 40
       1.083297 20.198757 -2.108407 2.0844693
0003a0 08 f2 d9 3e 63 11 d4 40 46 5c 86 3f 2b 21 95 3e
       0.42567468 6.6271224 1.049691 0.29126868
0003b0 9b 66 40 40 82 07 31 3e 4a c8 4e 3e 0a a8 7d bc
       3.0062625 0.1728802 0.20193592 -0.015481958
0003c0 d3 8d da be 67 49 38 3d 85 10 df bf 8d f4 db be
       -0.42686328 0.044991877 -1.7426916 -0.42960015
0003d0 05 fb 10 be 13 94 a6 bf b8 10 9c be 7a 53 03 40
       -0.14158256 -1.3013939 -0.30481505 2.05197
0003e0 b6 fd a3 bf a2 13 02 c0 6b 54 b2 c1 3a 07 f0 3e
       -1.2811801 -2.0324483 -22.29122 0.46880513
0003f0 bf ff 9e 3f fd ce 02 3f 2e 1d 50 40 d7 d3 24 3f
       1.2421798 0.5109709 3.251781 0.6438574

net.0.bias f4 [32]
000000 60 a6 1e be 94 e3 32 c0 aa e2 a9 be 0c 39 81 c0
       -0.15493155 -2.7951403 -0.33180743 -4.0382137
000010 e3 2d 89 3e 15 7f 6c c0 89 7b 80 c0 ad 3a 51 c0
       0.2679282 -3.6952565 -4.01508 -3.2692063
000020 98 a6 b0 bf 84 5c d8 bf 8c a7 df bc 47 9a b5 bf
       -1.380084 -1.6903234 -0.027301572 -1.4187707
000030 f0 49 72 c0 17 4d 1a 3d ea 40 0e c0 28 3a b2 be
       -3.7857628 0.037671175 -2.222712 -0.34809995
000040 9e 2a 4b 3d 8a 4e 77 c0 2e 13 29 3f 5e d9 1f c0
       0.04960119 -3.8641686 0.6604489 -2.497642
000050 ee c5 99 bf 7c 99 bc bf 7e 14 08 c0 ed e2 44 bf
       -1.2013528 -1.473434 -2.1262507 -0.7690876
000060 ff 86 f7 bf 97 7a 4b c0 a2 cf 12 3f f5 f0 a3 bf
       -1.9338073 -3.1793573 0.5734807 -1.2807909
000070 06 6d 67 c0 17 00 1a c0 72 67 56 c0 da c4 7d be
       -3.6160293 -2.4062555 -3.3500638 -0.24782124

net.2.weight f4 [16, 32]
000000 a5 43 19 40 71 da 54 c0 c4 9f 15 40 0a 9a b9 3b
       2.3947537 -3.3258326 2.3378763 0.005664115
000010 c0 6b 3c 40 7a 17 8f bf a7 9f fe bf e3 0f 4a c0
       2.9440765 -1.117904 -1.9892472 -3.1572196
000020 86 3a eb 3f 5b 7a a2 3f fa 26 16 40 c4 ed 92 bf
       1.8377235 1.269359 2.346129 -1.147881
000030 28 af 59 c0 2c e6 2e 40 69 e7 9d bd e6 88 0c 40
       -3.4013157 2.7327986 -0.077101536 2.1958556
000040 f3 20 35 40 b4 e1 4c c0 f4 82 a8 40 12 06 03 3f
       2.830136 -3.2012758 5.2659855 0.5118114
000050 d3 fd 39 3f 14 be cc 3e d5 83 d7 3f 7e fb 35 c0
       0.7265293 0.39988768 1.6837107 -2.8434749
000060 be b6 23 be 5b a7 a6 bf 55 f7 43 40 1a cc ee 3e
       -0.1598768 -1.3019823 3.061971 0.46640092
000070 ab 28 23 c0 40 2b 78 40 3c 49 4b be 3a 2b 84 3f
       -2.5493572 3.8776398 -0.19852155 1.0325692
000080 7b 08 58 40 9a bb ff bf ff 72 4b 40 19 b3 eb 3f
       3.3755176 -1.9979126 3.1788938 1.8414031
000090 1d 34 59 40 06 64 f5 bf a8 02 50 c0 27 46 21 c0
       3.3938057 -1.917115 -3.2501621 -2.5199068
0000a0 46 d1 f9 3f 70 d2 fa 3f 09 43 57 40 03 52 39 c0
       1.951699 1.959547 3.3634665 -2.8956306
0000b0 72 cc 88 c0 52 0f 2d 40 de e4 a7 3e bf af 37 40
       -4.2749567 2.70406 0.327918 2.8701017
0000c0 f1 28 55 40 7d a4 84 c0 9b cb b7 40 cf dd 52 3e
       3.3306239 -4.145079 5.743604 0.20592426
0000d0 ca 76 0c 40 59 66 b8 3f 44 8f a1 3f 53 3e 1e c0
       2.1947503 1.4406234 1.2621846 -2.472554
0000e0 e6 a9 6f 3f 38 dd b7 bf a6 d0 66 40 12 26 99 3f
       0.9361862 -1.4364386 3.606485 1.1964743
0000f0 2f 22 2d c0 81 72 15 40 b6 2c 04 3e e6 d0 2f 3f
       -2.7052114 2.3351138 0.12907681 0.6867813
000100 5d 25 fd 3d 95 71 b6 bd 7d 70 3f 3d 30 5c 8f 3e
       0.12360642 -0.08908383 0.046738137 0.2800002
000110 c9 d9 8d be b0 1a a7 3f 78 c9 b9 3f f0 b2 d0 3e
       -0.2770522 1.3055019 1.4514608 0.40761518
000120 5c 0b 35 bf 5a e2 a1 be 61 4f 82 3d 53 b1 22 be
       -0.7072046 -0.31618005 0.063627966 -0.15887956
000130 12 2d 43 3f d6 f8 41 c0 67 23 39 bf 8c c4 1f 3e
       0.76240647 -3.0308127 -0.72319645 0.1560232
000140 a8 a7 77 3e 82 00 6b 3f 2f fc 95 bf d8 38 b5 3e
       0.2418505 0.9179765 -1.1717585 0.3539493
000150 4e ad 36 c0 32 b4 b0 be d1 52 2a 3e e6 c0 43 be
       -2.8543277 -0.34512478 0.16633154 -0.19116554
000160 3c d2 bf bd f5 37 85 3e bf fe 0c bf 95 be 4b bf
       -0.09366271 0.26019254 -0.5507621 -0.7958768
000170 1a 7f 5b 3f bc 56 c9 3f 41 68 b6 be 2a 12 be bf
       0.85740817 1.5729594 -0.35626414 -1.4849293
000180 c5 f3 d9 bf ea 0e 02 3f a4 85 c4 bf df e5 32 bf
       -1.7027518 0.5080401 -1.5353284 -0.69882005
000190 d4 c9 0a c0 3f 15 6f 3f d4 04 88 3f d1 78 ec 3e
       -2.1685686 0.93391794 1.0626473 0.46185926
0001a0 e6 3c 95 be a0 9a 98 bd 2c b2 ca bf 93 a2 f1 3e
       -0.29148024 -0.074513674 -1.5835624 0.47194347
0001b0 0d cd 32 3f ee 68 dc bf 15 1e 8f be 6b 0e b8 bf
       0.6984413 -1.7219522 -0.27952638 -1.43794
0001c0 d2 3d ec bf 3d 5a 4a 3f 84 50 0e c0 6a 90 e5 3e
       -1.8456366 0.7904394 -2.2236643 0.44836742
0001d0 25 8d fb 3f 94 ba 99 be ce 02 5b bd 42 e3 9e be
       1.9652449 -0.3002516 -0.05346947 -0.3103276
0001e0 e9 bb 67 be 05 31 30 3f e6 87 0e c0 10 6e 1f bf
       -0.22630276 0.688248 -2.2270446 -0.6227732
0001f0 a0 f1 2b 3f 45 9b ba 3f 8a 5e 67 be bf ae ef bf
       0.67165565 1.4578635 -0.22594658 -1.8725203
000200 9b b0 47 40 27 e9 9e bf 65 7f 50 40 3f 75 24 bf
       3.1201541 -1.2414902 3.2577755 -0.64241403
000210 71 e9 37 40 c6 05 72 bf e9 d5 81 be 61 2f aa bf
       2.8736231 -0.9454006 -0.25358513 -1.3295709
000220 c7 5a da 3f 8d 36 71 bf 9f d1 61 40 07 72 79 bf
       1.7058953 -0.9422386 3.5284193 -0.97439617
000230 e2 39 32 bf 76 fe 59 40 69 bb c1 be 4f e1 36 40
       -0.6961957 3.406156 -0.37838295 2.8575017
000240 9d b9 f1 3f ed df 17 bf 58 de 66 40 04 3d a6 3f
       1.888477 -0.5932606 3.6073208 1.298737
000250 69 11 20 c0 9d f5 c2 3f 2e 70 29 bf 59 b4 f9 be
       -2.5010626 1.5231205 -0.661868 -0.48770407
000260 00 ad dd 3f 0e 6a 6a bf 99 51 6c 40 34 c4 1d 40
       1.731842 -0.91568077 3.6924803 2.4651003
000270 02 86 85 bf 6e 7f 0e 40 c7 c9 69 be 2e 1d c4 3f
       -1.0431521 2.2265277 -0.22830878 1.5321405
000280 09 34 aa 3f a6 0a f5 bf 12 1e c1 3f 4e 23 67 be
       1.329713 -1.9143875 1.5087302 -0.22572061
000290 0b a5 ac 3f 35 c9 54 bf ba 4a a8 3c 43 e4 d5 bf
       1.3487867 -0.8311952 0.020543445 -1.6710285
0002a0 fa 4f d3 3f a9 32 2f c0 9d 38 5b 3f 86 21 8b bf
       1.6508782 -2.737467 0.8563326 -1.0869606
0002b0 45 c5 b7 bd bf 80 20 40 a1 be 75 bf 16 1e 1a 40
       -0.08973173 2.507858 -0.95994 2.4080863
0002c0 09 ff c8 3f 45 bf 6e 3d 9b 2d 60 3f ff cc d6 3f
       1.570283 0.058287878 0.8756959 1.678131
0002d0 c2 0f 5f 40 c5 7d 28 c0 ea 23 f8 3f 55 7c 06 3d
       3.4853368 -2.6326764 1.938596 0.032833416
0002e0 fc 4b 3b c0 d2 90 a8 3c 60 2d 90 3f a5 11 6c bf
       -2.9265127 0.020576868 1.1263847 -0.92214423
0002f0 bb c7 76 bf 4e 24 06 40 fb 48 72 bf 1c 71 d1 3e
       -0.96398515 2.0959659 -0.9464261 0.40906608
000300 ac e2 44 3e d7 ff 74 3f 61 78 c4 bc c1 a7 fc be
       0.19227093 0.9570288 -0.023983182 -0.49346736
000310 46 3b 0b c0 de 10 e3 3e 68 d5 d0 3e d9 45 0b 3f
       -2.1754928 0.44348806 0.40787816 0.54403454
000320 3f 21 12 3f 39 d1 61 3f 41 29 d9 be f1 0b d2 3e
       0.5708198 0.88209873 -0.42414287 0.41024736
000330 91 f8 46 3f 27 e4 ad bf e6 e0 fd be 72 d1 ef be
       0.7772303 -1.3585252 -0.49585646 -0.46839482
000340 3f 8e ff bf e8 1e 3a 3f fb 60 a0 bf 55 94 25 3f
       -1.9965285 0.7270341 -1.2529596 0.6467946
000350 89 25 65 40 d5 61 98 bf 4a ab cf 3e 97 d5 42 bf
       3.580416 -1.1904856 0.4056037 -0.7610716
000360 2f 45 85 bf b6 d9 5d 3e 3e e3 e9 bf bc b6 ce bf
       -1.0411738 0.21665081 -1.8272474 -1.6149516
000370 bb c3 c2 3e fe ab ab 3f 94 b0 5b be f9 70 13 c0
       0.38039955 1.3411863 -0.21454078 -2.3037703
000380 b6 92 44 3f a2 85 4b 40 72 91 ac 3f 96 8d 9d 3e
       0.76786363 3.1800313 1.3481886 0.30772084
000390 19 e0 ce 3f a1 70 e8 3d 99 b4 62 bd 8b 6f e6 3c
       1.6162139 0.11349607 -0.055348013 0.02812936
0003a0 4c da a1 bf 1d 39 06 3f dc 20 98 3f 87 e7 35 bf
       -1.2644744 0.524309 1.1885028 -0.7105641
0003b0 85 5b 40 3f c9 10 3c 3f 90 03 47 bf cf 4b 4c 3f
       0.7513965 0.7346311 -0.7773981 0.79803175
0003c0 3c 2e 94 3f ef f2 e5 3e 1e 5b c4 3f 0a b6 28 bb
       1.157661 0.44911906 1.5340307 -0.002574327
0003d0 34 b9 92 40 b7 c4 8f bf 3a 5f 57 bf 3c 1c ea bf
       4.585108 -1.1231908 -0.8412968 -1.8289866
0003e0 bb 74 98 bf 5b 6b 3f be 6a 48 c3 3f d6 85 aa bf
       -1.1910623 -0.18693297 1.5256474 -1.3322093
0003f0 23 ce ea be 8b 0c 34 be 14 1d 04 3e 3d 1b 3b bd
       -0.45860395 -0.1758291 0.12901717 -0.045680273

net.2.bias f4 [16]
000000 96 de 4b bf 4a 68 9e 3e 79 5e 2d c0 7f 52 25 c0
       -0.79636514 0.3093894 -2.7088912 -2.5831602
000010 ed a9 b9 bf cb 0c 07 c0 62 69 39 c0 e5 03 e2 bf
       -1.4504982 -2.1101558 -2.897057 -1.7657439
000020 cb 60 23 c0 f4 2c 21 c0 c5 fd 4f be d3 76 a3 bf
       -2.5527828 -2.5183687 -0.20311649 -1.2770637
000030 61 98 f8 3d d8 e8 5f 3e e7 fd c1 3f 6e e0 fa be
       0.12138439 0.21866167 1.515561 -0.4899935

net.4.weight f4 [8, 16]
000000 89 fe 37 3d b6 c0 0c 3f 7e c8 3a 3f 83 8a 2a 3f
       0.044920478 0.54981554 0.72962177 0.666176
000010 a5 a4 5b 3d 23 29 70 be 45 7c 99 3d 0f 89 ac bc
       0.053623814 -0.23453192 0.07494406 -0.021061448
000020 e4 7d 94 be 28 18 96 3f 0b b3 2c 3f f6 a2 a3 be
       -0.29002297 1.1726122 0.674607 -0.31960267
000030 26 96 ef 3e 26 28 3c be 4d 78 98 3e 85 82 22 be
       0.46794242 -0.1837469 0.29779282 -0.15870102
000040 5e 4e 49 bf e3 16 7d bf f0 25 f6 3d d3 f5 40 3e
       -0.78635204 -0.9886305 0.12018955 0.18843774
000050 4e 2d 3c 3f 67 51 7b 3f 55 fc 1b 3f 59 82 17 be
       0.7350663 0.98171085 0.60931903 -0.14795817
000060 fa 2d 11 3d a8 25 08 bd ba ef 54 be 2b fc 14 3f
       0.035444237 -0.033239037 -0.20794573 0.5819728
000070 b0 d1 53 3f 9f ec 11 bf 88 27 c2 be 33 81 b0 3e
       0.8274183 -0.5700168 -0.37920785 0.3447357
000080 74 18 04 3f e8 68 81 be ef c7 36 3f d3 60 48 3e
       0.5159981 -0.2527535 0.71398824 0.19568186
000090 c1 1c c1 be 95 89 2a 3f 36 68 39 3e ee 80 4d 3f
       -0.3771725 0.66616184 0.1810616 0.80274856
0000a0 ae bb 78 be 78 b4 3c 3d b0 61 f4 3e da 40 8a 3d
       -0.24290344 0.046070546 0.4773078 0.06750651
0000b0 35 80 91 3d 72 53 3b bf 6c 48 e2 3e ba 22 81 bf
       0.07104532 -0.731742 0.44195879 -1.0088723
0000c0 9b ff 20 40 26 af 1f 40 43 be 89 bd 13 cc 02 3f
       2.515601 2.4950652 -0.06725743 0.5109264
0000d0 e3 3c 6e 40 fa 59 60 40 85 bd c3 3f ad d8 04 40
       3.7224662 3.5054917 1.5292212 2.0757248
0000e0 74 56 b9 3f 93 67 b6 bf 13 48 80 3f 5a 70 0f 3f
       1.4479508 -1.4250358 1.0021995 0.5603081
0000f0 88 02 6a 3e d1 49 47 40 7c 05 11 40 70 d0 2a 40
       0.22852528 3.1138804 2.2659597 2.668972
000100 bb 28 bd 3d f7 cd af 3d d3 20 b3 3d d5 5a c0 3d
       0.09236284 0.085842066 0.08746495 0.09392325
000110 fa 9a 8b 3d aa 8d c8 3d 6d 0d d6 3d 02 d3 d1 3d
       0.06816669 0.09792645 0.104517795 0.10245325
000120 16 15 b7 3d fb 6e b8 3d 08 e0 c1 3d ff 0a f1 3d
       0.08939569 0.09005543 0.09466559 0.117696755
000130 41 6a da 3d 13 3d fb 3d f9 66 d4 3d 6a 52 c9 3d
       0.106647976 0.12267508 0.10371203 0.09830172
000140 12 3c d6 3d 7c a4 ae 3d 59 f8 e8 3d f1 b5 cc 3d
       0.10460676 0.08527467 0.113754936 0.0999564
000150 ca 4b da 3d 99 05 da 3d 42 3b c0 3d cc 2a cd 3d
       0.10658987 0.10645599 0.093863025 0.100179285
000160 63 19 ad 3d a8 a1 e1 3d 26 d3 c8 3d 40 e3 cd 3d
       0.08452108 0.110171616 0.09805898 0.1005311
000170 07 3a cf 3d 2c 0a 9f 3d 6a f6 a9 3d b2 4a e4 3d
       0.1011849 0.07765612 0.08298953 0.111470595
000180 f8 a0 ed 3d 81 75 bc 3d af b6 b7 3d cb 4c d6 3d
       0.11602968 0.092020996 0.08970391 0.10463866
000190 6f 2e ec 3d 0a 64 dd 3d 96 7d f1 3d 00 d0 cb 3d
       0.11532294 0.108100966 0.11791532 0.09951782
0001a0 cc b8 cb 3d ed 6e d6 3d fd ac c0 3d b8 4b e5 3d
       0.099473566 0.10470376 0.09407995 0.11196083
0001b0 80 0b e7 3d db ea ca 3d 84 b1 e7 3d d6 06 c8 3d
       0.1128149 0.099080764 0.11313155 0.09766929
0001c0 5b 61 d3 3d a8 02 c0 3d cc 39 c6 3d cc 11 d4 3d
       0.103213035 0.09375507 0.09678993 0.10354957
0001d0 28 c3 f8 3d 5e 42 a8 3d 10 67 ca 3d ff 09 ce 3d
       0.12146598 0.082157835 0.09882939 0.100605
0001e0 46 bb de 3d 6f 47 c4 3d e2 87 eb 3d 3d dd e4 3d
       0.10875563 0.095839374 0.11500527 0.1117501
0001f0 f5 04 d2 3d 26 69 cd 3d e4 ad f0 3d c6 80 bd 3d
       0.10254852 0.10029821 0.11751917 0.09253077

net.4.bias f4 [8]
000000 0f 45 97 3f 9f 5d a7 be 6f d3 38 3f fe 02 47 3b
       1.181795 -0.32688615 0.7219762 0.0030366774
000010 aa 79 d4 3d 2d ad d2 3d b6 b5 d4 3d 81 bc ef 3d
       0.10374768 0.10286937 0.10386221 0.11705876
